exp_log/DualFranka_stage2 PPO and SAC/DualFrankaPPO_0614/DualFrankaPPO_0614.pth (torch, 752816 bytes, 36 tensors)

value_mean_std.running_mean f8 [1]
00000000: ef0e bb66 c198 4540
43.193402139031484

value_mean_std.running_var f8 [1]
00000000: 303a 6423 2f21 4740
46.25925104516898

value_mean_std.count f8 []
00000000: 0000 8000 e03f c241
612352001.0

running_mean_std.running_mean f8 [74]
00000000: 6fb8 c2c4 2908 c93f ebbb aa42 0789 dd3f
00000010: 1a1f a76d f037 c93f d977 c18e 9a5b eb3f
00000020: da61 4448 c470 ca3f a053 4782 a756 da3f
00000030: 3334 a34a 4531 bcbf c192 15b1 7b3c e8bf
00000040: da48 f40d 8a37 e8bf 8953 6fc7 9e35 c4bf
00000050: 52db e4e3 e6ab df3f 2a64 60d8 294d bdbf
00000060: 4012 ad2c b9e2 d63f 3d73 05f4 3abc d53f
00000070: c427 8e3a 2160 ee3f 66a3 7ea5 d217 a53f
00000080: e082 59b4 f62c cd3f 26fa 76a0 7645 cd3f
00000090: 097d f385 d997 573f 5573 c912 ef2a 5e3f
000000a0: 47d7 140a ab55 733f f408 535b 45bc 723f
000000b0: 6de7 92fe f9d4 683f 09e4 592d 1ad1 773f
000000c0: 68fc 6a97 e9e0 81bf fd00 e646 2357 3fbf
000000d0: f018 9eef bd60 59bf 5555 4f60 f091 2f3f
000000e0: f9ec 54d6 face a03f 40fd 1d98 ffe1 81bf
000000f0: 50a5 8c8d e9a5 6abf dab2 721f fcdd 96bf
00000100: 88c0 e1ea 1634 903f 0b41 257d f0ac a2bf
00000110: d7b3 2469 357f 62bf a897 63a3 73aa 903f
00000120: aca8 dc74 6caa 6dbf 7e73 695e 1a39 3abf
00000130: 65b1 6920 4825 5abf 4cbe d3c0 4c54 893f
00000140: 7a7c c425 c6c6 8cbf 7ace b975 1e32 943f
00000150: 67a4 c868 6824 dbbf 00df 4f27 4786 eb3f
00000160: fd64 2e26 0c27 953f f545 7c75 299a d13f
00000170: 7fa4 99d6 f6af d93f 0801 1304 3fbb e23f
00000180: 3fad 93ab ef40 e23f ef5f ceb8 bf71 dabf
00000190: e78e ae38 6491 de3f 2680 7545 be60 983f
000001a0: 7e65 a9d4 8a6c 98bf 2470 1466 42da e1bf
000001b0: 12b1 8653 b0ae b63f e9cb 44a9 23ee e93f
000001c0: d1a1 12c1 9721 e23f a3e4 1852 4a08 ea3f
000001d0: 9336 eeb9 3244 e23f 3ce6 a5ca 2a67 d2bf
000001e0: 0b9d b176 c926 e33f 9a2c 85c6 6025 0540
000001f0: 57a7 654b a66b d4bf a80c 92fb 0ae0 733f
00000200: 552d 7e03 b3ec 733f 3a40 55d4 c346 ddbf
00000210: 2d06 12fe 4dea eb3f 07cf 18bd 4739 d5bf
00000220: 60e0 18b4 828b f0bf 7579 bb49 9f7c ef3f
00000230: 9e36 592a 2441 0d40 c273 5bc1 748e be3f
00000240: dd62 9ffd e925 993f 70fa 817f d529 993f
0.19556161982967832 0.4614885474247205 0.19701962808743972 0.8549320972631406 0.2065663674227512 0.41153896067162954 -0.11012681076245272 -0.7573831995656165
-0.7567796967071232 -0.15788635957747157 0.4948670602347437 -0.11445867092733467 0.35758809435745675 0.3396136649151236 0.9492345946939555 0.04119737882803669
0.2279346829045812 0.22868235430901612 0.0014400123835043874 0.0018412909222640013 0.00472037136323939 0.004574080395459246 0.003031242628449718 0.00581464982462255
-0.008729767735870378 -0.00047821627858725386 -0.0015489439815339866 0.00024086055068887427 0.03282913080553302 -0.008731839017626641 -0.0032529412823307027 -0.022331180018840914
0.015823705755281497 -0.03647567298560447 -0.0022579234293034034 0.016275221679186963 -0.003621303395353234 -0.00040013211984107195 -0.001595802723069439 0.012367820391289495
-0.014051006343434692 0.01972243875066091 -0.4240971587447064 0.8601413505375319 0.0206567667297337 0.2750342986410879 0.40136500317618834 0.5853571967673199
0.5704267836676208 -0.41319268271899906 0.4776239923032634 0.023806546201171973 -0.02385155604347266 -0.557892989515953 0.08860303916180026 0.8103197389631279
0.5666006823494688 0.8135120013677305 0.5708249694304918 -0.28754682340477067 0.5984847372282344 2.6432509908095883 -0.31907040942188786 0.004852335835610656
0.004864405891463382 -0.45744415031095154 0.8723516428291923 -0.33162110773558634 -1.0340601954503867 0.9839626731953063 3.6568072613216165 0.11936120720515844
0.024558693032164725 0.024573646457151488

running_mean_std.running_var f8 [74]
00000000: 8648 6117 e04d 793f 5681 028e 04e9 823f
00000010: 4c48 5450 2893 a43f 3e2d bf2e 4782 9a3f
00000020: aa9e 0431 9b8f aa3f 292d bcbe ccbd a93f
00000030: a321 584c 6513 a13f 9b74 a2ca bd63 943f
00000040: 4bec 4413 ab3d 943f faa3 1fc3 c6bd 823f
00000050: 687a b8ad 657a 863f 745b 3d4e 2cc3 8e3f
00000060: e0ff 2110 fa12 aa3f ca59 aeec a632 903f
00000070: 91ea d5ae a4f1 743f 314e f488 1a5d 8c3f
00000080: 8a0a e96e a255 793f 152b d37e 9b79 793f
00000090: d3b2 e142 9628 753f b3a7 9816 c89d 723f
000000a0: ff5c 9375 6d4d 8d3f 0b98 0992 c1cc 793f
000000b0: bfa5 6b7d 640f 8e3f 509e dac9 7c19 8a3f
000000c0: f72f ff7a 24c4 903f 1c1b 08e1 3acf ef3e
000000d0: 4d3e 8962 0ffc f33e 89f7 31ec 2774 603f
000000e0: 7b85 3b54 4cf4 453f 2bb6 e8dd e66e 433f
000000f0: fea0 05f0 c432 6a3f 2e13 14db 14ce 6c3f
00000100: b70c 04d6 e473 833f ffc7 4432 9e05 843f
00000110: b2b5 630e 1948 8c3f bd30 4190 e94d 663f
00000120: 9f29 d013 8af5 853f 0a9c 926f ccd0 f83e
00000130: 4b32 47f5 c97c ff3e 4e0f fb87 51ea 603f
00000140: 9a7f 1a17 6093 413f 5776 e1f6 f97b 4b3f
00000150: 9409 d252 317b 7a3f cae4 c096 309a 7c3f
00000160: 8d1d f688 306b 753f e8e5 dcca df7f 9e3f
00000170: a6e4 7ccf e59e 923f 187a f8e0 0647 9c3f
00000180: 6afc a1d2 a027 943f 622b a0a0 2010 703f
00000190: 3a19 57bf 64a8 4c3f cd36 64d3 be09 783f
000001a0: 7e70 8eda f883 813f 9133 f371 0b98 7e3f
000001b0: f76c 290a a518 743f 3e5b 9daa 0dee 663f
000001c0: 8a32 ff53 308d aa3f f951 4b52 a461 9d3f
000001d0: 52fe 6d12 cb96 d53f f8e5 e0ae bedc ad3f
000001e0: 6a66 1419 c8de db3f 7e9f 3cd6 c2dd c63f
000001f0: dea6 8e56 e0ea d13f f23e 3dac c3b5 e03e
00000200: 8417 862a 9396 e03e 8459 9b0b 46aa b33f
00000210: af4e 73f1 6476 a13f 8bb2 d3cd ae23 c03f
00000220: 5c04 d776 5d5f bd3f e21c 51cc 0dff c03f
00000230: 3143 ef76 c99a 923f b4fb ad4b ffc2 bd3f
00000240: f287 80f7 0bc8 c43e e867 d906 84e5 c43e
0.006177783352614102 0.009233508666796435 0.040185222440542206 0.02588759634799697 0.051876878484390446 0.05027618244465721 0.033351102418296884 0.01991173314364812
0.01976649575338411 0.009151032285403805 0.01097564159777882 0.015020700586018988 0.05092603156026576 0.015818222232690173 0.005113261502055836 0.013849456123842337
0.006185183052880414 0.006219489482826264 0.0051656598644569006 0.004545003504555045 0.014307837629913054 0.006298786291699453 0.014677796437768785 0.012743925962538288
0.016373224265223 1.5167947851513863e-05 1.9058809046788774e-05 0.002008512472058525 0.000669991750751261 0.0005930545119718402 0.003198036807749215 0.0035162360514981094
0.009498393803829648 0.00977634039790942 0.013809390784866735 0.00272269838209213 0.010722235421799562 2.3666018908710013e-05 3.002877868301034e-05 0.002064856758666445
0.0005363673391975854 0.0008387537507236847 0.006465141935338887 0.006982984352412911 0.005229177083840309 0.029784676319854514 0.018184271611265367 0.027614696007839695
0.019682419639590533 0.003921630335763067 0.0008745662623191105 0.005868668950154987 0.008552498025715002 0.007469219882477855 0.004906315504366924 0.0027990595744244165
0.05185843491890292 0.028692786715355443 0.33732868957301776 0.05832477459666657 0.43547251176059965 0.17864261112958596 0.2799607129369245 7.96795701032925e-06
7.909862078002911e-06 0.07681691916818606 0.034106401895454545 0.12608895349639612 0.11473640586247441 0.13278362728508514 0.018168590435212188 0.11625667188307781
2.477339815968622e-06 2.491062381077155e-06

running_mean_std.count f8 []
00000000: 0000 0001 e03f b241
306176001.0

a2c_network.sigma f4 [18]
00000000: 7da5 523e 7f14 7a3e 3550 eb3e 92f9 da3e
00000010: c51f fc3e 8466 cc3e f072 df3e 14ad 123f
00000020: a7c7 1d3f 0c0c fc3e eda6 723e dcf4 c93e
00000030: 640c fb3e fe69 bd3e 861c af3e 0033 023f
00000040: 9886 fd3e 7119 fc3e
0.20570941 0.24421881 0.4595963 0.42768532 0.49242988 0.39921963 0.43642378 0.57295346
0.6163277 0.4922794 0.2369649 0.39444625 0.4903289 0.36994928 0.3420145 0.5085907
0.4951675 0.4923816

a2c_network.actor_mlp.0.weight f4 [256, 74]
00000000: df1b f3be 9316 cdbc 84b0 2f3d e430 1d3e
00000010: 9bd1 a93e d7e1 b13d 1013 28bd 2681 b0be
00000020: 3570 bbbd bcff 87be 5760 533e 580b ecbe
00000030: 709e 2d3e 891d 79be 7502 6f3c d0e5 ef3e
00000040: 8004 27be f6cd 12be 13c7 87bd d061 c1be
00000050: a26b 163e 26b4 983e eeb6 bd3d 3740 843e
00000060: 03a7 fdbc be75 6ebe 9605 d3be 2b19 0f3e
00000070: 6cb0 023c 03c0 54be 020c bdbd 8092 663e
00000080: dbd5 68be e6dd 1dbf d2c6 243b c66b 963d
00000090: 8be6 64bb 0194 a83d 40f1 703e 8107 d1be
000000a0: b8f6 093f ed4f 95bf 154a 93be 1000 d53e
000000b0: 1a1e 353d ad2a 56bd 64ea 4c3f b1ea 53be
000000c0: 89f8 d83d f839 c3be 693c a8bf fa0f e1be
000000d0: 4815 b7be 3147 d63d 87ea 343d 5c2a 8b3f
000000e0: 47cc 84be 7caa d13d 7216 b93c 3247 3f3e
000000f0: f81d 843e 7d07 5fbd 8aab 9ebd 78a8 f4be
00000100: b731 78be c8f3 79be 30b5 393e 645d 07bf
00000110: 89c9 413e 082c 74be 60a0 5b3d da2d ea3e
00000120: a3bb 06be 25b0 ff3c 8015 c43d 99f1 2dbd
00000130: 5981 99be aa7f 18bc d362 10bb 506c 2bbe
00000140: 442b 0b3d 8dee 92be 4857 adbd 098c d6bc
00000150: 6ff7 94be 3422 1d3e ace2 34be 66bd af3d
00000160: b94c a1be 5c19 f0be 79cd 50be 964a aebe
00000170: 18ff 8bbe d42f 713e f016 a9be d5fe 06be
00000180: f55a 2c3e 4420 0dbe cf41 3bbe fda0 163f
00000190: 051e 6cbf 7e74 b2be af87 d73e ae4a fabe
000001a0: 3b47 313f 5a65 13bd d9a5 923f 0b34 503e
000001b0: a7c0 aa3e 9197 8a3f 827e 653e 7e99 3ebf
000001c0: 0ec3 b0be 0b2d 20be 1d2d f0be 3acd f63e
000001d0: f275 083f a483 98bd 911b 7bbe 6530 c3bd
000001e0: 5cc5 3f3f e12e f43e af92 8bbe 80c0 8c3f
000001f0: e5ef abbf db82 c6be 09c7 14bf 8c48 93bf
00000200: da16 cb3d 97da 0bbf 90ed 82bc 9976 a7bc
00000210: 4af8 ccbe e2f7 81bd da62 dfbc e1de 28bd
00000220: d953 143b db67 20be df52 8dbe 833e 0cbe
00000230: 33c4 b1be c132 a83e 0deb 87be ad12 f83c
00000240: 8c4c 90be ae70 d2be f533 99be ef70 1fbe
00000250: 0b19 1d3d e6ee 103e a1d4 963b ddd9 2e3e
00000260: 221e 5abe 56fc d03d 613e b13e cdc9 0fbe
00000270: f536 ca3d d358 f73d abde 803e 2ba8 6bbd
00000280: 80f6 9dbb 6df6 913e 5c17 5a3f 948f 453e
00000290: f69d 303e af0b e0be 36e6 debd 0ac2 0ebf
000002a0: 7ebb cbbc 1d9d 19be 8b58 8bbe c539 603e
000002b0: f9f8 53bf a375 813e f5f9 863f 2f56 7a3e
000002c0: bfcd b23e 3841 073f 94d5 12bf c570 aabe
000002d0: b2ef c13e 0a3d a73e a35c 1ebf cf15 ff3e
000002e0: 5f35 1cbf 6d78 b03e 1b20 8c3e f6fd 2bbf
000002f0: a696 f1bd a585 79bd 62a1 e23c 02de 303f
00000300: 4b7c adbe 70ba 473e 1d89 65be a520 c93d
00000310: 6909 fa3e 36e5 b4be 57ea 363e ec99 dfbd
00000320: 9175 c03f 8ae8 43be e75a e03d 554c 0c3f
00000330: b66d 1f3e 32ff 483d e730 c03d d07f bf3c
00000340: a14f 9fbe 0645 1b3b 5b60 c23e 8e56 a7bc
00000350: cd61 f23d 77e0 043e 585d 963e e5fd 31be
00000360: 23ea a1bd 024c 553e 1c89 3f3f a235 2c3e
00000370: 3dca 973e 91c8 d0be 2f13 af3e 07eb b83e
00000380: e709 e4be 1082 96be f6ac 1abe 17e9 513e
00000390: 01e2 023e b614 503e ea44 2abd 2ae0 44bf
000003a0: a21d 4a3e 6206 78be f024 073f 5838 723e
000003b0: 3457 29bf 5d5e 1b3e 98cd 03bf 70d8 253f
000003c0: 118b ea3e 649e 2fbe b05e 49be 9a30 503f
000003d0: 8a37 82be 6774 763e ac1f c33e 6ef3 1fbf
000003e0: a625 18be b4ab 4cbe 52d9 aa3e e992 24bf
000003f0: 6bf5 0cbf b0a5 b4be 5db9 0ebf 257e 1b3e
-0.474822 -0.025035178 0.042892948 0.15350682 0.3316773 0.08685654 -0.041033804 -0.34473532
-0.09152261 -0.26562297 0.2064222 -0.46102405 0.1695497 -0.24327673 0.014587988 0.4685502
-0.1631031 -0.1433638 -0.06629767 -0.37769938 0.14689496 0.29824942 0.09263407 0.25830242
-0.030963426 -0.23287103 -0.412152 0.13974445 0.007976633 -0.20776372 -0.09230806 0.22516823
-0.2273783 -0.61666715 0.002514292 0.07344775 -0.0034927453 0.082313545 0.2352953 -0.40826038
0.5389209 -1.1665016 -0.28767458 0.4160161 0.04421816 -0.052286793 0.8004515 -0.20694996
0.10594279 -0.38130164 -1.3143436 -0.43957502 -0.35758424 0.104627974 0.044168975 1.0872302
-0.259371 0.102375954 0.02259371 0.18679503 0.25804114 -0.0544505 -0.07747562 -0.4778478
-0.24237715 -0.24409401 0.18135524 -0.5287688 0.18924536 -0.23844922 0.053619742 0.45738107
-0.13157515 0.031211922 0.09574413 -0.042466734 -0.29981497 -0.009307781 -0.002203156 -0.16740537
0.03397681 -0.28697625 -0.08463913 -0.02618982 -0.29095027 0.15345079 -0.17664593 0.08581047
-0.31503847 -0.46894348 -0.20390882 -0.3404128 -0.2734306 0.23553401 -0.33025312 -0.13183148
0.16831572 -0.1378184 -0.18286823 0.588394 -0.92233306 -0.348545 0.42095706 -0.488851
0.69249314 -0.03598533 1.1456863 0.20332353 0.33350107 1.0827504 0.2241154 -0.7445296
-0.34523815 -0.15642183 -0.4690942 0.4820345 0.5330497 -0.074469835 -0.24522234 -0.09530715
0.7491052 0.47692016 -0.27260348 1.0996246 -1.3432585 -0.3877171 -0.58116204 -1.1506515
0.09916468 -0.54630417 -0.01598242 -0.020442294 -0.4003318 -0.06346108 -0.027268816 -0.04122818
0.0022632985 -0.15664618 -0.27602288 -0.13695721 -0.3472 0.32851222 -0.26546517 0.030282343
-0.281834 -0.41101593 -0.29922453 -0.15570424 0.03835396 0.14153633 0.004602984 0.17075296
-0.21300557 0.10204379 0.34617904 -0.14041825 0.098737635 0.12077489 0.25169882 -0.057533424
-0.004820645 0.2850832 0.85191894 0.19293052 0.17247757 -0.43758914 -0.10883753 -0.5576483
-0.024869677 -0.1500134 -0.2721599 0.21897037 -0.8280178 0.25285062 1.0545031 0.24446939
0.34922597 0.5283389 -0.57357144 -0.3328916 0.37878186 0.32663757 -0.618601 0.49821326
-0.6101894 0.34466878 0.27368245 -0.6718439 -0.11796312 -0.06091847 0.027664844 0.6908876
-0.3388389 0.19504714 -0.22415586 0.098206796 0.48835304 -0.35331124 0.17862831 -0.1091803
1.5035878 -0.19131675 0.10954838 0.54803973 0.15569195 0.0490715 0.093843274 0.023376375
-0.3111544 0.0023692264 0.37964138 -0.020427015 0.1183506 0.12976252 0.2936809 -0.1738201
-0.07905986 0.20829776 0.7481859 0.16817334 0.29646483 -0.4077802 0.34194323 0.36116812
-0.44538805 -0.29396105 -0.15105042 0.20499073 0.12781526 0.203204 -0.041569628 -0.7690455
0.19737867 -0.24221185 0.5279074 0.23654306 -0.66148686 0.15172715 -0.51485586 0.6478338
0.45809224 -0.17150265 -0.19665027 0.8132416 -0.25432998 0.24067841 0.381101 -0.6248082
-0.14858112 -0.19987375 0.33368927 -0.6428667 -0.5506198 -0.3528266 -0.5575159 0.15184839

a2c_network.actor_mlp.0.bias f4 [256]
00000000: 3069 13c0 92ca e1bf 4c60 eebf a8a1 5fbe
00000010: d2fe 77bf 1fd6 8fbe 0c86 e7bd 7b24 a3bf
00000020: cce5 6ebf abd5 29c0 4780 dfbe 1c2f 89bf
00000030: 7ea4 7fbf bcb3 6ebf 3224 7a3f 7491 1e3d
00000040: fefd 27bf d487 48bf 94ff cdbe 2dac 1dbf
00000050: 0598 70bf 6a5f 18be 3d55 d6be 9087 9dbf
00000060: ca9a 98bf 2d17 86be b17b babf 88c9 debf
00000070: fc12 90bf 1ef5 05bf 3873 93bf 9755 213f
00000080: 1380 d3be a3cc 97bf 5286 77bf 0447 f1be
00000090: 80bc 39bf eea0 88be a61b 3bbf 6043 05c0
000000a0: fd51 50bf d3bb 02c0 92ff e5bf 22f0 6bbf
000000b0: 1d2b 90bf 86a5 dbbf 8298 6fbe c410 253f
000000c0: 5e47 3c3e ca2c aebf b938 49bf 9cec f5be
000000d0: e3a4 4ebf 3553 bfbf 3b70 57be cd23 7bbf
000000e0: 0873 35bf 794b 3cbe 95c6 53bf 32ca debc
000000f0: 512f ebbe 0172 4cbf 63b1 e0bf 6754 fcbe
00000100: f7bf 82bf 0052 eabe 6aec bebf ad16 90bf
00000110: 65ff 0abf 3966 983e b276 98be 9d6d d4bd
00000120: 9804 babf 300a 48bf 9348 9dbe 4ba2 3bc0
00000130: 4456 943d e6be 73bf 83b5 ffbf ecaa 5ebf
00000140: e63c b6bf 3c76 e5bf be3e 9bbf 2614 70bf
00000150: 00df 4dbf 882d e2be 35f6 09bf f72f 7fbf
00000160: 1f23 8dbf 90c0 6ebe 1a2c abbf 8b95 0bbf
00000170: b6ac a1bf efb6 dcbe b20a 96be 22b5 b4be
00000180: 8071 91bf 90a0 82bf fc97 94bf a4dd b1bf
00000190: 1215 3cbf 0dc7 b0bf 0252 68bf 9008 52bf
000001a0: 40c3 b5bf 00d0 adbf 0e9b 8bbf 4356 56bf
000001b0: b399 86bf 48e0 13bf a200 80bf 56fc adbf
000001c0: 6e4d c9be df48 58bf 212e 843e bd99 c8bd
000001d0: 5460 91bf 5428 19bf 95a9 78be 7ff1 88be
000001e0: e1fd 3bbf a078 22bf 1b39 8cbf 0e05 09bf
000001f0: 8bb2 ebbf 7087 b8bf 2f98 e0be fd2b 4ebf
00000200: ae24 09bf 2c0b 1ebf 3bd7 96bf 4273 14c0
00000210: 723c 5fbf e396 ce3d 55ee 21bf 58f9 72bf
00000220: a3f9 6cbf f5cf 1ac0 8bd6 febf 474c 8bbf
00000230: 79d9 f2bf 359f 77bf 4d28 f0be 0ba2 fbbf
00000240: fabb ecbf 8810 81bf 8762 d2bf 931d 94bf
00000250: 159f 58bf b87f eebe 070c 3bbf 225d 09bf
00000260: 0227 3fbf 4c9e e5be 5461 7cbf 15a1 69bf
00000270: ee6f 513f 5506 10bd d0dd a0bf 6a79 debf
00000280: cd8c f4bf 9d47 5fbf 29a2 0ebf 38d5 363e
00000290: 90c4 82bf 6f51 a7bd 5fd3 61bf 9be7 0cbf
000002a0: d97a 3abf bf83 69bf 20e7 55bf a0f2 31c0
000002b0: 33c8 9cbf d355 01c0 cc8d 9bbf fd62 60bf
000002c0: 34de 3cbf 7b9a debf 9760 7ebf 35f2 87be
000002d0: 6b35 03bf 0920 aebf 2c97 09c0 8cd2 e4be
000002e0: 60a9 c9bf bd43 d03e fbd7 e2bd 2845 bcbf
000002f0: c15d 1cbf 3d69 90bf afb6 3dbf 36e8 65bf
00000300: 33ab ecbb 0450 26bf 99ce 06c0 7cfb c7bf
00000310: 0625 9cbf 52fe f1bf ec59 d0bf 2388 6dbf
00000320: 59c5 7abf 84d7 98bf 190d 9bbf 5bc0 c4bf
00000330: 9193 09bf c829 5fbd 5a26 86bf 92d7 863f
00000340: 4b86 dcbf 7bdc 83bf 2227 f2be c227 54bf
00000350: 3d57 9b3e d805 82bf eff4 d7bf a0a4 86bf
00000360: eb82 ab3d 10c3 9dbe 5ae8 45bf fa18 b5bf
00000370: b357 7bbf 7dfd 99bf 5d0c d5bf 3e3e 493e
00000380: 00ac 17bf e41f 5cbe 08bc 66bf f2b8 90bf
00000390: cbfc d0bf aa50 86be 30be a4bf 2e52 1dc0
000003a0: 48f3 2dbf 49ec 73bf f03e c3bf 3dba f83d
000003b0: 69d2 9ebf 862b 7bbf 5611 ae3e 0823 60ba
000003c0: 3cf8 b7be 18c4 9abf d6d4 98bf 1cf6 60bf
000003d0: b8a1 92bf 0e9f 17c0 7774 abbf 68b4 05c0
000003e0: c716 27bf 07f2 34bf 7de2 d0bd 0669 33bf
000003f0: 34a9 84bf a9e0 6bbe 9e06 76bf 1b70 e3bf
-2.3032951 -1.7639945 -1.8623137 -0.2183901 -0.968732 -0.2809305 -0.11304864 -1.2745508
-0.9331939 -2.6536663 -0.43652555 -1.0717502 -0.9986037 -0.93243 0.9771148 0.038712934
-0.65621936 -0.7833226 -0.40234053 -0.61590844 -0.93981963 -0.14880148 -0.41861907 -1.2306995
-1.1922238 -0.26189557 -1.4568998 -1.7405252 -1.1255794 -0.52327144 -1.1519537 0.63021225
-0.4130865 -1.1859325 -0.9668933 -0.47124493 -0.72553253 -0.2668528 -0.73089063 -2.0822372
-0.81375104 -2.0427139 -1.7968619 -0.9216329 -1.1263157 -1.7159889 -0.23398021 0.6447871
0.183866 -1.3607419 -0.78602177 -0.4803208 -0.8072035 -1.4947268 -0.21038906 -0.981015
-0.7087865 -0.18388166 -0.8272489 -0.027196024 -0.45934537 -0.79861456 -1.7554134 -0.49283144
-1.0214833 -0.45765686 -1.4915898 -1.125692 -0.5429595 0.2976549 -0.29778057 -0.103724696
-1.4532652 -0.78140545 -0.30719432 -2.9317806 0.07243016 -0.9521316 -1.9977268 -0.86979556
-1.4237335 -1.7926707 -1.2128522 -0.93780744 -0.80418396 -0.44175363 -0.5389131 -0.99682564
-1.1026343 -0.23315644 -1.3372834 -0.5452506 -1.2630832 -0.43108317 -0.29305035 -0.35294443
-1.1362762 -1.020525 -1.1608882 -1.3895764 -0.7346965 -1.3810745 -0.90750134 -0.82044315
-1.420021 -1.3579102 -1.0906694 -0.83725375 -1.0515655 -0.577641 -1.0000193 -1.3592632
-0.39316887 -0.8448619 0.25816444 -0.09794948 -1.1357522 -0.5982716 -0.2428344 -0.26746747
-0.73434263 -0.6346531 -1.0954927 -0.5352334 -1.8413862 -1.4416332 -0.43866107 -0.8053587
-0.53571594 -0.61735797 -1.1784433 -2.3195348 -0.8720161 0.10087373 -0.6325429 -0.9491172
-0.92568415 -2.4189427 -1.9909223 -1.0882653 -1.8972617 -0.96727306 -0.46905747 -1.9658827
-1.8494866 -1.008317 -1.6436318 -1.1571525 -0.8461774 -0.46581817 -0.7306523 -0.53657734
-0.74668896 -0.44847333 -0.9858601 -0.91261417 0.81811416 -0.03516229 -1.2567692 -1.7380803
-1.9105469 -0.8721865 -0.55716187 0.17854774 -1.0216236 -0.08169829 -0.8821315 -0.550409
-0.728437 -0.91216654 -0.83555794 -2.7804337 -1.2248596 -2.0208633 -1.2152648 -0.87651044
-0.73776555 -1.7390894 -0.99366134 -0.26551977 -0.51253384 -1.3603526 -2.1498518 -0.44691885
-1.5754814 0.4067668 -0.11076351 -1.4708605 -0.6108056 -1.1282116 -0.7410688 -0.8980745
-0.007222557 -0.64965844 -2.1063597 -1.5623622 -1.2198799 -1.8905737 -1.6277442 -0.92785853
-0.9795738 -1.194077 -1.2113372 -1.5371202 -0.53740793 -0.054483205 -1.0480454 1.0534537
-1.7228483 -1.030166 -0.4729548 -0.82873166 0.30339995 -1.0158033 -1.6871623 -1.051899
0.0837458 -0.30812883 -0.77307665 -1.4148247 -0.98180693 -1.2030483 -1.6644398 0.1965265
-0.59246826 -0.2149654 -0.9013066 -1.1306441 -1.6327146 -0.26233417 -1.2870541 -2.4581409
-0.6794934 -0.9528242 -1.5253582 0.12144897 -1.2407962 -0.98113286 0.339976 -0.0008550142
-0.35931575 -1.2091093 -1.1939952 -0.87875533 -1.1455603 -2.369083 -1.3394917 -2.0891361
-0.6526913 -0.70681804 -0.10199449 -0.7008213 -1.0364137 -0.2303492 -0.9610385 -1.7768587

a2c_network.actor_mlp.2.weight f4 [128, 256]
00000000: 949e 2f3f f086 9b3e 8188 17bf d18c e23e
00000010: a9a5 9d3e 1b8c 2dbe cb7a ec3d dc58 c03e
00000020: 91a5 4abe 13ee 643e 4868 0bc0 0a7e 4ebe
00000030: 5dbb 113e 5da0 afbd 552e 45be f985 c03d
00000040: de01 89be 0cb2 51bf 317e e6be f884 f5bd
00000050: 9d08 033e cc89 fa3e 65df c23e 28cc 133d
00000060: 2142 243f edb3 3cbf 8eba d33e 5bdc 8e3c
00000070: b7c0 333d a3ab 68be 3c66 4dbd 6076 823e
00000080: c44b 16be 3b76 b5bd 36ea c1be be15 cebe
00000090: e6f2 c5bd 375d 49be 729c 6c3c 3568 7e3e
000000a0: d243 e4be 2132 143f 615d eebc 0f4d cf3d
000000b0: b33f 6b3e df43 a4bd 72fe 56be 8a9f 0bbf
000000c0: c4dd 0fbf d0a4 de3e 20e6 8dbe e1c7 873e
000000d0: 88da 243f 308f 15be 6b88 47bf 2c13 e33d
000000e0: 395c 41be 541c 2b3d 777a 06be 1719 38bd
000000f0: 212a 893e 3f4f d73e aefe f8bc 1e67 15be
00000100: 6e22 543f 8b45 c8be 02af 8fbd 335d c8be
00000110: 3c7f b53e 8904 0fbe 8dad de3d f9ca 91bd
00000120: 8b0b b1bd bdb4 99be b66a 7bbe a1b2 82bd
00000130: 3730 32bf 16e1 dabd 1775 593f f356 1e3a
00000140: a049 783d 4d12 ae3b 708b a7bd c985 8bbe
00000150: a928 28be 5aec 6fbd 1e89 13be c4e7 463f
00000160: d775 6fbe aa35 44be 0b32 27bf 63f7 b93d
00000170: 00fd b63c 42e4 33bf 7573 ccbe 3289 3f3d
00000180: 140b 443e b0ca 173f 3a79 54be 1548 90be
00000190: 0803 fbbd c534 e9bd 0921 7d3e c50e bfbd
000001a0: 7253 edbd 8bd6 b23e 3505 86bf 477f e6bd
000001b0: 60b2 f43d 20b3 37bd 0e1f 943d 8a98 123e
000001c0: 0f17 0abf fbea e1bf 5344 47bf f179 103d
000001d0: 57a2 2ebe ce80 44be e50e c3bd 3966 cbbe
000001e0: 5865 e5be d5f3 fdbd 4435 8e3d 9616 b7bd
000001f0: 9600 95bd 7abe 593e 3024 5f3e 935b 0abf
00000200: 5fda 53bd ebf7 37be 162a ca3d 7a06 233e
00000210: ce17 0840 978e cbbc d635 d53c 4049 c33d
00000220: ae89 563e e3de 233e d06b b43d 93f1 8d3e
00000230: cd36 193e 180b 74bd dd8d 26bf a909 fd3e
00000240: 4610 3a3f 5460 dfbd 784b e33e 0a29 123f
00000250: 0d40 d2be 081a 5abc d903 6e3d e02e 97bd
00000260: a86d aa3d 15f1 8c3e 8f0f 823d 0eb8 4a3e
00000270: 2d61 33bf b90d e9bd 2c56 5b3e 72a6 c63e
00000280: afce 6c3e 38ee 22be 2e00 c13d bf68 f7be
00000290: 968d 163e f91e 7d3e 7a7b 8fbd 3a04 ee3e
000002a0: 3304 21bf c956 003f 4c4a 53bd e53d b83e
000002b0: 34d1 303e c154 073f b9e7 03bf 672a 493c
000002c0: b8e9 9fbe 6686 c93d 6e79 133e 8e3e cdbc
000002d0: 3aa4 2ebe 27f6 85bd ce53 893f f155 9d3d
000002e0: 6d56 de3d 0bc2 d83e 1699 62bf 8663 a3bd
000002f0: b61e 553e fccc 86bf 044a 06bf 5958 783e
00000300: d7a7 85be 18f1 9c3c 11ad 6a3e 8cfd 8c3d
00000310: f0f6 793d 2a29 5e3e cd50 213d ce75 0dbf
00000320: dbf7 ab3e ada1 84bd ad34 91be 6086 e4bd
00000330: 4ee0 1d3e 9374 843d 5367 0ebd 76f0 e4be
00000340: 6ed3 873e 2acd f0be 241a f8bd c186 06bf
00000350: 9eb6 dbbf 1602 153d df34 863f f5cb 013e
00000360: 1c81 a5be b91e 3abf b155 6b3e ca49 04be
00000370: b662 1dbe d376 8ebe 1f68 cd3e eeb2 59be
00000380: 0b3c 3bbd 1f94 2cbe 432a 45bf 0c18 853f
00000390: c2df 81be e1b3 f53a a23b 7dbe 44d8 223d
000003a0: 8e80 893e c04a 193d b891 74be 91c9 98be
000003b0: d958 d23e 87b7 4d3f 17e3 04bf ee02 20bf
000003c0: 13ae bbbe cbcc 613e 60f4 6a3e f0bd dbbd
000003d0: 5326 ff3c 81ba 7cbe b441 c4bd 2946 513e
000003e0: 1527 3c3e 6395 4a3f 734e 09bf 2d8d fabd
000003f0: 700a 57be d60d 8cbd f34b e1bd a439 8d3e
0.68601346 0.30376387 -0.59192663 0.4424806 0.3079045 -0.16947977 0.115468584 0.37567794
-0.19789721 0.22356443 -2.1782398 -0.20165268 0.1423163 -0.08575509 -0.19255956 0.09400553
-0.26759237 -0.819123 -0.4501815 -0.119882524 0.12796254 0.48933256 0.38061062 0.03608337
0.64163405 -0.73712045 0.41353267 0.017439058 0.04388496 -0.22721724 -0.050146326 0.25480938
-0.1467734 -0.08860441 -0.37874 -0.40250963 -0.0966547 -0.19664465 0.014441596 0.2484444
-0.44582993 0.5788899 -0.02909726 0.1012212 0.22973518 -0.08020758 -0.209955 -0.5454031
-0.5619776 0.43485117 -0.27714634 0.26519683 0.6439595 -0.14605403 -0.7794253 0.11087641
-0.18882836 0.041775063 -0.13132654 -0.044945803 0.26789954 0.42052647 -0.030394878 -0.14590117
0.82865036 -0.39115557 -0.07015802 -0.39133605 0.35448635 -0.13966574 0.10872946 -0.07118792
-0.0864478 -0.30020705 -0.24552426 -0.06381727 -0.6960482 -0.10687463 0.8494429 0.0006040178
0.06061709 0.00531224 -0.081808925 -0.27250507 -0.1642176 -0.05857501 -0.14407775 0.77697396
-0.23384796 -0.19161096 -0.65310735 0.090803884 0.022337437 -0.7027017 -0.39931837 0.0467617
0.19144851 0.5929365 -0.2074937 -0.28179994 -0.122564375 -0.11387018 0.24719633 -0.09328989
-0.115881816 0.34929308 -1.0470339 -0.11254745 0.11948085 -0.04484856 0.07232486 0.14316002
-0.53941435 -1.7649835 -0.7783863 0.035272542 -0.17054115 -0.1918976 -0.09524325 -0.39726427
-0.44803882 -0.12400023 0.06943753 -0.08939855 -0.072755024 0.21264067 0.21791148 -0.5404598
-0.051721927 -0.17965667 0.098713085 0.1592044 2.126453 -0.024848266 0.026026648 0.09535456
0.20950958 0.16002993 0.08809626 0.2772337 0.14962311 -0.059580892 -0.65060216 0.49421433
0.7268108 -0.10907045 0.44393516 0.5709387 -0.41064492 -0.01331187 0.05810914 -0.073819876
0.083216965 0.2752768 0.06350624 0.19796774 -0.70070153 -0.113795705 0.2141959 0.38798863
0.23125719 -0.15911186 0.094238624 -0.48322102 0.14702448 0.24718846 -0.07005973 0.464876
-0.6289703 0.50132424 -0.051584527 0.35984722 0.17267305 0.528637 -0.51525456 0.012278176
-0.31233 0.098400876 0.1440179 -0.025054242 -0.17054835 -0.065410905 1.07287 0.07682408
0.10856328 0.42335543 -0.8851484 -0.07977967 0.20812497 -1.0531306 -0.5245669 0.24252452
-0.26104614 0.019157931 0.22917582 0.06884298 0.061026514 0.2169539 0.0393837 -0.5525788
0.33587536 -0.0647615 -0.283605 -0.111584425 0.15417597 0.06467547 -0.034766506 -0.44714707
0.26528496 -0.47031528 -0.12114361 -0.5254937 -1.7165105 0.036378942 1.0484885 0.1267546
-0.32325065 -0.7270313 0.22981907 -0.12918773 -0.15369686 -0.2782503 0.401185 -0.21259663
-0.04571156 -0.16853379 -0.7701761 1.0397964 -0.25366026 0.0018745625 -0.2472978 0.03975703
0.26855892 0.037424803 -0.23883712 -0.29841283 0.4108341 0.80358166 -0.5190901 -0.6250447
-0.36656246 0.22050779 0.22944784 -0.10729587 0.031146204 -0.2468052 -0.095828444 0.2043692
0.18374284 0.79134196 -0.5363533 -0.122339584 -0.21000075 -0.068385765 -0.11000814 0.2758304

a2c_network.actor_mlp.2.bias f4 [128]
00000000: b6cd a5bf 7218 f7be 0648 13bf 7eea 93bf
00000010: 2c52 48bf a60f 763e 40ed 0ebf 5e16 32bf
00000020: 32aa babe f0ed c1be a41a 53bf fecf 18bf
00000030: e05d 233e 9209 81bd d3b7 b3bf 0261 a1bf
00000040: 0134 7fbe d845 3bbf 3fd3 13bf c4d7 fbbe
00000050: df82 91bf fcb2 7dbf e0b7 f2be 9163 90bf
00000060: b18a 8abf a097 4abf 11ff 70c0 a261 47bf
00000070: 621b c4be 75ee 6abf db73 b5bf 2097 c1bf
00000080: f67d 65bf 41fd 4abf 265c 51bf 7522 8bbe
00000090: a796 57bf d16c 1bbf f288 e83c 9640 46bf
000000a0: 8675 14bf 93e2 a5bf b56a 04bf 883a 37bf
000000b0: d4c1 45bf 86e9 f8be e8bb 63be d5d0 97bf
000000c0: f511 85bf b181 42bf 3032 6abf cd56 6fbe
000000d0: e137 a3bf c209 44bf 680e 2bbf 1041 47bf
000000e0: 341d 1ebf 6b07 58bf 8d18 12be 154c b1be
000000f0: 1cbd 1dbf 17be f23c 674b 7ebf 3020 c8be
00000100: 830c 5cbf 451c 3abf fa64 1ebf c39b 3ebf
00000110: 2cb8 20bf d502 f4be 81d4 ac3b fa8b a5bf
00000120: e549 12bf ce58 1ebf 4a1d b5be 18e2 9fbe
00000130: 2fdb e6be 16a5 32bf b0bc 19bf 2ff6 42bd
00000140: 7ca5 43bf e791 81bf 67ab 45bf b208 96bf
00000150: 5a05 9dbe df06 88bf 6d33 a3bf 9c52 49bf
00000160: 911d 02c0 4460 39bf da53 8abf 6d04 bbbe
00000170: 76b6 1cbf 9f85 63bf c4a9 8ebd 412a a3bd
00000180: 4205 a8bf b364 9fbe b92c c7bf 7721 c4bc
00000190: 557d 7bbf 4aac 86c0 da21 c7be 14f0 61bf
000001a0: fa26 2dbf d01f 3fbf 68ba 53bf 85d3 c5bc
000001b0: edfe cdbe 32ee 23bf 9547 33bf 60aa cabe
000001c0: d7ea 01bf 9acd 84bf 9d50 1bbf efa3 14bf
000001d0: 149b 92bf 407a 3bbf c7e5 9ebe 6e6c 1fbf
000001e0: 89c3 40bd 2666 8a3e e3ed 71bf 6260 50bf
000001f0: 970a f53e 86f9 54bf 2fa1 77bf dd15 1fbf
-1.2953403 -0.48260838 -0.57531774 -1.1555936 -0.78250384 0.24029407 -0.55830765 -0.6956538
-0.36457974 -0.37876844 -0.82462525 -0.5969237 0.15953779 -0.063006535 -1.4040474 -1.260773
-0.24922182 -0.7315345 -0.5774421 -0.49188054 -1.1368064 -0.99101233 -0.4740591 -1.1280385
-1.0823575 -0.7913761 -3.765568 -0.7788335 -0.3830214 -0.91770107 -1.4175981 -1.5124245
-0.89645326 -0.79292685 -0.8178123 -0.27174726 -0.8421425 -0.60712916 0.028385613 -0.774423
-0.57991827 -1.295977 -0.5172532 -0.71573687 -0.77248883 -0.48615664 -0.2223965 -1.1860605
-1.0396105 -0.75979143 -0.9148283 -0.23372956 -1.2751428 -0.7657739 -0.6681886 -0.7783365
-0.6176331 -0.8438632 -0.14267178 -0.34628358 -0.61616683 0.029631658 -0.99333805 -0.39087057
-0.8595659 -0.72699386 -0.6187283 -0.74456424 -0.62781024 -0.4765841 0.005274356 -1.2933342
-0.57144004 -0.61854255 -0.35373908 -0.31227183 -0.450891 -0.6978315 -0.6005354 -0.04759806
-0.76424384 -1.0122651 -0.77214664 -1.1721404 -0.30668145 -1.0627097 -1.2750069 -0.78641677
-2.0330546 -0.72412515 -1.080684 -0.36526814 -0.61215913 -0.88875765 -0.06965974 -0.07967044
-1.3126605 -0.31131515 -1.5560523 -0.023941739 -0.98238117 -4.2085314 -0.38893014 -0.88256955
-0.676376 -0.7465792 -0.8270631 -0.024148712 -0.40233555 -0.6403533 -0.700311 -0.3958311
-0.5074896 -1.0375245 -0.6066988 -0.5806264 -1.1453576 -0.73233414 -0.3103468 -0.62274826
-0.047061477 0.27031058 -0.9450361 -0.8139707 0.47859642 -0.8319324 -0.9673032 -0.62142736

a2c_network.actor_mlp.4.weight f4 [64, 128]
00000000: 7c20 82be c5b6 a9be 88cf 073e 235f f83e
00000010: c04c a83e dfac 70bb f6aa 283e b077 413e
00000020: 503c c6bd 9d7c a33d 6fb6 7a3e 8fc7 44bd
00000030: 55ce a2bf f9cd 34be bcb3 e5be 4be1 123f
00000040: c2a6 89be 257b 793e 511e a4be ea91 8dbe
00000050: 71a3 dfbd e7db eb3d 09db 793e 46a1 90be
00000060: 05e4 2a3f cb69 0b3e 9f6e 8b3c 477b 883d
00000070: 1b11 11bf 1024 d63e 1fcf 8e3e af4b 093f
00000080: 5fb9 a3be 9f2f cd3e 5a88 993e ac8f 423e
00000090: fbbc bd3d 57a4 b43b be21 813e d1a0 46be
000000a0: 277f fa3d 4292 fbbd 07ae c3bd ab8b c53e
000000b0: b816 433c a312 443e a6fc c93d 107b a03e
000000c0: 0e43 eebd 9df8 2fbd 8ad7 09be efc9 4e3d
000000d0: 6b18 053f 4ed3 c23d 6418 abbe 0a8e ba3e
000000e0: 9c93 9c3d f284 5bbe e906 45bd 545e 1ebd
000000f0: e5b4 bebe 4f57 d63d 5da4 8c3e 665a a63d
00000100: e97e bcbd d774 813a 8444 253f 4220 7abd
00000110: 724a edbc 49b3 87ba 35cb 59be 8075 063e
00000120: f128 ce3d 33b1 9f3e 23c5 913c 570a bebe
00000130: a2d5 53bc 149c 433e 3e38 f73c fb42 b9be
00000140: 23b1 653e 38f5 643e c21d 6ebe c4e7 aebe
00000150: 9ab2 3bbe b01e 97bc b2d9 973e c8ef adbd
00000160: 0263 143e 46c6 ac3d 904c 5f3e a32a 873e
00000170: 2fc6 4a3e 605a 0fbe f97b d9bc abf4 dabe
00000180: 8865 5bbd 41cc f939 817f 5c3e ce62 22bc
00000190: a572 913e 8f9b dcbe e463 b1bc f72c 413c
000001a0: 31db bdbe cc11 c93e b8fd 163e 1e95 8c3d
000001b0: df4e a7be 457d 973e 8014 773e f64c 84be
000001c0: b7c6 8c3b a9d8 303e fcc2 9c3d a8b0 bb3e
000001d0: 86a8 c73d 5dbf ca3e c15b 10bf 9bca 963d
000001e0: b4f6 c4be 4e5d 03bf 1f83 183e 1eaa e8bc
000001f0: b59c 84be 824d b13e aa66 e43e 60a0 ddbe
00000200: 7e5e 393c 750c 993d edaa 733c 66e3 8e3e
00000210: 381f 07be bb8b 9b3d 4b23 0d3e 79b1 a7bd
00000220: c927 4abc dad4 5ebe 948e 5c3d b736 92bd
00000230: 2d5a f1bd bfb5 96bc 5711 86be 64ec 993e
00000240: 300b 04be 81a1 87be b022 5d3e b898 8c3d
00000250: f0f8 31bc 0619 76be c2bf 4cbe 8705 753e
00000260: 4d59 ea3d fa0c 503c 3ba7 3e3e 2e5d 8fbd
00000270: 1720 d7be b95e 74be 070e 0e3e 51d8 fcbe
00000280: 6963 a73d e293 15be 7f83 943d bdf4 bdbd
00000290: a37a f0be 51e2 76bc 50f3 36bd 6ceb 00be
000002a0: 456d e3be 124e cf3e fc9e e63e 763a 33be
000002b0: 2f1a 27bd 47d8 94be ad6f 093e d01c d33d
000002c0: 694f dc3c 3c81 81bc fe1f ba3e f61c 60bd
000002d0: 5a37 e5bb fa5b 3e3e 8e90 82bd c93d 493e
000002e0: c4b3 3f3e 3176 51be cd9c cfbd 5f00 123e
000002f0: 4a78 85be 9d79 f3be b022 aa3e e869 15be
00000300: 5340 42be bc14 163e 531c 05be eb60 01bf
00000310: ffa5 803d 568b 99bd 095a 0e3e 19c3 9b3e
00000320: 680d 333e 86ba 96be ceab 38be 51ea 56be
00000330: 3075 25be 8c63 a13e ae81 733c 3fec 55bf
00000340: 8174 0a3d b1e6 2abd c7a6 9eba d99d c33d
00000350: 002f 023e 7378 093e a951 c43e ce9d 40bb
00000360: e049 44be 35af 303e 1b7a ff3d ca6b c13d
00000370: 1896 15be 7e7c 583d d844 8ebc 335a bf3c
00000380: 96f2 b8be aee8 e2be 0c58 d5bd 3b82 0d3e
00000390: 964f 123e 1e7c 303d 7295 0e3b bdab 7e3c
000003a0: 7b81 793e 11e7 db3c 9dbe 54be b939 d8bd
000003b0: a430 2abe 3088 713d 2435 b33d 7912 71be
000003c0: 8aa5 25be 81d9 6c3e 58e7 e83d e415 6d3e
000003d0: 77d1 113e 467d 1c3e 09e9 4f3e 557b 2db9
000003e0: e7cc 51be d382 c1bd e5e7 a23e 4fdf 9cbe
000003f0: 9437 373a 8149 583c 41e5 4e3d ea1c 323e
-0.2541541 -0.33147255 0.1326276 0.48510084 0.32871056 -0.0036724133 0.16471466 0.18893313
-0.096794724 0.079827525 0.24483655 -0.048041876 -1.2719218 -0.17656697 -0.4486369 0.5737502
-0.2688504 0.24363382 -0.3205438 -0.27650386 -0.10919846 0.115165524 0.24399962 -0.28248042
0.6675418 0.13614576 0.017020522 0.06664138 -0.56666726 0.41824389 0.27892396 0.5363111
-0.31977364 0.40075395 0.2998684 0.19000119 0.09264561 0.005512755 0.25221056 -0.19397284
0.12231284 -0.12283756 -0.095546775 0.3858312 0.011907272 0.19147734 0.09862642 0.3134389
-0.116338834 -0.042961705 -0.13461128 0.050485548 0.51990384 0.095129594 -0.33417046 0.36436492
0.07645342 -0.21437433 -0.048102293 -0.038664177 -0.37247387 0.104658715 0.2746915 0.08122711
-0.09203894 0.000987674 0.6455767 -0.06106592 -0.028966162 -0.0010353114 -0.21268924 0.1313076
0.10066403 0.3118988 0.017794197 -0.37117264 -0.012929352 0.19102508 0.030178186 -0.36183915
0.22430854 0.22359169 -0.23253539 -0.34161198 -0.1832985 -0.01844725 0.29658276 -0.08493
0.14490893 0.08436255 0.2180655 0.26399717 0.19802164 -0.13999319 -0.026548373 -0.42764792
-0.053563625 0.00047645162 0.21533014 -0.009911252 0.2840778 -0.43087432 -0.021654077 0.011790506
-0.37081292 0.3927139 0.14745224 0.06864379 -0.3267736 0.2958776 0.24128914 -0.25839967
0.0042961496 0.1727015 0.07654378 0.36658216 0.0974894 0.39599124 -0.56390005 0.07362863
-0.3846947 -0.51314247 0.14893769 -0.02840143 -0.25900808 0.34629446 0.44609576 -0.4328642
0.011314033 0.07473079 0.014872295 0.27907866 -0.13195503 0.07595011 0.13782994 -0.08188147
-0.012338587 -0.21760884 0.05384691 -0.07139342 -0.11784778 -0.01839721 -0.26185104 0.30063164
-0.12894893 -0.26490405 0.21595263 0.06865066 -0.010862574 -0.24032983 -0.19995025 0.2392789
0.11442814 0.012698406 0.18618481 -0.070001945 -0.4201667 -0.23864259 0.13872539 -0.49383786
0.08173258 -0.14607194 0.072516434 -0.09275196 -0.46968564 -0.0150686065 -0.044665635 -0.12589806
-0.44419304 0.4048925 0.4504317 -0.1750277 -0.040796455 -0.29071257 0.13421507 0.1030823
0.026893334 -0.015808694 0.36352533 -0.05471512 -0.006995124 0.18589774 -0.06375228 0.19652475
0.18720919 -0.20455243 -0.10137329 0.14257954 -0.26068336 -0.4755372 0.3322959 -0.14591181
-0.1896985 0.14656347 -0.12999086 -0.5053851 0.06281661 -0.07497279 0.13901533 0.30422285
0.17485583 -0.2943918 -0.18034288 -0.20987822 -0.16157985 0.3152126 0.014862461 -0.8356361
0.033802513 -0.04172391 -0.0012104147 0.095515914 0.12713242 0.13424854 0.38343552 -0.0029390934
-0.19168806 0.17254336 0.12474462 0.09444387 -0.14608037 0.0528531 -0.017366812 0.02335844
-0.36122578 -0.44318146 -0.10417184 0.1381921 0.14288172 0.043087117 0.0021756557 0.015543875
0.24365799 0.02684358 -0.20775838 -0.10557885 -0.16620117 0.05896777 0.0875037 -0.23542203
-0.1617643 0.23129846 0.1137225 0.23152882 0.14240061 0.15282163 0.2030374 -0.0001654451
-0.2048832 -0.09448781 0.31817546 -0.3063912 0.0006989178 0.013201118 0.050511602 0.17393842

a2c_network.actor_mlp.4.bias f4 [64]
00000000: a0bf 26bf 6421 d2be 4a57 b8be 359d dfbe
00000010: af92 a5bf bc5c d8be aed6 fbbe dca5 fabe
00000020: d35a 86be 6169 1fbf 2ee5 10bf cd5a 79be
00000030: c31f 10bf 8a69 53be aaaf 2bc0 b1bd a4be
00000040: 317a d4be 5053 abbe bcf5 81be 6373 cbbe
00000050: 6a16 c7c0 c75e e0be d2df c4be ed79 0ebf
00000060: 9a67 f9be 2f6b d2be d1ee ddbe 86d2 febe
00000070: 0afc c4be d2d4 c2be bdcf d5be 5080 debe
00000080: 4981 b8be 7ddd 17bf cff1 e5be 5136 17bf
00000090: 0381 23bf 6891 bebe ee7b cebe 9b6c 15bf
000000a0: 0145 97be ced0 89be 5917 d9be 519b c8be
000000b0: f6b2 64be f1d2 83be 71d8 0fbf 3a45 9fbe
000000c0: c25f d9be 108d d6be f253 33bf 294d 9ebe
000000d0: 4493 59bf c46c cabe c92f efbe 0900 d1be
000000e0: 0b7c b8be e969 e5be a4dd e3be 9944 55bf
000000f0: 7196 c2be 074b ebbe dea0 fabe ad7b ffbe
-0.65136147 -0.410411 -0.36004096 -0.43674627 -1.2935389 -0.4225825 -0.49187225 -0.48954666
-0.26241168 -0.6227017 -0.565997 -0.24351044 -0.56298465 -0.20645729 -2.6825967 -0.32175973
-0.41499475 -0.33462 -0.25382793 -0.3973647 -6.221486 -0.4382231 -0.3845201 -0.55654794
-0.48711854 -0.410974 -0.43346265 -0.49769992 -0.3847354 -0.38052994 -0.41760054 -0.4345727
-0.36036137 -0.5932234 -0.44911048 -0.59067255 -0.6386873 -0.3722031 -0.40328926 -0.58368844
-0.29544833 -0.26917118 -0.42400625 -0.39180997 -0.22333893 -0.25746873 -0.5618964 -0.31107503
-0.4245587 -0.41904497 -0.70049965 -0.30918244 -0.84990335 -0.39536107 -0.46716145 -0.4082034
-0.36032137 -0.44807366 -0.44505036 -0.83307797 -0.38005403 -0.4595568 -0.48950857 -0.49899045

a2c_network.value.weight f4 [1, 64]
00000000: 0b2c 313b 9faf b03a 628b 77ba c727 fb3a
00000010: 9c1d feba 0dcd a53a 23e8 faba accc 77bb
00000020: f19d a4ba a0a3 683b 5e1a 3bba 4d83 3eba
00000030: e753 0639 fa0f 8d3d 69d4 40bd 3688 b0ba
00000040: a831 79ba 8e1e af3a d5f5 b7ba 871b 1b3a
00000050: a06a 5d3e b46a c73a e8d2 813b 9dcf b139
00000060: faee abba 28b2 fcba 405d e339 77ef 9d3a
00000070: 4713 f5b9 bf06 d93a ef66 2abb f0c9 a4b9
00000080: b015 8ab9 6c0a 3539 e08b 4b3a bb29 c83a
00000090: 5775 63bd 7b1e 62ba 85e5 1c3a 0b5a b0ba
000000a0: 6fd9 19ba 771d 003b 6106 f9ba 7edb 723a
000000b0: e5bf e0b9 c5a8 cd3a a573 0f3b df58 08ba
000000c0: 7f6c a339 d5c6 b3ba 2ac2 30ba dd72 063a
000000d0: df58 773b ada2 aaba 66f4 bf3a 3869 54ba
000000e0: 46ae f63a ac94 9b39 1c7e b139 ab27 8f3b
000000f0: 2fa0 73bb 4ab9 aaba 6527 ae39 81f7 3a3b
0.0027034308 0.0013480074 -0.0009443072 0.0019161635 -0.0019387486 0.0012649611 -0.0019142668 -0.0037811203
-0.0012559277 0.0035497919 -0.0007137413 -0.000726749 0.00012810492 0.06887813 -0.04707757 -0.0013468328
-0.00095059955 0.0013360546 -0.0014035056 0.00059168827 0.21622705 0.0015214295 0.0039619096 0.00033914755
-0.0013117485 -0.0019279169 0.0004336629 0.0012049515 -0.00046744404 0.0016557797 -0.0026001295 -0.00031430973
-0.0002633757 0.00017265388 0.00077646784 0.0015271226 -0.055531826 -0.0008625758 0.0005985129 -0.0013454569
-0.0005868887 0.0019548812 -0.0018999093 0.0009264274 -0.00042867582 0.0015690556 0.0021888998 -0.0005201231
0.0003117062 -0.0013715873 -0.00067428 0.00051288103 0.003774218 -0.0013018452 0.001464498 -0.0008102837
0.0018820248 0.00029674673 0.0003385403 0.0043687425 -0.0037174334 -0.0013025191 0.00033217217 0.0028528871

a2c_network.mu.weight f4 [18, 64]
00000000: 918d 073a 8f45 e2ba f35d 943c 688b e03d
00000010: 2f82 623c f111 1d3d 9ba3 373c f6e0 a7bd
00000020: 6f32 aabd 3f2f 093e 432b c8bc f074 3b3d
00000030: 1d15 44be 1ee8 ae3c 639b 00bd b472 c1bd
00000040: 8676 603d b62c 85bc 2dfa 093e bbef c73b
00000050: 4abe 47be d7e2 93bb 9ba2 873d 39b8 b9bc
00000060: e4a0 c13d fee8 c3bd dc8a 3bbd 1608 dfbd
00000070: f7d5 8b3d 3aba 993d 278c cbbd 0104 8c39
00000080: ef52 b23d c624 813c 3bc8 e73d 5b95 3d3d
00000090: fb42 483b 28cc 03be 4ba7 fb3d fb0f 90bd
000000a0: 0236 eebc ebf4 79bc aab7 e13c 29b7 0f3e
000000b0: ffca c73b 7dc6 943c 4ab1 7abd cd97 963d
000000c0: 19b2 373c 34ce f9bc 6d49 eebc 42ed 093d
000000d0: 7ea3 883c 434f e83d ffa8 6d3d e3fe f8bd
000000e0: 2d15 c7bb 491b e03c dfd0 40bd 1b67 f8bc
000000f0: 9b83 133c 3c08 f03b cdf4 b73d 723e 00be
00000100: c561 8f3c 19eb 8a3d b85c b23c 156b 2fbc
00000110: 56d7 fbbc 6852 5cbc 07ee e93c afa5 3d3e
00000120: 3373 b1bd 3fe6 b53c f8ee 68be 89f9 7b3b
00000130: d9c3 a8bb 3442 5b3c c607 263c 6338 8f3d
00000140: c02b dfbd 3df5 29bb 20ac 0d3d c751 19bd
00000150: 15d7 9b3c b068 4cbd d5c4 f9bc b2e5 08bc
00000160: 1492 5a3c 4039 943d 2074 3f3d 5bcd 1dbd
00000170: d228 953d c586 3bbd 2686 cb3d ad0a 0bbd
00000180: 2f1f 0dbe 134e c8bc b2b9 5c3d 5ded 973d
00000190: 154a 8bbc bce2 67bd b75b 38bd a9eb 893d
000001a0: 65d0 593d 497e 73bd 98ed d0bc df39 4f3d
000001b0: 3313 173e 042d a4bc dda2 1d3c c9b6 c7bc
000001c0: 33f3 023e 7777 6f3d adee 94bd 648f 71bd
000001d0: fa01 333d 06bb 063e 40e4 1abc 44c1 923c
000001e0: c66b a9bd b59a 9bbc 328e 91bc cbf1 5d3c
000001f0: c491 aebd fd07 80bd a96c 02bd 4302 40bc
00000200: 4379 9cbd 64db d5bd fbab 3c3c 8862 d0bc
00000210: 2dc5 2ebc a922 a1bd c065 d13d 82dc 093d
00000220: dc29 36bd 6f60 f2bc 2e24 7a3c 9492 503d
00000230: 52ea 6abe 0fae 543c 9f81 f33c 62b8 ce3d
00000240: e02c 07bd ef99 603d fdd7 1dbd 9b48 073e
00000250: 5b2c 6d3e 4e5d 243c 8027 af3c f87f ecbd
00000260: d649 1abe 6a7b c23d 2eb1 32bc c039 1c3d
00000270: 6dd5 c2bc 627d c8bd 100a 46bd 7689 6f3e
00000280: cd33 253e 9b88 353c 3b44 34bb 2849 ae3d
00000290: 2c81 d53b da45 5c3d 9c8b 8dbd 178c 2b3d
000002a0: 9487 6cbe 2733 5abe 45d7 51bd 3856 ff3c
000002b0: 8bec dd3d 2892 91bc 23a7 843d 3d0f 5f3e
000002c0: 8e23 acbc ddf2 80bb 897e 043c 8c7b 643d
000002d0: e9ad 3fbd e272 133e b136 793d d053 5bbc
000002e0: 01a3 18be 5550 21be b3d2 853d 6a7c 1bbe
000002f0: ebd6 1fbd bdb9 013e 1b95 763c 9d3e ac3d
00000300: 2fe8 b93c a947 be3d c1fe 9cbd 7d71 ea3c
00000310: c886 84bd 52c3 21be 2f34 fcbd 37e1 32be
00000320: 4aa3 dd3d 433b bbbd 48af bb3d 92ce 31bc
00000330: 3427 3ebd 66c4 9a3c a924 873c efa3 3a3e
00000340: 51b4 92bd 6eed d6bd 0037 703d 4b49 653d
00000350: 6a3f 11be b471 0e3e bba3 c7bd 8689 363d
00000360: 2ea5 c7bd df7f 153e b43a fa3b 9071 943d
00000370: 411d 0e3e ddab fcbd 09be 6e3c fbb7 883d
00000380: 9712 6e3d c0b4 dcbd 06d8 273d b224 04bd
00000390: b1c7 97bc 69b4 9ebd 9e11 74bd 29c3 24be
000003a0: f0ee 04be f785 84bd 9ea6 26be 54de e9bd
000003b0: 6350 5cbd 2ab0 623c d1a1 dfbc 64c4 2e3d
000003c0: 7df4 9bbd db3b d3bc ee98 123d 3f67 43bd
000003d0: cbe3 de3c 147d 793d 7823 cebc 72c5 92bb
000003e0: b28e 383d 4b80 0bbd b2b6 2ebd 6063 943d
000003f0: 9a16 1a3d 5eb3 6e3d 9058 b03d ca6e dd3d
0.00051709363 -0.0017263162 0.018111205 0.1096409 0.0138249835 0.03834719 0.01120844 -0.08197205
-0.08310401 0.13396929 -0.024434691 0.045765817 -0.19148679 0.021350916 -0.03139819 -0.09445706
0.054800533 -0.016256671 0.1347434 0.006101576 -0.19506183 -0.0045131254 0.066228114 -0.022670852
0.094545156 -0.09565924 -0.045786723 -0.10890214 0.0682792 0.07506223 -0.09938841 0.00026705864
0.087072246 0.015764605 0.11317488 0.046285015 0.0030557502 -0.12870848 0.12287768 -0.07034298
-0.029078487 -0.015256147 0.027553398 0.14034714 0.006097197 0.018161053 -0.061204232 0.073531725
0.011211895 -0.030493833 -0.029087747 0.033673532 0.016679522 0.11343243 0.058022495 -0.12157991
-0.0060755224 0.02735676 -0.047074195 -0.030322602 0.009003545 0.0073252004 0.08982239 -0.12523821
0.017502675 0.067831226 0.021772727 -0.010706683 -0.030742329 -0.013447382 0.028555883 0.18520235
-0.08664551 0.022204516 -0.2274741 0.0038448295 -0.0051503 0.013382483 0.010133689 0.06993177
-0.108970165 -0.0025933527 0.03458798 -0.037431505 0.019023458 -0.049904525 -0.030489365 -0.008355545
0.013340492 0.07237482 0.046741605 -0.03852592 0.072831765 -0.045782823 0.09937696 -0.033945728
-0.13781427 -0.024451291 0.05388803 0.0741832 -0.017003099 -0.056612715 -0.04500934 0.06734402
0.053177256 -0.059446607 -0.025503919 0.0505923 0.14753418 -0.020040996 0.009621349 -0.024379151
0.12788086 0.05846354 -0.07272086 -0.05897464 0.043703057 0.13157281 -0.009453833 0.017914422
-0.08272509 -0.018994668 -0.017768 0.0135464175 -0.08523896 -0.06251524 -0.031841908 -0.011719289
-0.07640316 -0.10442236 0.011515613 -0.025437608 -0.010667128 -0.07867939 0.102244854 0.03365756
-0.044473514 -0.029586999 0.015267415 0.050921038 -0.22940949 0.012980952 0.029724894 0.10093762
-0.03300178 0.054834303 -0.03853606 0.1321129 0.23161452 0.010032011 0.02138114 -0.115478456
-0.15067229 0.094961956 -0.010906501 0.038141012 -0.02378341 -0.0978954 -0.04834944 0.23392281
0.16133042 0.011079933 -0.002750649 0.08510047 0.0065156426 0.053777553 -0.06911394 0.041881647
-0.23098594 -0.21308576 -0.051230688 0.031169042 0.108361326 -0.017769888 0.06477191 0.21783157
-0.021013048 -0.0039352016 0.008086809 0.055781886 -0.046796713 0.14399293 0.060843173 -0.013386682
-0.14905931 -0.157533 0.06534328 -0.15184179 -0.03902332 0.1266851 0.015050198 0.0841038
0.022693722 0.09291012 -0.07665778 0.028618569 -0.0647102 -0.15797165 -0.12314641 -0.17468725
0.108221605 -0.09142163 0.091642916 -0.010852473 -0.046424106 0.018892478 0.016496973 0.18226598
-0.07163299 -0.10494505 0.058646202 0.0559781 -0.14184347 0.13910562 -0.09748026 0.044564746
-0.097483024 0.1459956 0.0076363925 0.07248223 0.13878347 -0.12337468 0.014571675 0.066757165
0.058123197 -0.10776663 0.0409775 -0.032261558 -0.018527837 -0.07749254 -0.059587114 -0.16090073
-0.12981772 -0.06470864 -0.16274497 -0.11419359 -0.0537876 0.013835946 -0.02729884 0.04266776
-0.07614992 -0.025785377 0.035790376 -0.047705885 0.02720823 0.0609103 -0.025163397 -0.0044791037
0.04505796 -0.034057897 -0.0426547 0.07245517 0.03761921 0.058276527 0.08610642 0.10812147

a2c_network.mu.bias f4 [18]
00000000: 1e64 153e 3cce e2bd 9d56 f3bd 1f87 4e3e
00000010: 358e 96bc b9ea 623e 17fd 853d c6ca de3d
00000020: 4ee8 743e e737 8d3c 7c7b fb3e 7959 3a3e
00000030: 0f21 753d f252 f1bd 0092 003f 42c0 d6bd
00000040: 2697 24be c6c6 1bbe
0.14588973 -0.11074492 -0.118817545 0.20168732 -0.018378356 0.22159852 0.06542414 0.1087852
0.23916742 0.01723857 0.4911765 0.18198194 0.05984598 -0.11783399 0.5022278 -0.10485889
-0.16073284 -0.15212545

exp_avg f4 [18]
00000000: 821e 36bb e587 84bb ad90 8337 f951 a5ba
00000010: bdb0 84ba 902d 6dba 1dc6 e3ba a61d 2bbb
00000020: 1dee 24bb 4796 40bb 3f15 ad38 bdb1 dab9
00000030: 4298 85bb 628d 413b 4390 6e39 07de 413b
00000040: 1bc7 cd3b 32c8 143a
-0.002778918 -0.00404452 1.5683787e-05 -0.0012612931 -0.0010123473 -0.0009047622 -0.0017377768 -0.00261102
-0.002516634 -0.0029386447 8.25324e-05 -0.00041712626 -0.0040769884 0.0029533734 0.0002275119 0.0029581802
0.0062798387 0.00056755834

exp_avg_sq f4 [18]
00000000: d94a d238 4b46 e838 f142 e338 6756 d238
00000010: d9a9 0a39 b370 f838 2a99 ea38 818f d938
00000020: 39b0 c138 32a0 ec38 6e6f e138 3579 dd38
00000030: e013 cb38 baf6 ec38 4d36 dd38 03f1 0339
00000040: d994 d238 79d2 f238
0.00010027522 0.00011075715 0.00010836672 0.00010029674 0.00013223979 0.000118465534 0.000111865185 0.00010374096
9.235781e-05 0.000112831956 0.000107495915 0.00010560678 9.683496e-05 0.00011299313 0.000105482155 0.00012582917
0.00010041305 0.00011578663
