exp_log/cup_dis/DualFrankaPPO_cup_dis.pth (torch, 752816 bytes, 36 tensors)

value_mean_std.running_mean f8 [1]
18.189664198661223
00000000: d578 3ad5 8d30 3240

value_mean_std.running_var f8 [1]
239.13838400297118
00000000: a0e1 49a4 6de4 6d40

value_mean_std.count f8 []
475136001.0
00000000: 0000 0001 0052 bc41

running_mean_std.running_mean f8 [74]
-0.09881337963407952 0.34333843411106046 -0.5615340737461869 -0.5310399152846398 0.09395259903921685 -0.5889684682956645 0.11563395136260732 0.9901162659458967
0.9896503061219415 -0.125084329455135 0.4307041242904487 0.4389267146429779 0.17769931783870205 -0.5018982580396755 0.8807549357099153 0.21926343441170298
0.4740228055843997 0.31844759771545916 -0.005262408855704737 4.649578627578046e-05 -0.012315036860035863 -0.017371471001281315 0.0042405906230955585 -0.005645511926351533
-0.019704024702945064 0.0022956151386941876 0.002573884872556683 0.6714189178239489 -0.05052287799444824 -0.2275628905146058 0.0038903772753378233 0.0019051053760230086
0.006936880469585892 0.003271742578173525 -0.004343713228331688 -0.006506023910519634 -0.02564345299241045 -0.00015802082275218738 0.0010624353247027886 0.0782485819644715
0.023993420641375954 0.04795866676509512 -0.2901960781681492 0.49817586767387684 0.2900624989620914 0.005498289186624992 0.00039430045680717535 -0.0008449086009307464
0.9805527081994793 -0.2711054291920901 0.5882059579884197 -0.4052767598083877 -0.010983937246520997 -0.11026473836336945 0.25630342808319073 0.894005412423954
-0.2862920052505224 0.6052369844908503 -1.6269326608478414 -2.3678908778551424 0.2722087426707519 0.7572944231666543 0.335026068088251 0.03980232438212425
0.03979300519795935 -0.3624068284144196 0.7592452208802715 1.2717023722109508 -1.3040732558834718 -1.4541498193641376 3.5277228147906206 0.6352767940298195
0.029480455399954485 0.026368951305930966
00000000: be83 ef69 d54b b9bf f6e0 7dc4 41f9 d53f
00000010: 788b 4a4e 16f8 e1bf 9794 a06b 47fe e0bf
00000020: 2a65 3f0c 470d b83f 1d90 b666 d4d8 e2bf
00000030: 06df 68c7 2f9a bd3f 5f35 af4e 08af ef3f
00000040: e2a4 681e 37ab ef3f 133e 2068 c302 c0bf
00000050: 621b 0508 a890 db3f 3dde 2e13 6017 dc3f
00000060: 0fc2 51eb d9be c63f 8f64 86ef 8c0f e0bf
00000070: f744 95f9 242f ec3f 46e2 0000 d310 cc3f
00000080: 2ec3 e2bf 6356 de3f ce5e 6b08 7261 d43f
00000090: 0d57 ef1e 098e 75bf 99f3 380d 8f60 083f
000000a0: b8cb 8044 a038 89bf faed 55af d3c9 91bf
000000b0: fab3 abe0 945e 713f 7458 7c91 bf1f 77bf
000000c0: 9c7e cbb6 4a2d 94bf 6d92 3cfe 40ce 623f
000000d0: abd9 3deb d315 653f bc06 bf86 437c e53f
000000e0: 4435 5f79 22de a9bf 1d90 45e2 c720 cdbf
000000f0: 226c 5565 b6de 6f3f 00db 4452 9736 5f3f
00000100: b2d4 0cac d869 7c3f f254 f96b 57cd 6a3f
00000110: e266 24a4 b6ca 71bf c347 c37e 0fa6 7abf
00000120: 22ee d5ff 4642 9abf f8f0 1788 4cb6 24bf
00000130: ec52 513e 2d68 513f 79eb 7e5c 1908 b43f
00000140: 1441 e533 bb91 983f 86b6 a1d2 098e a83f
00000150: e037 4a92 9292 d2bf d534 d408 1de2 df3f
00000160: 57a5 b54c 6290 d23f 8b1b d9c3 5f85 763f
00000170: fbcc 1891 43d7 393f b1ce 9067 9baf 4bbf
00000180: 6312 b712 b060 ef3f fd79 0996 ca59 d1bf
00000190: 71ec 1b4d 95d2 e23f 032d 4def 0df0 d9bf
000001a0: 707e 0a1a bf7e 86bf fe33 2c55 4f3a bcbf
000001b0: 5a14 5e7e 4667 d03f 1cda 193d b19b ec3f
000001c0: 7310 eab3 9b52 d2bf b8f8 d6f3 195e e33f
000001d0: fc2b b28a ea07 fabf 9813 c7c5 70f1 02c0
000001e0: b631 dd37 de6b d13f f634 9e83 c13b e83f
000001f0: c6c6 6f2d 1171 d53f cc50 0d63 f860 a43f
00000200: 3e9d deaf bf5f a43f dec4 f868 ac31 d7bf
00000210: e966 2aa2 bc4b e83f 3644 2e96 e458 f43f
00000220: 59b9 19eb 7bdd f4bf d473 da99 3244 f7bf
00000230: be07 37bd c638 0c40 7581 c8ff 2f54 e43f
00000240: e386 41df 1f30 9e3f 5d85 f45d 7600 9b3f

running_mean_std.running_var f8 [74]
0.3179422889605919 0.3940210320131625 0.20863777628587857 0.3348882347465866 0.37719863386807106 0.13780982828519767 0.24589580145294898 0.014640871781843956
0.015397153310070508 0.0595894807875888 0.22857790336392217 0.22619903578048584 0.37964537270672405 0.19844751459045534 0.040590866292960374 0.08303983069865595
0.2033731356734447 0.31910548569362823 0.01037133836550186 0.007645027715925206 0.008543633985109423 0.00649277620202407 0.011186292076120145 0.008808113526075407
0.020647762409750664 0.0003075473283592097 0.00032240803741683004 0.07180188161902655 0.036850162298870254 0.04849734932089694 0.00467915253553772 0.0030999107985688916
0.007529593348105908 0.003864705156488676 0.012204862477077374 0.006442760574258002 0.022638321477277856 0.0008411597873118726 0.0011501074739635629 0.02987632570569899
0.011827409638777497 0.016100071423084974 5.4477278351300966e-05 7.420436742387135e-05 8.314990730376735e-05 0.010419925460708196 0.0022913327453965614 0.0034541286418789197
0.02233448756785486 0.002103416134664134 0.020377687645375838 0.02842388445453034 0.013610540615217975 0.0383137529762275 0.06484599574411831 0.0060358427394442546
2.6689179697817638 1.2244060701422985 1.751377830653184 0.7545035899813618 3.1663344256661947 0.4896693162114241 2.0641265984931985 5.86056110629827e-06
6.163073726583821e-06 0.5002147671855643 0.7102975430029641 1.8987932375472067 0.8553414590934986 1.6658359761807833 0.14422757650845205 0.6969133509259068
8.135346309669254e-05 0.00012764640119574224
00000000: d178 469d 2a59 d43f 64b1 9bfd a337 d93f
00000010: 5dd3 ed84 a4b4 ca3f 0a50 0310 cf6e d53f
00000020: a4ca 23bd 0524 d83f c2b1 c6a0 c0a3 c13f
00000030: 7468 bb7c 8379 cf3f d351 e78b 08fc 8d3f
00000040: f893 58ef 8a88 8f3f 482d 562e 8382 ae3f
00000050: 49a5 c46d 0a42 cd3f 8c2e 880a 17f4 cc3f
00000060: 5e99 f61a 1c4c d83f feb9 9168 ba66 c93f
00000070: bf38 7d76 53c8 a43f 00b9 1d2d 1942 b53f
00000080: f71b 4d83 2108 ca3f 25d0 416a 396c d43f
00000090: c1bf c378 913d 853f df45 4580 6450 7f3f
000000a0: 5ab8 7024 537f 813f a0c3 2a57 2b98 7a3f
000000b0: 1c24 0bb5 d6e8 863f 1d87 45fc fc09 823f
000000c0: e84e 24e1 af24 953f 4155 9fb7 c927 343f
000000d0: 053b 07fa 1b21 353f c750 58ad 9b61 b23f
000000e0: cc14 da43 06de a23f 0848 8d02 a5d4 a83f
000000f0: 6361 cf71 722a 733f 4609 03f0 fb64 693f
00000100: 22ad ead2 59d7 7e3f 7986 2fc8 dfa8 6f3f
00000110: e8a0 87e9 dcfe 883f a9f9 655f b963 7a3f
00000120: 8364 8609 802e 973f 5cc6 7be3 2890 4b3f
00000130: 4c29 347f e6d7 523f 638e 5247 e697 9e3f
00000140: 4672 c20c f838 883f f7d2 e680 897c 903f
00000150: f689 f907 d18f 0c3f 44da 4153 c573 133f
00000160: d448 b787 18cc 153f e3dc a4b8 0a57 853f
00000170: 8a5b 95e6 45c5 623f 528f b231 d54b 6c3f
00000180: 8819 b516 dade 963f f7ac 43f0 2e3b 613f
00000190: bf1c 0578 e3dd 943f 3845 a198 261b 9d3f
000001a0: 56ff 95d6 d7df 8b3f ed32 0a38 dc9d a33f
000001b0: 005f ff46 bf99 b03f 0f24 b732 0ab9 783f
000001c0: ea5a 1faa f159 0540 958f c4d1 2a97 f33f
000001d0: 8384 99c2 a405 fc3f c5e7 75b6 e424 e83f
000001e0: 647b b324 a754 0940 5de5 bef8 bd56 df3f
000001f0: f5a7 5ace 5483 0040 1407 3ac5 ba94 d83e
00000200: c9ff 69ce 8cd9 d93e 5e39 4166 c201 e03f
00000210: 700f b4e9 c1ba e63f 7219 9204 7561 fe3f
00000220: 2106 370d f55e eb3f ae25 e39f 43a7 fa3f
00000230: 737f 249a 0c76 c23f dbeb 4b3a 1d4d e63f
00000240: 17e4 89da 8953 153f 8c8a b73c 1abb 203f

running_mean_std.count f8 []
237568001.0
00000000: 0000 0002 0052 ac41

a2c_network.sigma f4 [18]
-0.046651542 -0.053109284 -0.037274025 -0.023171606 -0.07046615 -0.081504665 -0.07862714 -0.026624834
-0.001933616 -0.1669935 -0.16649686 -0.24551798 -0.20165834 -0.11433679 -0.10498979 -0.11393963
-0.03954778 -0.029584201
00000000: b015 3fbd 1f89 59bd a6ac 18bd 61d2 bdbc
00000010: 8f50 90bd ebeb a6bd 4407 a1bd 531c dabc
00000020: 6371 fdba 5800 2bbe 277e 2abe 1169 7bbe
00000030: 867f 4ebe 6829 eabd e304 d7bd 2e59 e9bd
00000040: dafc 21bd 915a f2bc

a2c_network.actor_mlp.0.weight f4 [256, 74]
-0.053574298 0.068393685 0.106065065 -0.038799956 0.10033539 0.0904988 0.034936927 0.11119571
0.11298812 -0.16432957 -0.017985545 -0.40489888 0.45642614 -0.16389269 -0.39245063 0.227986
-0.09942596 -0.29817474 0.00532535 0.027358899 0.08123164 -0.041043945 0.023120955 -0.029676327
-0.06351563 -0.1824498 -0.15437001 0.1495186 -0.13908432 -0.08369205 -0.5241759 -0.44012868
-0.5451959 -0.3153943 -0.077072315 -0.20732628 -0.04710807 0.0048310226 0.3975779 -0.90816736
-1.1704265 -0.5786025 0.010051419 -0.41537812 -0.1260212 0.15215637 -0.06603308 0.17916395
0.050800834 -0.253398 -0.11978831 -0.1372033 -0.09168825 -0.0923914 0.15743192 0.53718346
0.16174103 0.19554639 0.08581694 -0.0054016667 0.026878143 -0.050674938 -0.0014073444 0.10784752
0.08707461 -0.14273931 -0.043265056 -0.47268692 0.47623023 -0.15896612 -0.35267606 0.21305737
-0.04268197 -0.15853868 0.026365226 -0.005491247 0.042938225 -0.050601766 0.042499077 -0.08107831
-0.022413652 -0.04767013 0.11840949 -0.02499333 -0.026993338 -0.053030897 0.03825129 -0.0137805855
0.17220274 0.0068507725 -0.06727079 -0.19100639 0.031920355 0.04504247 0.00847453 -0.020711495
-0.015026046 -0.0054812343 0.009169155 -0.056932613 -0.42683423 -0.029623812 -0.06191922 0.0033832595
-0.06471549 -0.19396736 0.23648569 0.11083748 -0.055991694 0.09228899 0.07346877 0.30970284
0.078118436 -1.5956768 1.5472554 -0.3675802 0.18893279 0.115724444 -0.15910505 0.0089504095
0.015057207 0.0051853904 0.30340087 0.11818214 0.05626939 0.013741092 -0.01935034 0.11614766
0.043846756 -0.041234124 -0.08530922 0.016603105 -0.057430536 -0.10473415 0.017226975 0.04521984
-0.05435861 0.07956058 -0.068555765 -0.13575831 -0.08311687 0.12223848 -0.050614867 -0.06940851
0.20320143 0.06357676 -0.21642837 -0.0978969 -0.05911723 -0.016990619 0.034086853 0.24116158
-0.06990214 0.00016242804 0.05397678 0.01865331 0.07071393 1.1028079 0.75402045 -0.57768667
0.3611727 0.011801869 -0.22608198 -0.06407698 -0.058904704 0.22023752 -0.013588199 -0.049749482
0.08365594 0.04178927 -0.048465464 0.06344903 -0.018439561 -0.019116838 -0.32517645 -0.38897666
-0.020944342 0.08237373 -0.07014597 -0.017040405 0.113732696 0.19090196 0.007254537 0.010915648
0.23084238 -0.38068923 -0.054700132 -0.3137697 0.5980876 -0.1569699 0.04069792 -0.09461
-0.1482909 0.226586 0.21610858 -0.048130054 -0.08250229 0.08173989 -0.44808516 -0.2860609
0.5592281 -0.2552092 -0.08750967 -0.000153403 0.05794283 -0.10940171 0.12335156 0.09365659
-0.1682099 -0.09943 0.08746275 0.15459041 0.0916334 1.1114922 0.79566675 -0.69374514
0.28702232 -0.065065086 -0.33116937 -0.086318746 0.0941677 0.27330247 -0.09041529 0.004220289
0.03413119 -0.006896507 -0.03012777 0.059811343 0.04545001 -0.061859358 0.05083131 0.24260484
-0.5367663 0.03799938 0.068540275 -0.12293358 0.02030977 -0.21636274 -0.15126224 -0.0067091235
0.027247507 -0.14912575 -0.010518857 0.032133587 -0.0174027 0.019037591 -0.026856469 -0.07712133
0.054639764 -0.2430071 -0.2351483 0.103025764 0.08547118 -0.5134665 -0.20533197 -0.643312
00000000: b970 5bbd fd11 8c3d a438 d93d b4ec 1ebd
00000010: a47c cd3d 6f57 b93d 061a 0f3d 94ba e33d
00000020: 5166 e73d 0346 28be 6c56 93bc e84e cfbe
00000030: b0b0 e93e 7cd3 27be 4aef c8be 2975 693e
00000040: d69f cbbd 5caa 98be 4680 ae3b c51f e03c
00000050: c65c a63d b21d 28bd 2868 bd3c c51b f3bc
00000060: 7c14 82bd 1fd4 3abe 2c13 1ebe 671b 193e
00000070: 1f6c 0ebe bd66 abbd 6430 06bf 8c58 e1be
00000080: f591 0bbf 5d7b a1be 17d8 9dbd 574d 54be
00000090: 64f4 40bd 8e4d 9e3b 558f cb3e a87d 68bf
000000a0: 89d0 95bf 4b1f 14bf b5ae 243c 71ac d4be
000000b0: b40b 01be e1ce 1b3e 5a3c 87bd c176 373e
000000c0: 8914 503d 62bd 81be 9353 f5bd 067f 0cbe
000000d0: 0dc7 bbbd b437 bdbd d535 213e db84 093f
000000e0: 719f 253e 503d 483e cbc0 af3d 7700 b1bb
000000f0: 8d2f dc3c 8690 4fbd a476 b8ba 29df dc3d
00000100: 2c54 b23d 412a 12be b336 31bd 0504 f2be
00000110: 73d4 f33e 04c8 22be f591 b4be b62b 5a3e
00000120: 4ad3 2ebd f757 22be e3fb d73c ebef b3bb
00000130: fedf 2f3d cc43 4fbd 8313 2e3d 630c a6bd
00000140: d69c b7bc c141 43bd ad80 f23d d0be ccbc
00000150: 2221 ddbc ed36 59bd 62ad 1c3d f7c7 61bc
00000160: ea55 303e 727c e03b 45c5 89bd 2e97 43be
00000170: ebbe 023d 747e 383d c1d8 0a3c 27ab a9bc
00000180: ce2f 76bc ed9b b3bb 393a 163c 2c32 69bd
00000190: 048a dabe a3ad f2bc 029f 7dbd adb9 5d3b
000001a0: 8e89 84bd 619f 46be 4e29 723e c3fe e23d
000001b0: 8c57 65bd 0302 bd3d cb76 963d 5f91 9e3e
000001c0: 8ffc 9f3d 233f ccbf 770c c63f 7933 bcbe
000001d0: 9977 413e f000 ed3d 6fec 22be bda4 123c
000001e0: 81b2 763c 35ea a93b 5c57 9b3e 7a09 f23d
000001f0: bb7a 663d 5122 613c 9b84 9ebc d3de ed3d
00000200: a898 333d 1de5 28bd 9ab6 aebd 3c03 883c
00000210: 483c 6bbd dc7e d6bd 961f 8d3c 7038 393d
00000220: 22a7 5ebd a8f0 a23d f766 8cbd 3a04 0bbe
00000230: 2d39 aabd 2b58 fa3d 8951 4fbd 0d26 8ebd
00000240: 0914 503e 8834 823d 669f 5dbe 2b7e c8bd
00000250: e924 72bd e92f 8bbc a89e 0b3d 10f3 763e
00000260: da28 8fbd 7251 2a39 c216 5d3d d4ce 983c
00000270: 77d2 903d cf28 8d3f 7c07 413f 46e3 13bf
00000280: a1eb b83e a05c 413c 0982 67be cb3a 83bd
00000290: 0f46 71bd f285 613e 0aa1 5ebc 1dc6 4bbd
000002a0: ce53 ab3d 3a2b 2b3d b983 46bd 91f1 813d
000002b0: 900e 97bc ea9a 9cbc 877d a6be f327 c7be
000002c0: 7893 abbc 8fb3 a83d b1a8 8fbd 5298 8bbc
000002d0: b0ec e83d ce7b 433e 78b7 ed3b 8cd7 323c
000002e0: f261 6c3e b3e9 c2be 3f0d 60bd 6ca6 a0be
000002f0: 451c 193f b8bc 20be ddb2 263d e3c2 c1bd
00000300: 92d9 17be 2906 683e 914b 5d3e 0524 45bd
00000310: f6f6 a8bd 3e67 a73d 6b6b e5be 9376 92be
00000320: 9329 0f3f c8aa 82be 4538 b3bd ceda 20b9
00000330: 7655 6d3d 010e e0bd be9f fc3d 07cf bf3d
00000340: 373f 2cbe f5a1 cbbd ac1f b33d f34c 1e3e
00000350: 4baa bb3d 6045 8e3f d1b0 4b3f 4899 31bf
00000360: 97f4 923e d840 85bd 088f a9be e2c7 b0bd
00000370: ffda c03d 4dee 8b3e a72b b9bd 5a4a 8a3b
00000380: 26cd 0b3d 18fc e1bb 83ce f6bc bdfc 743d
00000390: ca29 3a3d 3d60 7dbd 7e34 503d 676d 783e
000003a0: 8469 09bf 3da5 1b3d d85e 8c3d 9ac4 fbbd
000003b0: ad60 a63c 328e 5dbe 7de4 1abe 35d8 dbbb
000003c0: 2a36 df3c 6cb4 18be 4957 2cbc 829e 033d
000003d0: 1b90 8ebc b9f4 9b3c 1902 dcbc caf1 9dbd
000003e0: f2cd 5f3d dad6 78be b7ca 70be 2cff d23d
000003f0: 840b af3d 8a72 03bf 8b42 52be 18b0 24bf

a2c_network.actor_mlp.0.bias f4 [256]
-0.5550514 -0.71020055 -1.0203905 -0.5952163 -0.72203237 -0.40181947 -0.43923336 -0.6934443
-0.10877619 -1.1712234 -0.66237634 -0.1320223 -0.57463026 -1.463012 -0.30785382 0.02620278
0.37476787 -1.0613313 -1.1520437 -0.83876276 0.33655947 -0.36407766 0.1611338 -0.22091457
-2.232859 -0.115018666 -0.7669822 -1.0270132 -1.1570747 -0.23804468 -0.71901774 -0.67142904
-0.70103776 -0.92904025 -0.9370503 -0.34677973 -0.5637669 -0.0038890655 -1.1020044 -0.47292167
-0.09914208 -0.6261498 -0.8328279 -0.76168364 0.033139918 -0.32988408 -0.353205 0.4181928
-0.16462576 0.013874949 -0.23575805 -0.13315655 -0.22756957 -0.10153862 -0.6996844 -0.20098306
-0.8809543 0.15951121 -0.7516034 0.0351978 -0.36496118 -0.17651223 -1.8669525 -1.6362637
-0.34062156 -0.45454314 -0.52185786 0.08500284 -1.3069998 -0.4427797 0.54682034 -0.20678544
-1.009061 -0.9289058 0.11613411 -0.2608684 -0.63984907 -1.6736739 -0.97325647 -0.25949317
-0.28521067 -0.59495467 -0.40449965 -0.45088437 -1.6029155 -0.6375392 -0.057320226 -0.4689711
0.029663302 -1.0689479 -1.6156591 -0.20527084 -0.39605194 -0.14700742 -0.2050248 -2.3567243
-0.5198718 -0.039772056 -0.35365024 -0.81908345 -0.045442812 -0.21235335 -0.122775 -0.033329308
-1.0341531 -0.051057216 -1.0884893 -0.7252906 -0.45229417 -0.69756436 -0.8407912 0.10064928
-1.4301211 -1.1673126 -0.34084848 -0.10561019 -0.06397565 0.18117295 -0.5150554 -0.34113607
0.19823045 -0.6598417 -1.3956163 -0.5421809 -0.84675026 -0.6626235 -0.21017133 -0.5178924
0.39653277 -1.1985834 -0.5730474 -0.79775417 -0.822678 0.06542862 -0.33131382 -0.20255245
-0.070129775 -0.8630124 -0.24643692 -0.8460724 -0.47792697 -1.6230996 -0.15373062 -1.4429637
-1.1598126 -0.9221053 -0.6900029 -0.6063242 -0.7806132 -0.074471496 -0.56023043 -0.9170922
-0.914596 -0.41734344 0.3302338 -0.7608219 -0.32353365 -0.24695468 -0.6717018 -0.5925694
-0.87655187 -0.2507547 -1.2661294 0.017847775 -0.4597489 -0.8186668 -0.50499684 -1.0070385
-1.0444682 -0.40185204 -1.122438 -1.2945735 -0.12520726 -0.45983514 -0.54046565 -0.4214592
-0.08729388 -1.4370631 -0.73458123 -0.21177079 -0.48829958 -1.0331062 -1.1778808 -0.47248867
-0.9859967 -0.62237257 -0.9676166 -1.0445856 -0.8959147 -0.868663 -0.8539804 -0.1304045
-0.44078022 0.012919538 -0.9832446 -1.4481716 -0.27324855 -0.075269625 -0.43380392 -0.8529606
-1.5392963 -0.015877688 -1.1581745 -1.0127337 -1.159071 -0.3970544 -0.56369334 0.27714476
-0.7747829 -1.1501423 -0.68084085 -0.62531585 -0.14813909 -1.6507335 -0.5919616 -0.19768138
0.39576346 -1.0459182 -0.04957547 -0.3212414 -1.1244864 -0.5386508 -0.64944845 0.10417974
-0.27873552 -0.22355846 -0.9161361 -0.9536685 -0.2291303 -0.40184587 -0.8996444 -1.1970984
-0.40593782 -0.47033718 -0.8248998 -0.53955585 -0.9485797 0.22391215 -0.32206216 0.11265303
-0.2170322 -0.8881626 -0.13393918 -0.40423447 0.21648875 -1.6619935 -0.5975176 -0.33437636
0.023180915 -0.45652655 -1.3705033 0.26973522 -1.0230484 -0.8065924 -0.5566821 0.19444089
00000000: d917 0ebf b4cf 35bf 289c 82bf 1860 18bf
00000010: 1dd7 38bf 48bb cdbe 32e3 e0be 9185 31bf
00000020: 0dc6 debd a6ea 95bf 7f91 29bf db30 07be
00000030: f81a 13bf fa43 bbbf 049f 9dbe 36a7 d63c
00000040: 93e1 bf3e b4d9 87bf 2b76 93bf 28b9 56bf
00000050: 8651 ac3e 6368 babe 4200 253e 6e37 62be
00000060: 29e7 0ec0 e88e ebbd f258 44bf 2b75 83bf
00000070: 061b 94bf fcc1 73be 8c11 38bf c6e2 2bbf
00000080: 3677 33bf 95d5 6dbf 87e2 6fbf 1d8d b1be
00000090: 0753 10bf b1df 7ebb 7b0e 8dbf ca22 f2be
000000a0: 010b cbbd 5a4b 20bf 3634 55bf b3fd 42bf
000000b0: b9bd 073d 91e6 a8be 49d7 b4be 5e1d d63e
000000c0: a893 28be c153 633c 8f6a 71be 315a 08be
000000d0: ff07 69be 7bf3 cfbd 841e 33bf 81ce 4dbe
000000e0: 3986 61bf e856 233e 1569 40bf 912b 103d
000000f0: 31dc babe 9fbf 34be 4df8 eebf 1771 d1bf
00000100: f365 aebe e1b9 e8be 7a98 05bf f815 ae3d
00000110: c54b a7bf 05b4 e2be 6bfc 0b3f 90bf 53be
00000120: e928 81bf c5cc 6dbf b8d7 ed3d 8b90 85be
00000130: 26cd 23bf f23a d6bf 5627 79bf 4adc 84be
00000140: 2207 92be f34e 18bf 941a cfbe 51da e6be
00000150: 562c cdbf c535 23bf 9dc8 6abd fb1c f0be
00000160: 7400 f33c 49d3 88bf ebcd cebf 8532 52be
00000170: 52c7 cabe 1d89 16be 05f2 51be 92d4 16c0
00000180: 5116 05bf 06e8 22bd a511 b5be 74af 51bf
00000190: 3e22 3abd 2873 59be 7671 fbbd 5084 08bd
000001a0: 215f 84bf 5f21 51bd 9e53 8bbf a5ac 39bf
000001b0: 1a93 e7be 9493 32bf 183e 57bf 3621 ce3d
000001c0: 350e b7bf 806a 95bf b183 aebe 284a d8bd
000001d0: aa05 83bd 6785 393e acda 03bf 63a9 aebe
000001e0: ecfc 4a3e 63eb 28bf 8ea3 b2bf 5ecc 0abf
000001f0: a0c4 58bf b2a1 29bf 2737 57be 9994 04bf
00000200: 5806 cb3e 2e6b 99bf 3cb3 12bf 9e39 4cbf
00000210: 079b 52bf 71ff 853d f7a1 a9be e969 4fbe
00000220: 33a0 8fbd 61ee 5cbf f659 7cbe 3398 58bf
00000230: d8b2 f4be bac1 cfbf 8f6b 1dbe 09b3 b8bf
00000240: bd74 94bf 180f 6cbf 08a4 30bf 1038 1bbf
00000250: 44d6 47bf 8384 98bd 436b 0fbf 8ec6 6abf
00000260: f722 6abf 0aae d5be 6814 a93e 39c5 42bf
00000270: 34a6 a5be b0e1 7cbe a6f4 2bbf a1b2 17bf
00000280: b465 60bf ec62 80be 8710 a2bf 7f35 923c
00000290: 3564 ebbe 2694 51bf 7947 01bf a3e6 80bf
000002a0: 22b1 85bf 8dbf cdbe 0cac 8fbf 96b4 a5bf
000002b0: 5536 00be 836f ebbe f55b 0abf 80c9 d7be
000002c0: 22c7 b2bd aff1 b7bf 840d 3cbf 71da 58be
000002d0: 6702 fabe d33c 84bf ccc4 96bf 09ea f1be
000002e0: 486a 7cbf cf53 1fbf b9b5 77bf fbb4 85bf
000002f0: aa5a 65bf b360 5ebf 769e 5abf c288 05be
00000300: f2ad e1be 78ac 533c ebb5 7bbf b05d b9bf
00000310: 3ce7 8bbe f626 9abd 8c1b debe a05b 5abf
00000320: a907 c5bf ed11 82bc 103f 94bf 42a1 81bf
00000330: 705c 94bf b74a cbbe 354e 10bf ebe5 8d3e
00000340: 2c58 46bf dd37 93bf 964b 2ebf b314 20bf
00000350: c6b1 17be 3c4b d3bf cc8a 17bf fd6c 4abe
00000360: 82a1 ca3e a6e0 85bf a60f 4bbd c179 a4be
00000370: 2cef 8fbf 05e5 09bf 4142 26bf 305c d53d
00000380: 6cb6 8ebe 82ec 64be e587 6abf 9e23 74bf
00000390: 22a1 6abe bebe cdbe 184f 66bf 853a 99bf
000003a0: 15d7 cfbe 09d0 f0be a22c 53bf 5520 0abf
000003b0: 1fd6 72bf 3a49 653e 55e5 a4be a2b6 e63d
000003c0: b03d 5ebe a05e 63bf 5a27 09be d2f7 cebe
000003d0: 3aaf 5d3e 34bc d4bf eaf6 18bf 6133 abbe
000003e0: e7e5 bd3c d9bd e9be a76c afbf bc1a 8a3e
000003f0: 40f3 82bf d77c 4ebf b882 0ebf 831b 473e

a2c_network.actor_mlp.2.weight f4 [128, 256]
-0.19099744 -0.22689153 -0.08229631 -0.1530318 0.1039496 -0.44890577 0.24471113 -0.07283483
-0.009138186 -0.047988072 -0.082188554 0.10570275 -0.10175886 -0.0031337042 -0.036773928 -0.23188895
0.2494513 0.08563487 -0.23940583 -0.25540796 -0.014830339 0.15891546 -0.24313119 -0.16590917
0.23938653 -0.10529024 -0.4305867 0.14193544 -0.14053522 -0.52195436 0.25614196 -0.08115502
-0.06297602 -0.1638438 0.033444956 0.0773578 -0.23513511 0.12639567 -0.44515243 0.010880356
0.25269362 0.19685563 -0.101164 0.20878 -0.10514818 -0.083851285 -0.0029650945 -0.09706498
-0.12862138 -0.1591841 -0.114212535 -0.14312041 -0.45306054 0.14051716 -0.17089485 -0.08262891
-0.22340052 -0.14700975 -0.16703646 0.105016865 -0.13289174 -0.11132398 0.05529086 -0.0026203692
-0.30126673 -0.01331716 0.08670118 -0.1581676 0.21001028 -0.053879492 -0.2475879 -0.24942689
0.1361367 0.14509133 -0.519773 -0.064931236 0.099539116 0.10366381 -0.19324327 -0.3373941
-0.22772297 0.30554453 0.27818814 0.10314023 -0.00869086 0.32741934 -0.07794376 -0.17509562
-0.1566937 -0.75157666 0.004102305 -0.087074585 0.025448028 -0.6378081 -0.048342455 0.156695
0.24314104 0.13794956 -0.44809583 -0.07145812 -0.07305499 -0.35221285 0.1370938 0.31653756
-0.0038698397 -0.013197367 0.31284645 -0.090400055 0.24916553 -0.19234535 0.3093886 0.021411939
-0.15851629 0.037092756 -0.04538921 -0.13023318 0.09266892 -0.06512097 -0.117678255 -0.048002772
-0.16222996 -0.36825716 -0.031376168 0.30679494 -0.22850199 0.16617961 0.22402252 0.06537532
-0.025920196 0.09438388 -0.1454214 0.047814168 0.062492516 -0.0030567888 -0.033244193 0.117383525
-0.17328055 -0.094840765 -0.12741609 -0.33452687 0.35548145 -0.11087113 -0.73988783 -0.028291125
-0.40792388 -0.044843994 -0.33553368 0.12287845 0.2233712 0.018121552 0.25887236 0.023517234
-0.18005314 -0.17409435 -0.06836904 -0.075182214 -0.37756157 0.083593115 -0.29603395 -0.09697441
0.15028648 0.60155255 0.04134262 -0.2702219 -0.20775732 -0.00502051 -0.3347186 -0.104127556
-0.09468811 -0.0070275743 0.4968593 -0.017505797 0.10828664 0.073895186 0.18375808 0.16065203
-0.07914192 -0.07367362 -0.02624163 -0.0388475 -0.06692425 0.18962868 -0.17990455 0.14409615
-0.32203522 0.062589616 0.17988451 0.086966 -0.03957044 -0.062206537 0.0069456836 -0.2993983
-0.1917191 -0.26071978 -0.095204875 0.20558964 0.030200453 0.0025052403 0.13012135 0.23667756
0.042929575 0.03460053 -0.08068922 -0.20490424 0.06283243 0.17211589 -0.4280105 -0.060696706
-0.11837841 -0.2106863 -0.2410692 0.10714732 0.14075664 -0.108949676 -0.39212692 -0.33102787
-0.05195889 0.24383995 0.0873162 0.006009691 -0.18113644 -0.025008662 -0.36629745 -0.04129339
0.22367162 0.052079033 0.051731165 -0.095860355 -0.3850171 0.04167767 -0.18375897 0.32621118
0.0065615545 -0.82765657 0.040353246 -0.114924625 0.12605402 -0.11550912 -0.3015973 0.09633186
0.05402109 0.06531335 -0.18570808 -0.07105363 -0.9354393 -0.11717405 -0.21321823 -0.020064186
0.16449277 -0.12765351 0.06614995 -0.10472539 0.13764754 -0.27312618 -0.03941095 -0.016012669
00000000: d594 43be 4156 68be f88a a8bd 5eb4 1cbe
00000010: 87e3 d43d fad6 e5be 8e95 7a3e 6d2a 95bd
00000020: 55b8 15bc 248f 44bd 7952 a8bd af7a d83d
00000030: f366 d0bd d55e 4dbb 42a0 16bd 4c74 6dbe
00000040: 2970 7f3e 5661 af3d cd26 75be d5c4 82be
00000050: f3fa 72bc bcba 223e 62f7 78be 18e4 29be
00000060: be21 753e 69a2 d7bd dc75 dcbe 8657 113e
00000070: 77e8 0fbe cd9e 05bf 0a25 833e 9a34 a6bd
00000080: 92f9 80bd abc6 27be 94fd 083d c46d 9e3d
00000090: 42c7 70be de6d 013e 05eb e3be 8543 323c
000000a0: 0f61 813e 8694 493e 122f cfbd 6dca 553e
000000b0: ee57 d7bd 39ba abbd 0852 42bb 01ca c6bd
000000c0: 53b5 03be 2801 23be 43e8 e9bd 288e 12be
000000d0: 8df7 e7be bbe3 0f3e 0fff 2ebe 5939 a9bd
000000e0: 1bc3 64be b989 16be 9b0b 2bbe 1513 d73d
000000f0: c614 08be d4fd e3bd ab78 623d 80ba 2bbb
00000100: a23f 9abe 3830 5abc 6390 b13d b0f6 21be
00000110: ef0c 573e beb0 5cbd af87 7dbe c369 7fbe
00000120: 6b67 0b3e d292 143e d80f 05bf abfa 84bd
00000130: 2adb cb3d b14d d43d 90e1 45be ebbe acbe
00000140: 3630 69be 5570 9c3e ad6e 8e3e 2f3b d33d
00000150: 1c64 0ebc 82a3 a73e faa0 9fbd 444c 33be
00000160: 5074 20be 5467 40bf a16c 863b 2954 b2bd
00000170: 6278 d03c 6447 23bf bd02 46bd a774 203e
00000180: f7f9 783e a642 0d3e d16c e5be a358 92bd
00000190: db9d 95bd 3e55 b4be 5162 0c3e 3611 a23e
000001a0: 239d 7dbb c539 58bc 692d a03e aa23 b9bd
000001b0: 4025 7f3e 2ef6 44be 2f68 9e3e 1768 af3c
000001c0: 1852 22be 93ee 173d 09ea 39bd d95b 05be
000001d0: 34c9 bd3d 255e 85bd 4c01 f1bd 8e9e 44bd
000001e0: 9c1f 26be 348c bcbe 4c84 00bd 3a14 9d3e
000001f0: 6dfc 69be fd2a 2a3e 2966 653e 7fe3 853d
00000200: 9756 d4bc 564c c13d 59e9 14be cad8 433d
00000210: 27f8 7f3d 6854 48bb 102b 08bd c666 f03d
00000220: 7570 31be e03b c2bd 5d79 02be 1b47 abbe
00000230: aa01 b63e 6710 e3bd 4a69 3dbf cac2 e7bc
00000240: 66db d0be 56ae 37bd 12cb abbe b2a7 fb3d
00000250: 6bbb 643e a673 943c eb8a 843e 37a7 c03c
00000260: da5f 38be ca45 32be 1105 8cbd 22f9 99bd
00000270: c04f c1be de32 ab3d c391 97be 859a c6bd
00000280: b3e4 193e 59ff 193f e156 293d 865a 8abe
00000290: 56be 54be 1783 a4bb 3d60 abbe d440 d5bd
000002a0: d7eb c1bd 9147 e6bb 5864 fe3e 5168 8fbc
000002b0: 63c5 dd3d 5c56 973d 142b 3c3e f781 243e
000002c0: 2915 a2bd 32e2 96bd b0f8 d6bc 8e1e 1fbd
000002d0: 950f 89bd 052e 423e e638 38be f18d 133e
000002e0: cde1 a4be fc2e 803d a533 383e 3b1b b23d
000002f0: 9d14 22bd 48cc 7ebd 9e98 e33b bc4a 99be
00000300: 0352 44be 107d 85be c6fa c2bd 1786 523e
00000310: f166 f73c f52e 243b 883e 053e 9a5b 723e
00000320: ecd6 2f3d 49b9 0d3d 6440 a5bd 6bd2 51be
00000330: 4aae 803d 263f 303e 3124 dbbe 1c9d 78bd
00000340: 6170 f2bd 26be 57be d8da 76be 0e70 db3d
00000350: 8222 103e 0221 dfbd dcc4 c8be 7c7c a9be
00000360: d8d2 54bd 2eb1 793e d6d2 b23d f1ec c43b
00000370: d57b 39be f7de ccbc 578b bbbe 4223 29bd
00000380: 2c0a 653e d350 553d 0fe4 533d 6f52 c4bd
00000390: f620 c5be 34b6 2a3d 502b 3cbe 2705 a73e
000003a0: 4f02 d73b 4de1 53bf 7249 253d 9a5d ebbd
000003b0: 4e14 013e 0c90 ecbd f66a 9abe a349 c53d
000003c0: 3845 5d3d 01c3 853d 422a 3ebe 9184 91bd
000003d0: f378 6fbf f3f8 efbd e155 5abe a65d a4bc
000003e0: cb70 283e 9ab7 02be a079 873d 447a d6bd
000003f0: 7af3 0c3e 32d7 8bbe 606d 21bd 002d 83bc

a2c_network.actor_mlp.2.bias f4 [128]
-0.31670856 -0.6490613 -0.39094025 -0.5142603 -1.0170387 -0.37053892 -0.27802604 -0.32390985
-0.40493807 -0.14497557 -1.2310895 -0.25284672 -0.42885682 -0.2839189 -0.7612732 -0.37880993
-0.6054238 -0.6977573 -0.48738965 -0.43665674 -0.6257772 -0.4920295 -0.13443808 -0.24324925
-0.36673245 -0.5919586 -0.33318585 -0.51765305 -1.0269262 -0.17909163 -0.33289757 -0.63139486
-0.70960844 -0.35274482 -0.1789859 -0.6040158 -0.3243976 -0.8210101 0.022142522 -0.27491853
-1.2185681 -0.4003946 -0.096563354 -0.32922477 -0.43613148 -0.7927882 -0.25354877 -0.26247743
-0.3320857 -0.16196904 -0.6705216 -0.16007452 -0.55706394 -0.23594272 -0.30024815 -0.44668388
-0.7507034 -0.6193335 -0.49976137 -0.84798974 -0.25378397 -0.4884088 -0.32169878 0.21852785
-0.5339265 -0.8205514 -0.47031397 -0.42921177 -0.19307199 -0.80865943 -0.28425953 -0.9914382
-0.2920843 -0.46092445 -0.6241388 -1.0164558 -0.14601302 -0.50850236 -0.8521973 -0.20729074
-0.45605126 -0.8239904 -0.34822172 -0.5930237 0.12603801 -0.23627788 -0.2609405 -0.34386265
-0.40673196 -0.42947307 -1.0293472 0.47764084 -0.39512637 -0.3487024 -0.24939097 -0.20477338
-0.44560185 -0.3398175 -0.29755157 -0.49406 -0.761378 -0.5578649 -0.71534514 -0.5672953
-0.8491007 -0.034532037 -0.3451474 -0.4933334 -0.4782552 -0.28485247 -0.080546685 -0.09435562
-0.35840216 -0.32079238 -0.42660725 -0.091380164 -0.6820747 -0.66111326 -0.6374603 -0.62288207
-0.5317379 -0.61385083 -0.30166835 -0.42667362 -0.1759187 -0.28118187 -0.55585223 -0.399943
00000000: a027 a2be e228 26bf 5229 c8be 90a6 03bf
00000010: 532e 82bf 47b7 bdbe 6e59 8ebe 83d7 a5be
00000020: 0b54 cfbe 7a74 14be 5794 9dbf 2075 81be
00000030: 1f93 dbbe d15d 91be cde2 42bf 60f3 c1be
00000040: 0efd 1abf 39a0 32bf 238b f9be 7991 dfbe
00000050: ef32 20bf 4aeb fbbe 23aa 09be 5516 79be
00000060: 5bc4 bbbe 998a 17bf 5697 aabe e984 04bf
00000070: 5172 83bf cc63 37be 8d71 aabe 18a3 21bf
00000080: e6a8 35bf f89a b4be 1448 37be c8a0 1abf
00000090: 7117 a6be b82d 52bf 3c64 b53c 1fc2 8cbe
000000a0: 0afa 9bbf 8500 cdbe 02c3 c5bd 2690 a8be
000000b0: a04c dfbe 2bf4 4abf 25d1 81be 7163 86be
000000c0: 2307 aabe 36db 25be 4ea7 2bbf 93ea 23be
000000d0: be9b 0ebf f89a 71be 20ba 99be c0b3 e4be
000000e0: 192e 40bf a48c 1ebf b9e0 ffbe db15 59bf
000000f0: f9ef 81be b810 fabe b4b5 a4be c4c5 5f3e
00000100: 68af 08bf a80f 52bf fecc f0be a5c1 dbbe
00000110: aab4 45be 4e04 4fbf 778a 91be e5ce 7dbf
00000120: 138c 95be 4afe ebbe 8fc7 1fbf 391b 82bf
00000130: 7084 15be 362d 02bf 9a29 5abf 0644 54be
00000140: 8d7f e9be 09f1 52bf 1e4a b2be 67d0 17bf
00000150: 1c10 013e d4f2 71be fe99 85be c40e b0be
00000160: 2c3f d0be e5e3 dbbe a6c1 83bf 578d f43e
00000170: 014e cabe 1f89 b2be 5960 7fbe 1db0 51be
00000180: ed25 e4be 8ffc adbe ae58 98be 6ff5 fcbe
00000190: abe9 42bf 3cd0 0ebf dc20 37bf 443a 11bf
000001a0: aa5e 59bf 7771 0dbd 29b7 b0be 3296 fcbe
000001b0: dedd f4be 2fd8 91be a9f5 a4bd 853d c1bd
000001c0: 7d80 b7be e63e a4be 446c dabe 8625 bbbd
000001d0: 739c 2ebf b83e 29bf 9930 23bf 3375 1fbf
000001e0: fa1f 08bf 5425 1dbf 4674 9abe f774 dabe
000001f0: 0824 34be 12f7 8fbe 554c 0ebf 54c5 ccbe

a2c_network.actor_mlp.4.weight f4 [64, 128]
0.051367808 0.081837706 -0.081126384 0.102918215 -0.0021394205 0.087090485 -0.24791217 -0.13740493
0.07258232 -0.006467135 -0.083746254 0.041936107 -0.022136977 0.06052457 0.11342419 -0.018325776
0.023506617 -0.0063833697 -0.31357077 -0.05158707 -0.09319744 0.00072141987 -0.096419096 -0.12808287
0.22418757 0.026600564 0.08326695 0.017721605 -0.09820638 -0.07607379 -0.010819782 0.26254058
-0.1046748 0.029514495 -0.000949964 -0.12599543 -0.1586776 0.24472402 -0.13796899 -0.048083734
-0.079066664 -0.09835382 -0.17232202 0.1796343 -0.12817658 -0.21921636 -0.019491084 -0.12874061
-0.037491295 -0.08510037 -0.011400349 0.13639672 -0.008551296 -0.23135687 0.07232826 -0.14479166
-0.22419342 0.2395485 0.0036079485 -0.104812846 0.054934517 -0.04986391 -0.023036504 -0.12742552
0.19126856 -0.002987698 0.10430082 0.20452401 -0.25020826 -0.06537163 -0.10816585 0.05740331
0.0697381 0.053271886 0.073852845 -0.028158616 -0.16735297 0.054310277 0.080882646 0.18945603
0.13275674 -0.19772886 0.08068599 0.10097292 -0.23835285 -0.07930497 0.0771801 0.18276824
-0.05503413 0.012158731 -0.042149376 0.031028548 -0.1140478 0.016657392 0.029910814 -0.13021933
0.14210321 0.01984437 0.058757395 0.005625133 -0.03514438 0.049155544 -0.049523238 -0.19929215
0.035461247 0.13674556 -0.05014607 0.023359397 -0.0366956 0.0040125507 -0.019008499 -0.17122705
-0.040638495 0.08393898 0.025549538 0.09328256 -0.13633701 -0.0117201535 0.02769014 0.054633092
0.18605472 -0.29701853 0.15239175 0.09750608 0.08776967 0.012066479 0.0147686815 -0.01835336
0.011210152 -0.011209033 -0.016531996 -0.031680677 0.004279604 -0.058477554 0.013353929 0.009537707
-0.037500832 0.013424071 -0.04290605 0.031320967 0.0045915255 -0.0027348802 -0.033934962 0.0046298956
-0.011272372 -0.043391213 -0.0038444812 0.0055630263 0.011422767 0.08820744 -0.053374022 0.009332515
0.047042362 -0.011419996 -0.013714787 0.011647158 -0.05847742 0.0077650603 -0.0043461653 0.034102306
-0.00150616 0.0039417967 -0.0071702623 -0.004209129 0.015581871 0.011393705 -0.011975352 0.018128572
0.0068004536 -0.0006134915 0.017400287 -0.0014960675 0.009207619 -0.01686798 0.0041255713 -0.039758738
-0.030230349 -0.00628841 0.008741112 0.008270767 -0.021313896 0.002154331 -0.017506545 0.0054778634
0.011210467 -0.0027145066 -0.030222056 0.0013704592 -0.027628697 -0.017057797 -0.0041977833 -0.0020980204
-0.0166217 -0.028159974 0.014840964 -0.03245906 0.006263583 -0.001413712 0.018867383 0.015812568
0.0053158393 0.019007342 0.06811746 -0.023203624 0.034766156 -0.0016541532 0.015720526 -0.0011538042
0.007380145 0.019189732 -0.009236125 0.05191807 0.0018080912 -0.004533191 0.022917569 0.015346517
-0.012021485 0.007919446 -0.026515163 0.03364227 0.019852681 -0.024529368 0.004529144 -0.013814454
0.0026000394 0.013169884 0.0046609556 -0.0028575882 0.021240907 0.008866733 -0.017669119 -0.009437577
-0.010008618 -0.012280394 -0.02872444 0.028738156 0.0142361345 0.018507153 -0.020477597 0.01962113
-0.0075738984 0.03274259 -0.010115803 -0.010260759 0.006692276 -0.034212228 -0.020298878 0.052180868
0.01628006 0.0012150658 -0.019825261 0.009249729 -0.00080230256 0.006744705 0.0088419635 -0.045139797
00000000: 0d67 523d 879a a73d 9725 a6bd c9c6 d23d
00000010: 8535 0cbb 7f5c b23d b0dc 7dbe e1b3 0cbe
00000020: 0aa6 943d 43ea d3bb 2883 abbd 32c5 2b3d
00000030: 9b58 b5bc 9de8 773d f14a e83d f01f 96bc
00000040: f390 c03c 962b d1bb 598c a0be f74c 53bd
00000050: 4dde bebd ab1d 3d3a 6077 c5bd 2828 03be
00000060: 6d91 653e 6de9 d93c dd87 aa3d e62c 913c
00000070: 6d20 c9bd 93cc 9bbd 7445 31bc b86b 863e
00000080: be5f d6bd 62c8 f13c 0107 79ba f204 01be
00000090: 617c 22be ef98 7a3e be47 0dbe 73f3 44bd
000000a0: b4ed a1bd ba6d c9bd 2f75 30be 0ef2 373e
000000b0: b940 03be 417a 60be c4ab 9fbc 94d4 03be
000000c0: 7990 19bd 1a49 aebd 88c8 3abc 95ab 0b3e
000000d0: bc1a 0cbc d1e8 6cbe d720 943d 4444 14be
000000e0: f692 65be 344c 753e 5573 6c3b 1ea8 d6bd
000000f0: 0403 613d 193e 4cbd 0db7 bcbc d67b 02be
00000100: e8db 433e 41cd 43bb ab9b d53d be6e 513e
00000110: 4c1b 80be 90e1 85bd 0f86 ddbd bc1f 6b3d
00000120: d9d2 8e3d 9f33 5a3d 2940 973d e6ac e6bc
00000130: 945e 2bbe 7474 5e3d cda5 a53d c300 423e
00000140: 62f1 073e 6f79 4abe b23e a53d e4ca ce3d
00000150: c512 74be a56a a2bd 9a10 9e3d 9927 3b3e
00000160: 786b 61bd 6a35 473c d3a4 2cbd 952f fe3c
00000170: e591 e9bd 1575 883c 8607 f53c 3758 05be
00000180: 8183 113e a990 a23c 98ab 703d 0953 b83b
00000190: 8ef3 0fbd 5357 493d e1d8 4abd 3e13 4cbe
000001a0: d03f 113d 0707 0c3e f765 4dbd 355c bf3c
000001b0: 204e 16bd b77b 833b b6b7 9bbc 2556 2fbe
000001c0: 8d74 26bd 33e8 ab3d 444d d13c ed0a bf3d
000001d0: ee9b 0bbe e305 40bc 6fd6 e23c f3c6 5f3d
000001e0: 2185 3e3e d012 98be 950c 1c3e 45b1 c73d
000001f0: 96c0 b33d 7bb2 453c 57f8 713c c959 96bc
00000200: c9aa 373c 18a6 37bc 1c6e 87bc 99c3 01bd
00000210: ec3b 8c3b 2986 6fbd 70ca 5a3c 0b44 1c3c
00000220: 799a 19bd a2f0 5b3c 41be 2fbd 6a4a 003d
00000230: 8274 963b ad3b 33bb 63ff 0abd 61b6 973b
00000240: c1af 38bc fcba 31bd b1f3 7bbb 0c4a b63b
00000250: 8f26 3b3c 1aa6 b43d b89e 5abd 68e7 183c
00000260: 7eaf 403d ef1a 3bbc fcb3 60bc b9d3 3e3c
00000270: 0586 6fbd 0c72 fe3b 476a 8ebb dcae 0b3d
00000280: 586a c5ba 302a 813b 85f4 eabb bcec 89bb
00000290: 1b4b 7f3c aaac 3a3c 4434 44bc 5f82 943c
000002a0: 57d6 de3b b8d2 20ba 0c8b 8e3c b217 c4ba
000002b0: 8edb 163c b82e 8abc cd2f 873b 0fda 22bd
000002c0: a3a5 f7bc 020f cebb e236 0f3c 1c82 073c
000002d0: 7b9a aebc ad2f 0d3b e369 8fbc a67f b33b
000002e0: 1bac 373c dde5 31bb 3f94 f7bc fba0 b33a
000002f0: 9455 e2bc cbbc 8bbc 8f8d 89bb f17e 09bb
00000300: 3b2a 88bc bfaf e6bc 8427 733c cbf3 04bd
00000310: be3e cd3b 4e4c b9ba c58f 9a3c 5c89 813c
00000320: 7e30 ae3b 49b5 9b3c 2b81 8b3d 8715 bebc
00000330: f566 0e3d 2cd0 d8ba 55c8 803c 3f3b 97ba
00000340: 25d5 f13b c933 9d3c 1e53 17bc 0ba8 543d
00000350: 79fd ec3a 2a8b 94bb a0bd bb3c f56f 7b3c
00000360: c3f5 44bc 90c0 013c 5436 d9bc 7acc 093d
00000370: 17a2 a23c d0f1 c8bc 3769 943b 0556 62bc
00000380: 6c65 2a3b 7fc6 573c eeba 983b 6046 3bbb
00000390: 6901 ae3c c645 113c d4be 90bc 11a0 1abc
000003a0: 30fb 23bc b533 49bc 844f ebbc 486c eb3c
000003b0: ad3e 693c 509c 973c a2c0 a7bc 7ebc a03c
000003c0: 772e f8bb 181d 063d c1bc 25bc be1c 28bc
000003d0: e14a db3b 1f22 0cbd d549 a6bc 9bbb 553d
000003e0: c35d 853c d842 9f3a 9668 a2bc 2d8c 173c
000003f0: 9d51 52ba b002 dd3b e2dd 103c 82e4 38bd

a2c_network.actor_mlp.4.bias f4 [64]
-0.1198161 -0.03696007 -0.13005279 -0.19593821 -0.57011503 -0.14661153 -0.12340853 -0.062094864
-0.09929876 -0.14925066 -0.556541 -0.100793466 0.090229295 0.14792593 -1.0830134 -0.48632535
-0.11471559 -0.178301 -0.06280724 -0.04382157 -0.09403495 -0.014947318 -0.12778807 -0.2441671
-0.23118158 -0.11628591 -0.081041895 -0.25346774 -0.12749894 -0.09998394 -0.11495683 -0.11738772
-0.1380417 -0.59119064 -0.062454868 -0.70949304 -0.20892708 -0.16475047 -0.19167465 -0.09262167
-0.15463127 -0.13199648 -0.11019668 0.0025070736 -0.043607473 -0.6441792 -0.4357641 -0.06854336
-0.31128275 -0.09857466 -0.72603565 -0.12049607 -0.6976916 -0.14774418 -0.99048907 -0.100204095
-0.08277384 -0.890618 -0.10342013 -0.99152994 -0.08814556 -0.13031058 -0.1275713 -0.11507446
00000000: 2562 f5bd 7163 17bd 8f2c 05be 07a4 48be
00000010: 0ff3 11bf 5521 16be 9dbd fcbd 2f57 7ebd
00000020: 265d cbbd 2ad5 18be 7979 0ebf ce6c cebd
00000030: 23ca b83d e579 173e 2fa0 8abf a3ff f8be
00000040: 02f0 eabd 8a94 36be 15a1 80bd 3f7e 33bd
00000050: 6595 c0bd 98e5 74bc e0da 02be f106 7abe
00000060: ddba 6cbe 4f27 eebd 4bf9 a5bd 86c6 81be
00000070: 158f 02be 61c4 ccbd 7d6e ebbd f968 f0bd
00000080: ce5a 0dbe 4558 17bf add0 7fbd 56a1 35bf
00000090: fbf0 55be 59b4 28be 5c46 44be 6eb0 bdbd
000000a0: a957 1ebe 162a 07be ccae e1bd b74d 243b
000000b0: c09d 32bd eee8 24bf 791c dfbe 7660 8cbd
000000c0: 7460 9fbe 83e1 c9bd 79dd 39bf a5c6 f6bd
000000d0: eb9b 32bf 404a 17be b190 7dbf ce37 cdbd
000000e0: 5585 a9bd 8bff 63bf efcd d3bd e8d4 7dbf
000000f0: a985 b4bd 2370 05be 0da2 02be 29ac ebbd

a2c_network.value.weight f4 [1, 64]
-0.0042487266 0.0029100191 0.13132624 -0.0033649795 -0.070328414 -0.0015586242 -0.0026623828 0.004074879
-0.004265798 -0.00043280877 -0.0025825216 -0.00061198324 0.14379844 0.07620316 -0.027541772 0.0033268284
-0.0017341832 0.0021665234 0.0012345271 0.0015475146 -0.0023871278 0.003683873 0.0008131769 -0.0070827305
0.00048314195 0.0019973016 0.0023429373 0.005136607 0.00301687 -0.00055706885 0.0029287701 -0.001587039
0.0016488658 -0.011489817 -0.00018412586 -0.038894445 -0.009038579 -0.0039045876 -0.0037563287 0.001554117
9.326614e-05 0.0065336297 0.0004038557 0.00093040324 0.0020124428 -0.028587976 0.004666287 -0.00050487905
0.0018195866 -0.0025822646 -0.028714014 -0.0014066873 -0.04647314 0.0061395518 -0.059396368 -0.002050011
-0.0013525042 -0.06953028 -0.0013479128 -0.02389092 -0.0006506569 -0.0032969934 0.004581439 -0.0030520686
00000000: e738 8bbb 05b6 3e3b 637a 063e fd86 5cbb
00000010: 5808 90bd c04a ccba 5f7b 2ebb 9086 853b
00000020: 1bc8 8bbb 9cea e2b9 863f 29bb 806d 20ba
00000030: e63f 133e 6710 9c3d 489f e1bc eb06 5a3b
00000040: 884d e3ba 3bfc 0d3b dbcf a13a f9d5 ca3a
00000050: 5c71 1cbb 226d 713b 612b 553a 4016 e8bb
00000060: 374e fd39 29e5 023b f78b 193b fc50 a83b
00000070: aeb6 453b 4208 12ba 9cf0 3f3b 3104 d0ba
00000080: c11e d83a c93f 3cbc e911 41b9 c84f 1fbd
00000090: 8c16 14bc 1ce4 7fbb bd2c 76bb 83b3 cb3a
000000a0: e197 c338 0f18 d63b 98bc d339 4ee6 733a
000000b0: 30e3 033b 5531 eabc a7e7 983b dc59 04ba
000000c0: 327f ee3a 363b 29bb a739 ebbc 9860 b8ba
000000d0: 9f5a 3ebd 4b2e c93b 9b49 73bd 7a59 06bb
000000e0: 8346 b1ba e465 8ebd 73ac b0ba e4b6 c3bc
000000f0: d890 2aba 5f12 58bb e51f 963b 3705 48bb

a2c_network.mu.weight f4 [18, 64]
-0.00017052268 -0.0015642978 0.03945551 -0.003343661 0.0011291627 0.0022132231 0.019508444 -0.057820886
-0.038883433 0.00020807731 0.022641653 0.011193171 0.0016707263 -0.008129248 -0.03279621 -0.00700389
-0.005507345 0.0026484868 0.0025883664 -0.014695436 0.0064778286 -0.0010795866 -0.0010825621 5.0334605e-05
0.0013459708 0.0003146032 -0.0077150464 -0.018521007 0.014897189 0.0027497362 -0.0013997105 0.0023313987
0.005540639 0.021656029 0.010338292 0.031278607 -0.0282238 -0.006102349 -0.0053045554 -0.003870246
-0.00047935918 -0.03220672 -0.0011900964 -0.0033089733 -0.003862388 -0.0027927347 -0.026098538 0.0078018093
0.005296822 0.0014035017 0.011820137 0.00055797334 0.015730133 0.018849868 0.010685948 -0.004543359
-0.0042069065 0.009382741 0.001540637 0.0046484903 0.01180936 0.004101555 -0.0027935943 0.004637903
0.0076131965 -0.0031268268 0.032271806 0.002802153 0.0061618364 -0.0006886792 -0.0076445523 0.010562935
-0.007339039 -0.004611729 -0.0026680643 -0.0012274378 0.040603742 -0.056039486 -0.0039850036 -0.018240348
0.0033963064 0.008602331 -0.0019504693 -0.0045372033 -0.003761805 -0.007147621 -0.0010701902 -0.024991952
-0.03085754 0.003152534 0.0371963 -0.02365794 -0.0011766118 -0.003565981 -0.0047388896 -0.005342404
0.018906932 0.013137312 0.0032708128 0.003563213 -0.01493678 -0.028326692 0.045408964 -0.0011115122
-0.0016517624 0.012204318 -0.013623559 0.0048759957 -0.0022759389 -0.015170534 -0.016431246 -0.0008596788
0.0268574 0.0024504426 -6.432064e-05 0.0028372866 -0.004641905 -0.011210821 -0.013685817 0.007506213
0.004522384 -0.0012766884 0.004734046 0.014487413 0.0026275457 -0.019161716 0.00698584 0.002161717
-0.029311484 -0.003246267 -0.015601746 0.0006842632 0.013126773 0.0022338114 -0.01348861 -0.021292694
-0.001884716 -0.0051517813 0.004900684 0.0002726534 -0.013819624 -0.0021955832 0.0066203284 0.033412877
-0.0022227375 -0.011984365 -0.00014149766 -0.0025543757 -0.010168886 0.000968364 -0.00049601786 -0.019943055
0.00754713 -0.010520518 0.027336095 0.014222956 -0.005321353 0.0010261671 0.002429054 0.0007361771
-0.019625157 0.0066791517 0.0035012283 0.027416522 -0.037247527 -0.02514708 -0.019160438 0.0052385577
0.0033932028 0.031862475 0.0260961 -0.0043477216 -0.0053285277 0.02964583 0.01891679 -0.0029470818
0.0044238246 5.9943217e-05 0.018063612 -0.0019517521 0.011108877 -0.038470108 0.04772749 -0.008515943
-0.0023448 0.025072094 0.0017336821 -0.012849 -0.0020711056 -0.011370183 -0.0023182803 0.0019849457
0.04001357 0.00035437563 0.0022757465 -0.007097229 0.026316537 0.001956263 0.011044805 0.021234797
-0.0017874235 -0.005693764 0.025395332 0.0022891264 -0.025210742 0.018516438 0.00987336 -0.00025766002
0.0007099358 -0.0113577405 0.0065793805 -0.0041207513 0.00059442 0.003293986 0.00088527444 0.024200672
0.029688008 -0.002279213 0.020270895 0.0040194886 0.0149959205 0.00021129183 0.000526327 -0.0022022722
-0.038096096 -0.0039314236 0.00766129 0.025815979 0.036376543 0.03947711 -0.026787052 0.0039134
-0.0012867171 0.06310625 -0.011193578 0.0029951495 -0.0041807434 0.013103615 -0.005228681 0.0073768646
-0.030743243 0.0077518313 -0.019951746 -0.00360686 -0.0032980903 -0.0008877993 0.03196409 0.0014166388
-0.007417537 0.0036866218 0.0008691333 -0.022163551 0.008831092 0.0072602155 -0.0028144552 0.011754466
00000000: 55ce 32b9 2009 cdba 1a9c 213d 5321 5bbb
00000010: 6a00 943a b90b 113b 2cd0 9f3c 98d5 6cbd
00000020: 3c44 1fbd 542f 5a39 fd7a b93c 9063 373c
00000030: 46fc da3a 8a30 05bc 5255 06bd e380 e5bb
00000040: f576 b4bb 3c92 2d3b 95a1 293b 20c5 70bc
00000050: f743 d43b ea80 8dba c2e4 8dba 5f1e 5338
00000060: 496b b03a 54f1 a439 80ce fcbb 5eb9 97bc
00000070: 5713 743c eb34 343b 7e76 b7ba 61ca 183b
00000080: 408e b53b fc67 b13c f161 293c ff1d 003d
00000090: 9935 e7bc 37f6 c7bb d6d1 adbb f4a3 7dbb
000000a0: 8052 fbb9 32eb 03bd 02fd 9bba 5cdb 58bb
000000b0: 1e20 7dbb 5006 37bb 9acc d5bc 52a6 ff3b
000000c0: f790 ad3b b4f5 b73a 3fa9 413c f544 123a
000000d0: 7bdc 803c 0a6b 9a3c 1d14 2f3c 75e0 94bb
000000e0: 17da 89bb 11ba 193c 33ef c93a 5d52 983b
000000f0: 0c7c 413c 5666 863b bc14 37bb 8df9 973b
00000100: 1f78 f93b 73eb 4cbb 712f 043d 53a4 373b
00000110: 3be9 c93b 7b88 34ba 277f fabb 2910 2d3c
00000120: 527c f0bb fd1d 97bb b1da 2ebb fae1 a0ba
00000130: 1c50 263d a989 65bd a294 82bb c86c 95bc
00000140: 9194 5e3b cbf0 0c3c e4a6 ffba d2ac 94bb
00000150: 9d88 76bb 9736 eabb a045 8cba ecbb ccbc
00000160: f4c8 fcbc be9a 4e3b 265b 183d 4cce c1bc
00000170: 8a38 9aba 3cb3 69bb b048 9bbb 550f afbb
00000180: b6e2 9a3c e13d 573c 225b 563b cb84 693b
00000190: 65b9 74bc 610d e8bc c0fe 393d 29b0 91ba
000001a0: f37f d8ba 9ff4 473c 5935 5fbc d1c6 9f3b
000001b0: eb27 15bb d58d 78bc d29a 86bc 115c 61ba
000001c0: 0d04 dc3c 9b97 203b e1e3 86b8 c5f1 393b
000001d0: 1f1b 98bb 97ad 37bc 7a3a 60bc aef6 f53b
000001e0: 8230 943b 8e56 a7ba 0e20 9b3b 9d5c 6d3c
000001f0: e732 2c3b 08f9 9cbc 79e9 e43b 98ab 0d3b
00000200: a31e f0bc 53bf 54bb 779e 7fbc 2060 333a
00000210: ad11 573c 2365 123b 55ff 5cbc 046e aebc
00000220: 9308 f7ba 46d0 a8bb eb95 a03b ebf2 8e39
00000230: b46b 62bc c6e3 0fbb 57ef d83b f1db 083d
00000240: 59ab 11bb 125a 44bc fd5e 14b9 5067 27bb
00000250: 669b 26bc cfd9 7d3a 3207 02ba 9e5f a3bc
00000260: ea4d f73b 405e 2cbc f2ef df3c 6707 693c
00000270: bf5e aebb 7480 863a c330 1f3b 02fc 403a
00000280: f0c4 a0bc c9dc da3b dd74 653b 9d98 e03c
00000290: dd90 18bd 4001 cebc 5af6 9cbc 35a8 ab3b
000002a0: 7f60 5e3b 3a82 023d 7dc7 d53c 5577 8ebb
000002b0: ee9a aebb d0db f23c 62f7 9a3c d423 41bb
000002c0: bbf5 903b 8a6b 7b38 24fa 933c efd1 ffba
000002d0: 0202 363c d592 1dbd e77d 433d 7486 0bbc
000002e0: 37ab 19bb fe63 cd3c b83c e33a 9d84 52bc
000002f0: 63bb 07bb 014a 3abc 4aee 17bb dd15 023b
00000300: 45e5 233d 7ecb b939 b124 153b df8f e8bb
00000310: c795 d73c a634 003b 45f5 343c 99f4 ad3c
00000320: fb47 eaba c192 babb df09 d03c 2b05 163b
00000330: c286 cebc c9af 973c e0c3 213c 8b16 87b9
00000340: fc1a 3a3a d115 3abc d897 d73b 5e07 87bb
00000350: dad2 1b3a eadf 573b c311 683a 7d40 c63c
00000360: 4434 f33c d95e 15bb 260f a63c eab5 833b
00000370: 73b1 753c 388e 5d39 35f9 093a ff53 10bb
00000380: a70a 1cbd 2cd3 80bb 8f0b fb3b 087c d33c
00000390: 92ff 143d c0b2 213d 8570 dbbc fb3b 803b
000003a0: 10a7 a8ba d93d 813d 4565 37bc 454a 443b
000003b0: 9efe 88bb 8bb0 563c 5b55 abbb a0b9 f13b
000003c0: 41d9 fbbc 1303 fe3b d871 a3bc 1261 6cbb
000003d0: c624 58bb 34bb 68ba c7ec 023d 83ae b93a
000003e0: cf0e f3bb 409b 713b 8cd6 633a 5690 b5bc
000003f0: 49b0 103c 1ae7 ed3b b972 38bb ce95 403c

a2c_network.mu.bias f4 [18]
-0.0034330098 0.03303376 -0.033371426 -0.108616225 0.017043902 -0.063335516 -0.011646685 0.041578583
0.06322836 -0.035410687 0.2600848 -0.03855546 -0.0376167 -0.17117852 0.049938887 -0.008801834
-0.122464836 -0.000104992105
00000000: 59fc 60bb 684e 073d 7ab0 08bd 2f72 debd
00000010: a79f 8b3c 0db6 81bd bdd1 3ebc 4e4e 2a3d
00000020: df7d 813d cc0a 11bd d629 853e 54ec 1dbd
00000030: f813 1abd 6c49 2fbe b88c 4c3d 9135 10bc
00000040: d8ce fabd 352f dcb8

exp_avg f4 [18]
0.0076274797 -0.0077037136 0.0003407427 0.005021067 0.002806251 -0.011567998 0.008942297 0.00037889858
0.003847212 -0.0039505675 0.0018748959 0.0016245741 -5.6383014e-05 0.0034938073 -0.0023879076 -0.0005706883
0.0013727532 -0.0037622019
00000000: f0ef f93b 6f6f fcbb b6a5 b239 c387 a43b
00000010: 14e9 373b b387 3dbc b682 123c e8a6 c639
00000020: 8221 7c3b c373 81bb 11bf f53a a9ef d43a
00000030: cd7c 6cb8 5cf8 643b 717e 1cbb 3e9a 15ba
00000040: f4ed b33a 468f 76bb

exp_avg_sq f4 [18]
0.0008736125 0.0009341673 0.00087703683 0.00087069196 0.00088992575 0.00086558907 0.00084940303 0.0008480325
0.00088388677 0.00088680326 0.0008947075 0.00083708373 0.0009227851 0.0008847149 0.000943647 0.00085238664
0.0009391139 0.0008479456
00000000: 2403 653a e8e2 743a f2e8 653a 263f 643a
00000010: e849 693a b3e8 623a 79aa 5e3a 7f4e 5e3a
00000020: a3b4 673a 5c78 683a ce8a 6a3a bd6f 5b3a
00000030: 0fe7 713a 36ec 673a 145f 773a b372 5f3a
00000040: de2e 763a aa48 5e3a
