exp_log/spoon_shelf_dis/DualFrankaPPO_spoon_shelf_dis.pth (torch, 752816 bytes, 36 tensors)

value_mean_std.running_mean f8 [1]
00000000: 46ca d2c3 3026 5140
68.59672637543653

value_mean_std.running_var f8 [1]
00000000: 89bd cdab 150c c040
8216.169305532023

value_mean_std.count f8 []
00000000: 0000 8000 0094 c141
589824001.0

running_mean_std.running_mean f8 [74]
00000000: bfdd 32f9 9dba e03f 9504 9990 41ea cc3f
00000010: bce5 18ef e65e dbbf cd07 b602 7370 b43f
00000020: e460 a332 8f01 ddbf 5886 ae78 1d19 bcbf
00000030: 4301 18e3 e4a8 e03f b5fc 4505 2cf9 c43f
00000040: a508 1732 f999 c23f 8e86 dde7 aec0 c63f
00000050: 7a24 69a3 9bf7 d1bf 2e0c 3a28 846c b43f
00000060: af59 4928 88ef d3bf 618f 0b8a 20d0 da3f
00000070: 1964 7a42 0bc8 e83f 9f60 091f 3df9 a93f
00000080: dc97 a4b7 0322 ef3f 9c5c 7035 2529 ef3f
00000090: cc44 7de1 e65f 843f 0198 1c5f 967e 65bf
000000a0: 6c84 7719 f5ea 82bf 83b1 a3fc 0d13 8cbf
000000b0: d560 8084 6565 80bf d41c 3ff4 59e9 68bf
000000c0: 3d4b 114d 0284 8bbf 280a ea26 04c3 4b3f
000000d0: dc0d dffa b5f5 2f3f 93e0 fb6e 4a6c ae3f
000000e0: 0fab da3f 0743 86bf 66f5 1cc2 624a 8bbf
000000f0: 8c74 188d b62b 8e3f bc13 a8bd c49b 72bf
00000100: 0c44 5c2d 6b3e 653f f9b5 87e6 8377 6cbf
00000110: 5963 17bb c70d 8b3f a46b 073d f9a8 2bbf
00000120: 2e6e 758f 0c5a 7fbf 0ed8 3064 1991 643f
00000130: efb9 0485 191b 6a3f 5b56 af71 ea79 e63f
00000140: 0f4b 96dd 5136 b1bf 0b3f 64fd c930 d13f
00000150: 826a 0c5e 3f22 e2bf 2c60 368e 28f6 e53f
00000160: 2c8b 9b5b b600 d83f c800 f4e8 ea47 babf
00000170: 4a8b d3db dc26 ccbf d695 b12b 06bc cd3f
00000180: b209 2e0b ff1a d03f 1dfa e3cd 922f d3bf
00000190: c71c 1b76 6e52 dc3f babe 1df0 9b8e d2bf
000001a0: cc2c 77c4 4082 2abf f7a3 0b08 8559 d2bf
000001b0: a61c adb4 2b03 13bf 66f7 6195 eea2 ee3f
000001c0: c5de bf65 033c f83f b4cc 7434 597c d93f
000001d0: 6647 283a 46d3 f3bf ab11 359d 2037 f7bf
000001e0: 9918 18de 8402 f5bf b5ee 2a25 d791 fa3f
000001f0: 90f6 bd25 4f22 f83f eba6 d486 f2d5 973f
00000200: 6316 dcac cb74 973f 006a 1bb4 f67a e03f
00000210: 847e 0656 30ac dfbf 69fd c141 4a96 cd3f
00000220: 64a1 f868 8c4e 00c0 c422 0df5 db6b f33f
00000230: 46f8 ff17 459e 0a40 b37f cdc7 2bd0 c23f
00000240: 0239 4333 d833 a43f 57fc a75b 2036 a43f
0.5227804057275803 0.2258989292186341 -0.4276673636373649 0.0798408395403662 -0.4532201761735577 -0.10975822635966759 0.520616954367178 0.16385412461747753
0.1453238958911857 0.17775522538709193 -0.28073779066159654 0.07978082639788006 -0.31149486479025773 0.41895307045910185 0.7744194315338319 0.050729665793086236
0.9729021631981101 0.9737726253250858 0.00994854331625774 -0.0026238381332346354 -0.009237208213507674 -0.013708218834346258 -0.00800589857685489 -0.003040958110407036
-0.013435380913653478 0.0008472223542671008 0.0002438339847100475 0.0594199429014576 -0.01087003387086363 -0.013325473355161942 0.014731813603299913 -0.004543083685807522
0.002593240099380006 -0.003474958055668106 0.013209877392840562 -0.00021102945767278753 -0.0076542368545591665 0.0025105949330521743 0.0031867502622369074 0.7023822994621683
-0.06723510417786492 0.26860284562370457 -0.5666806065449495 0.6862986352525744 0.37504347749761524 -0.10265987574894375 -0.21993599637706956 0.23230054028969843
0.251647721212204 -0.29977865320680214 0.44253121885089935 -0.2899541706928904 -0.0002022460996456754 -0.28671384607019895 -7.252649554089166e-05 0.957389156115579
1.5146516775693482 0.39821462748222847 -1.2390806457301209 -1.4509588375959577 -1.313114993624856 1.6606055690635178 1.5083762621210646 0.02327708194676507
0.02290647738029462 0.5150102155415084 -0.49488457108416406 0.23114898882702598 -2.0383537484050738 1.2138328144375672 3.32728022336872 0.14697787528984704
0.039458042390480244 0.039475451649189246

running_mean_std.running_var f8 [74]
00000000: e79d 7b97 d18e c83f 0084 876b 1b91 b03f
00000010: 664b 7bd5 ef12 cc3f 0861 7d7d 851a c53f
00000020: 3e8a 1e7c 5f83 cd3f 9452 af56 a2f7 d73f
00000030: 836e 9d50 575d c73f dd13 7ac9 0fec e73f
00000040: 8c83 0f35 34f1 e73f 1538 26a6 eb27 d83f
00000050: 8460 e1d4 a270 d63f 44f0 3295 44e0 cb3f
00000060: 96d2 da2b 35a1 d33f 27a6 e8df c026 d33f
00000070: c2c8 4f07 cf13 be3f a4bc c4d5 d6e8 d53f
00000080: 026f f6eb d631 a63f 5818 59c3 9b55 a53f
00000090: 59df 654c 3051 7a3f c6e1 e66d 23c0 783f
000000a0: 4a2b f1d8 c0eb 813f d829 1d76 3fd3 7e3f
000000b0: a535 3594 e240 893f 8ca5 bc63 577d 883f
000000c0: ad57 2352 dc9b 9d3f b0b9 bab2 0fc0 4d3f
000000d0: 874f d0cb ab56 4e3f 2191 0300 0875 9a3f
000000e0: 30b7 cd63 0a83 833f 920d 370f b969 8a3f
000000f0: d527 b68d e5a8 833f 9b77 2334 de0a 823f
00000100: 2980 6f6b a4a6 843f 1e36 9542 495f 813f
00000110: 1cae bf45 03ce 863f 9af4 9ade df77 7a3f
00000120: 3b45 23c6 5f5f 933f ab9a a3ff 76b6 523f
00000130: f7db 257d 1c32 543f 49d2 169c b536 c13f
00000140: 65ae e7d5 2856 b73f fbdd 4372 5ee6 b83f
00000150: da4a 4408 bf91 bd3f 8214 2785 302d b13f
00000160: bc43 0281 615e 8d3f bc3a 39d6 7825 c73f
00000170: efa5 019b f746 c13f 92e7 4d23 cbf4 c43f
00000180: 92ef 6186 500c d63f 0ed0 ddb2 e3c5 ec3e
00000190: 0a87 33e1 9be4 c63e b890 9394 0ea0 f83e
000001a0: 8ae4 ae09 6b24 393f dc79 1b45 55df 3a3f
000001b0: c694 04fa 4872 1d3f 30b7 cdbb d25e 333f
000001c0: 9d6b e293 b7c4 f93f ab9e 1e08 8bbd c93f
000001d0: 7f3c 0973 3475 fd3f 485a 2a8b f1c5 d73f
000001e0: 50f6 0d8b c9f7 fe3f 021b d017 514a f53f
000001f0: 976e c54f d983 f83f 0c47 3f55 e398 333f
00000200: b871 c8be 199d 333f 3a45 213c bf58 0940
00000210: d6a7 b8e3 cf6e f13f ebc1 a4ef 0940 fd3f
00000220: 9075 2c40 e61c e63f 5922 7699 6c18 0440
00000230: 176a 2dd6 c2b7 da3f e87c b857 2afd 0640
00000240: 46de 6847 792f f23e 47b9 2c79 0f7b f13e
0.19185848137497816 0.06471415877560105 0.21932790683657827 0.1648718703024843 0.2305716854144339 0.37448938813512567 0.18253604351308547 0.7475661215872794
0.7481938396777976 0.3774365541984264 0.3506247595701171 0.21778161320787792 0.3067143371838851 0.2992403208359939 0.11748975685603383 0.3423363769133607
0.043348995498687884 0.041668765636629856 0.006425083795299568 0.006042612453193324 0.008750445004030678 0.007525680442834269 0.012330789707131038 0.011957819682339353
0.028914873612698667 0.0009079052592449368 0.000925859341466482 0.025837063790178697 0.009527283831370775 0.012896962906672003 0.009599488627617983 0.00880979153265198
0.010083469895050783 0.008482525200316945 0.011135125700056973 0.00646197747272228 0.01891851088368422 0.00114213581996984 0.0012326505862725304 0.13448209878483144
0.09115843984880596 0.09726515092540204 0.11550516082597131 0.06709578753278048 0.01434017348245386 0.1808310552609863 0.1349782473437666 0.16372050498813145
0.34450162051484157 1.3720038250154855e-05 2.7290586871322324e-06 2.3484442213909175e-05 0.00038364041546008114 0.0004100402048673715 0.00011232920087829714 0.0002955688940379118
1.6105266358124262 0.20109689613785994 1.8411144727322435 0.37145651426672943 1.9354949409311253 1.3306437425796394 1.5321896663726073 0.0002990298282813254
0.0002992809156994419 3.1683335015919996 1.0895537276614866 1.828134475810766 0.6910277608291597 2.511925887029332 0.41746588626634334 2.873615918462395
1.7342991180251012e-05 1.6670899252329838e-05

running_mean_std.count f8 []
00000000: 0000 0001 0094 b141
294912001.0

a2c_network.sigma f4 [18]
00000000: 2e11 80bd 1356 3ebe c5c8 21bc 2aed 24be
00000010: 0881 09bd 9171 19bd a43d 02bd da83 07bd
00000020: e3d3 5abc 242f e4bc 18bc a43b 621f 5c39
00000030: e4d7 50bc 11bf 153d d894 35bc ebed f2bc
00000040: 372a a9bd d10e 35bc
-0.06253277 -0.18587522 -0.009874527 -0.16106096 -0.03357032 -0.03746182 -0.031797066 -0.033084728
-0.013356182 -0.02785451 0.0050273053 0.00020992526 -0.012746785 0.03655917 -0.01108285 -0.029654464
-0.08260005 -0.011050896

a2c_network.actor_mlp.0.weight f4 [256, 74]
00000000: 4ab9 4d3e 64d8 ebbe 9f6b 943c 8817 443e
00000010: 3474 ff3e 3604 e93e 81e5 663f bfb6 193e
00000020: 5c88 93bd c089 7b3c 2dda d03b f04d 0abd
00000030: 0787 21be dd75 ac3b 6a4b 81bd ea55 a63b
00000040: 7b9d 69bd 9c02 5dbe 59f2 8cbe de25 e43e
00000050: a8e6 a1be b827 fbbd 401a ea3d bd3b 3bbe
00000060: 525e ba3e 8ea3 6bbe ae14 653e e5ab a43e
00000070: 1178 f03d 0d7c 0cbf e448 82bd 9ca4 4c3e
00000080: a63f 3f3b 583f b93d 5001 06bd 1e57 edbd
00000090: a7ee 13be 7f98 213e e394 623e fad1 023e
000000a0: 58be d2bc 3c3d 783b 8a70 293f ff0f a6be
000000b0: 194e 81be a344 723d 6d39 cbbb f2ca 1ebd
000000c0: 5316 403f 3b41 22be 7db7 e6bd 54e1 803e
000000d0: c01c 13be a97e 9f3d 4abf e23c 36bd c13c
000000e0: b01e d53e 68b8 aabe 98b9 09bb d63e 663e
000000f0: 9ac2 d93e b2d9 a03e ef8c 5d3f 0245 213e
00000100: 1b4f 81bd f15a 173d 0a11 9bbc a50c d0bd
00000110: 483c 0dbe 196d 283c d286 cabc dee5 adbb
00000120: 5d0a 3a3d 6ca9 53bd a836 993e 8d60 76be
00000130: c882 573e 409e 87bf 5669 0fbf 76be 313f
00000140: bb11 4d3f 5cb4 02be d01b efbd 19ce 983d
00000150: adf8 e43d 5bdb b3bd aad6 18bd 6e0d 1c3d
00000160: 4086 f73c a53d f9bd d5cd 11bd 40fd 09be
00000170: 9934 87be a636 37bd 0c77 a03e 2d70 9dbd
00000180: 9e16 8f3c 8e0f c13d 9d98 453d 4872 2f3e
00000190: 287d 01bf 2592 623d dec6 e0be 966f ab3f
000001a0: c9dc 9abd 49b5 0d3e d734 153e ccfd 993d
000001b0: c1b6 03be 472a 4f3c 6b7d 73bd e9d7 91bc
000001c0: b700 1abd 13b0 493e e218 143e a203 013e
000001d0: f8e9 cb3d ec8f 65be e1dd 5bbc 8ac1 8e3d
000001e0: 6767 65bf 52a9 5e3e 886b 5dbf 08b5 eabd
000001f0: 3a96 823e da41 2abe d424 1fbe 18fc 8e3d
00000200: fcc4 8a3c f7c6 8abe 990b 403e 03bf 5fbe
00000210: 4f78 e13d 0c8c 8ebf edd8 15bf dd0b 523f
00000220: 61f6 443f d275 55bc e06d a4be 8d20 14bd
00000230: ed22 643d 2e36 b33d 782e 01be 8cf7 8fbc
00000240: 3a1c 823d b7f4 82bd b81b 2fbe 04f6 afbd
00000250: 3cdf 59be 409c 893e c144 f43c 6459 eb3c
00000260: 8f1c 6d3e 9532 993e 252a f83e ec4a afbc
00000270: 4d06 63bd 3a35 26bd 7b53 d1bb 6757 553e
00000280: a101 a33c fcbc de3c b831 2f3e 728d 22bd
00000290: 9ca1 1abe 8bf6 26be e9a5 0f3e 1dcd adbd
000002a0: 4bf9 513e f94c edbd ef9b 8fbb 1028 f53d
000002b0: e93e 173e f548 dabb f1d9 c03d 42f0 f3be
000002c0: fa47 d73e 43ed 64be f864 823d bfd8 48bd
000002d0: 0320 343d 78df 4dbd c483 f1bb 0497 b1bc
000002e0: 0584 c93d 9af0 92ba 6e4c debc 7782 c4bd
000002f0: f217 99be 1365 7dbd babc bcbe a792 4c3e
00000300: 6ab1 81bc 19fb 363e ac1f 6e3e d23d f53e
00000310: 3cdf 413c 6b12 843d e9d9 cf3e 4a4e 2b3e
00000320: 162f 093f e1b3 55bd 2cd8 5dbe 1090 913b
00000330: 1dfd c3bd 6e99 343e 56e6 f33d cc3c f3bd
00000340: 2298 083e ac6f 4c3e 3fa4 043f 6037 b73d
00000350: 5c9c f93b 5ca2 02bd db53 103d 3e01 bd3d
00000360: 932b 5ebd e74b 4bbd 5efa 893d e213 82bd
00000370: 801e bf3d a9f4 0cbd 23af 19bb 4db3 c8bc
00000380: 5e47 cc3e 4744 613e 9414 ce3d d370 933d
00000390: 6487 1e3e 1e18 7fbd e0de 99bd cebc 513c
000003a0: e5ab 723d 5a02 643d 4c9f 95bd 2aa7 c83d
000003b0: d108 c3bb e314 173e 2e37 75bd 1c49 d33c
000003c0: 643e 0f3e 6c0a ffbb 71d4 f23d 7252 29bd
000003d0: abf2 ddbc a0d4 69bb 4f49 aebb 63d5 31bd
000003e0: e0ae bbbc b6de ad3e e812 2240 f70b 38c0
000003f0: 2fdf 3fbc e344 163d da5b afbc 10bf a63c
0.20090213 -0.4606353 0.018117724 0.19149601 0.49893343 0.45511025 0.90193945 0.15011118
-0.07203743 0.015352666 0.006373665 -0.033765733 -0.15774165 0.005263074 -0.06313212 0.0050761597
-0.05703495 -0.21583027 -0.27528647 0.4456014 -0.3162129 -0.12263435 0.11430788 -0.18284507
0.36400086 -0.2301161 0.2237117 0.32162395 0.11741651 -0.54876786 -0.06361559 0.19984668
0.0029182225 0.09045285 -0.032716095 -0.11588882 -0.14446507 0.15780829 0.22127108 0.12775412
-0.025725529 0.0037878295 0.66187346 -0.3243408 -0.25254896 0.05914749 -0.006201914 -0.038767762
0.75034064 -0.15845196 -0.11265466 0.25171912 -0.14366436 0.077878304 0.027679104 0.023649793
0.41624975 -0.33343816 -0.0021015164 0.22484908 0.42531282 0.31416088 0.8654317 0.1574898
-0.06313916 0.036951963 -0.018929023 -0.10158662 -0.13792527 0.010279917 -0.02472249 -0.0053069433
0.04542004 -0.051675245 0.29924512 -0.24060269 0.21045983 -1.0595169 -0.56020105 0.69431245
0.8010518 -0.12764114 -0.11675227 0.07461185 0.11180244 -0.08782073 -0.037314095 0.038098745
0.030215383 -0.12169961 -0.035596687 -0.13475513 -0.26407316 -0.04472985 0.31340826 -0.076874115
0.01746684 0.09426795 0.048241246 0.17133439 -0.505816 0.055315156 -0.43901724 1.3393428
-0.07561643 0.13838686 0.14570938 0.07519111 -0.12862684 0.012644357 -0.05944578 -0.01780315
-0.037598338 0.19696073 0.14462617 0.12599042 0.099567354 -0.22418183 -0.013419599 0.069705084
-0.89610904 0.21744278 -0.86492205 -0.1146031 0.2550524 -0.16626683 -0.15541393 0.06981677
0.016939633 -0.27104923 0.18754424 -0.21850209 0.11009275 -1.1136489 -0.5853413 0.8204935
0.76938444 -0.013028579 -0.32115078 -0.036163855 0.05569737 0.08750568 -0.12615383 -0.017574094
0.0635304 -0.06394332 -0.17100418 -0.08591846 -0.21276563 0.26877022 0.02981794 0.028729148
0.23155425 0.29921404 0.48469654 -0.02139803 -0.05542593 -0.040578105 -0.0063881255 0.20834123
0.019898238 0.027189724 0.1710881 -0.039685674 -0.15100712 -0.16304986 0.14028133 -0.08486388
0.20505254 -0.11586947 -0.0043826024 0.11970532 0.14770092 -0.006661529 0.09416569 -0.4764424
0.420471 -0.22356133 0.063669145 -0.04903483 0.04397584 -0.050261945 -0.007370444 -0.021678455
0.09839634 -0.0011210621 -0.027136054 -0.09595197 -0.2990108 -0.06186397 -0.36862737 0.19977818
-0.015831668 0.17869224 0.2325427 0.47898728 0.011833008 0.064488254 0.4059594 0.16729084
0.5358747 -0.0521735 -0.21664494 0.0044422224 -0.09569762 0.17636654 0.119091675 -0.118768305
0.13339284 0.19964474 0.5181312 0.08946109 0.0076175164 -0.03189312 0.03523622 0.092287526
-0.054240774 -0.049632933 0.06737207 -0.063514486 0.09331989 -0.034413014 -0.0023450337 -0.02449956
0.398982 0.21998702 0.10062519 0.07199254 0.15481335 -0.06227886 -0.07513213 0.012801362
0.059245963 0.055666305 -0.07305774 0.09797509 -0.0059519787 0.14754061 -0.059867077 0.025791697
0.13988644 -0.007783225 0.11856926 -0.04133839 -0.027093252 -0.0035679713 -0.0053187977 -0.043416392
-0.022910535 0.33958977 2.532404 -2.8757303 -0.011710926 0.03668679 -0.021406103 0.020354778

a2c_network.actor_mlp.0.bias f4 [256]
00000000: f728 75bd 8942 f0bd 3855 58bf 03af c0be
00000010: a280 acbf e5fb 4ebf 3acd e6be 2119 d3be
00000020: f03d 053f ca6c 6bbe f591 19bf 1379 033e
00000030: b5cd 31bf 6e7c bcbb d872 2c3e 3bf9 dfbe
00000040: 391c aabf 8378 2dbf 498f 06bf 7a96 d1be
00000050: 8c2b 4bbf eb1c 5c3f 79a1 60be 6987 7ebb
00000060: 28eb 88be a5b1 18bf 9335 93bf cb01 10bf
00000070: f636 9dbd f5af eabe b90c 48bf 97c8 8abe
00000080: 828e 693e 7a16 3ebf 884c 933c 5c92 c9bf
00000090: c04c e1be 5386 f6be 7db7 47bf b6a4 64bf
000000a0: 222b aebe 69f7 cabe adb2 a2bf 5af0 44bd
000000b0: 8c90 b9be 923c b3bf 70e3 6cbe db49 d1be
000000c0: 76e0 38bf c516 9cbe 7b05 40bf 1187 d9be
000000d0: d9e1 9ebe 5718 85be b33a 69bf c45e 1ebf
000000e0: 254d 57be b81d 12bf 745d 91be fe5e 5ebf
000000f0: cf63 22bf 2b97 e3be f67d 94bf c66f 30bf
00000100: 0069 02bf 6472 3abf 17b2 94bf b99a 17bf
00000110: c03d 28bf 4c9d 153f 1508 44bf 9fb3 f2be
00000120: 7260 cfbf 0708 9cbf 5fea e5bd ca1e ddbf
00000130: 86c7 0ebf 72d9 05c0 3478 33bf f82d 073e
00000140: 7803 01bf 6dea 31bf 1689 903c cc84 d1be
00000150: c673 2bbf c28f cfbe 7d09 0dbe de95 12be
00000160: 7c06 2abf 610b 70bf 7b00 2abf c4ae 31bf
00000170: 28fb 86bf b06f e3be 9e62 93bd ef2e 7fbf
00000180: a617 cdbe 2e19 5a3c 3d3e 91bf 208f 87bd
00000190: 0804 40bf 0ebb 67bf 766b 73bf f38b a4be
000001a0: 5ed0 edbe dcfd 1fbf 8231 05bf 09d2 e3bd
000001b0: e46c 38bf c048 cfbe a475 85be 3125 7cbe
000001c0: d77f 74bf 7da5 83bf 7100 f0be abe4 0e3f
000001d0: ecd9 ad3e ce0e 4dbe 498b ebbe 4585 f83e
000001e0: 68d4 adbe eeb9 54bf 19c4 e5be 29fd 9ebe
000001f0: e5c1 29c0 466f 17bf bae4 eebe fa93 b4be
00000200: 8ca8 c2be 081e 4bbf e47f 99bf 672e 43bf
00000210: 99ab bb3d f1f7 23bf e71e 89bf f918 1fbf
00000220: a583 2cbf aaae 82bf acfd 12bf 57d5 63bf
00000230: d900 b63d c1f4 0cbe b9b4 8dbf 2af6 e5be
00000240: 29f5 3fbf aa62 b6be 9ae8 11bf b0ff 6ebf
00000250: 852f 78bf b4ad b43e 4e36 abbf 19d9 9fbe
00000260: a27b 8ebe a04c d7be 7707 0abf 5ff3 5ebf
00000270: fedd 96be d7e6 39bf f1ce 82be 167e 85bf
00000280: 3fd3 c13e 3435 8fbf 1545 c8be c810 65bf
00000290: 1be7 60bf 1b0b 26bf 80c4 afbe 2eac 78bf
000002a0: 8382 03bf 4c2f 20bf 244d b7be f9e5 a6be
000002b0: ea7e 37bd 279c 9fbf 6672 d5bd dbf5 2bbf
000002c0: ef4a 7ebf 6570 b1be ddbf 16bf ac39 98bf
000002d0: 3b6a cbbd e492 11bf 688a 87bf 3bf6 95bf
000002e0: a277 6cbf 659a 0cbf c0b2 b5bf 7951 0ebf
000002f0: 9101 9cbf e861 40bf 5064 5ebf 92c0 babe
00000300: cde4 bcbe 617c 2dbe 8f4f 93be 513b bbbe
00000310: 2045 57be 7947 e03e d19b bbbf efc1 64bf
00000320: 15b7 8fbf 286a 54bf ec24 64bf 957c 4bbf
00000330: e006 8ebf a5ee 1c3e c4b8 bebe 6540 1cbf
00000340: 80d5 eabb 6401 61bf 77db b2bd 4e1e 0abf
00000350: 10a1 c2be 84c2 2dbe 20f6 32bf 8f01 99be
00000360: 88fb 9cbe 8408 39bf 77f7 1d3f 33a9 1ebf
00000370: 4af4 d4be dbd6 2c3e 7652 93be 96ac 15bf
00000380: 7478 05c0 e922 83be 7d8d 5bbf 090c 9ebf
00000390: ce50 62bf 275a bbbe 5da9 25bf 337e 1fbe
000003a0: 7071 223d 99f7 e4be 7a1d 42be 3bf5 3abe
000003b0: a643 09bf d116 16bf 58b9 e5be d009 37bf
000003c0: 61d2 07be 7399 ad3c dc71 d2be 18e4 28bf
000003d0: 314e f7be 9d03 9ebf 7270 f2bc 6c7a 01be
000003e0: c0d3 043e a41f 3fbf 8725 c1be c6b7 67bf
000003f0: 1900 66be 5cd9 2abf 3898 f0be fd6c 04bf
-0.05985352 -0.117314406 -0.84505033 -0.37633523 -1.3476756 -0.8085311 -0.4507845 -0.4123011
0.52047634 -0.22990718 -0.5998834 0.12839155 -0.6945451 -0.005752138 0.16840684 -0.43744835
-1.3289863 -0.6776201 -0.52562386 -0.40935117 -0.7936332 0.85981625 -0.21936597 -0.0038838035
-0.2674191 -0.59646064 -1.1500725 -0.56252736 -0.076764986 -0.4583737 -0.78144413 -0.27106163
0.22808269 -0.74253047 0.017980829 -1.574779 -0.44003868 -0.48149356 -0.78014356 -0.8931383
-0.34017283 -0.39641884 -1.2710778 -0.04808078 -0.36243093 -1.400286 -0.23133636 -0.4087666
-0.722175 -0.30486122 -0.7500836 -0.4248586 -0.31031683 -0.25995132 -0.9110519 -0.6186335
-0.21025522 -0.570766 -0.28391612 -0.86863697 -0.63433546 -0.4445127 -1.160094 -0.6892055
-0.5094147 -0.72830796 -1.1616849 -0.59220463 -0.65719223 0.5844314 -0.7657483 -0.47402665
-1.6201308 -1.218995 -0.11226343 -1.7275021 -0.557732 -2.0913968 -0.7010529 0.1320113
-0.5039592 -0.6949833 0.017643493 -0.40921628 -0.6697353 -0.40539366 -0.1377315 -0.14314982
-0.66416144 -0.9376736 -0.66406983 -0.69407296 -1.0545397 -0.44421148 -0.07196544 -0.9968099
-0.40057105 0.013311667 -1.1347119 -0.06619096 -0.7500615 -0.905198 -0.9508585 -0.32138023
-0.46448034 -0.62496734 -0.5202867 -0.111240454 -0.72041154 -0.4048519 -0.26066315 -0.24623562
-0.9550757 -1.0284878 -0.46875337 0.5581767 0.33955324 -0.20025179 -0.46004704 0.48539177
-0.33951116 -0.83096206 -0.44876173 -0.3105252 -2.6524594 -0.59154165 -0.4665888 -0.35269147
-0.38019216 -0.793427 -1.1992154 -0.7624268 0.09163589 -0.64050204 -1.0712556 -0.6214748
-0.67388374 -1.0209553 -0.5741832 -0.88997406 0.088868804 -0.13765241 -1.1070777 -0.4491437
-0.7498346 -0.3562215 -0.56995547 -0.933589 -0.9694751 0.35288775 -1.3375947 -0.3122032
-0.278287 -0.42050648 -0.5391764 -0.87090105 -0.29466242 -0.7261786 -0.2554851 -1.0429103
0.3785648 -1.1188111 -0.39115205 -0.8947873 -0.8785264 -0.64860696 -0.34329605 -0.97137725
-0.5137102 -0.6257217 -0.3580104 -0.3259733 -0.04479877 -1.2469529 -0.104222104 -0.6717202
-0.9933309 -0.34656063 -0.5888651 -1.18926 -0.09932371 -0.5686476 -1.0589113 -1.1715769
-0.92370045 -0.5492309 -1.4195175 -0.5559307 -1.2187978 -0.75149393 -0.86871815 -0.36475044
-0.3689331 -0.16941978 -0.28771636 -0.36568692 -0.21022463 0.4380453 -1.4656926 -0.8935842
-1.1227747 -0.8297448 -0.8911884 -0.7948697 -1.1095848 0.1532541 -0.3725034 -0.6103576
-0.0071665645 -0.87892747 -0.08733266 -0.5395249 -0.38013506 -0.16968733 -0.69906807 -0.29884002
-0.30660653 -0.7227862 0.61705726 -0.6197693 -0.41592628 0.16878836 -0.2877385 -0.5846647
-2.0854769 -0.25612572 -0.8576277 -1.2347423 -0.8840455 -0.36592218 -0.6471155 -0.15575485
0.039658964 -0.44720152 -0.18956557 -0.1825761 -0.5361885 -0.58628565 -0.4486797 -0.7149935
-0.13263847 0.021191334 -0.41102493 -0.65973043 -0.48301843 -1.2344853 -0.029594634 -0.12644356
0.12971401 -0.74657655 -0.37723944 -0.9051479 -0.22460975 -0.66737914 -0.46991134 -0.517288

a2c_network.actor_mlp.2.weight f4 [128, 256]
00000000: 8dc4 adbe 84c0 17be 5512 70bc 795f abbd
00000010: b320 74be 0f3e db3d 8100 d0be 9bba 363e
00000020: 0e37 66bd e793 d3bd a97d ecbd 27cd a0bd
00000030: 0125 0dbd e6e1 473e eda7 283d 62b3 f9ba
00000040: c7c0 383e 310f 673c 6c3a 99bd fafb f7bc
00000050: c72c 21be ef71 88be 29c1 e6bd 0daf 8fbe
00000060: 0172 38be 8eaa ecbd 8659 783e f36c 02be
00000070: 623e 8dbe 812a a8bd c423 8d3e 2ee2 823d
00000080: eb73 0abf aa4a b53e 2ec6 99bd cae1 963e
00000090: e31a 66bb 5f37 873e 941d 91bd 221d 6c3e
000000a0: 83de 213e d9af 5c3e 1ba3 d43d 156e 4fbd
000000b0: ed6f 153e 1dfa 20bd 3d9f 3d3e a448 f3bd
000000c0: 64f1 f8bd 855e e63d fdf2 943d cba2 2a3e
000000d0: cc68 c5be 8a2b 803e b0b5 da3d 0c16 2b3e
000000e0: d959 fabc 1bc4 bb3d 2a30 883d 755d 823e
000000f0: aafd 123b 584c 4abe 04fe 34be a286 403d
00000100: 3e53 973d c8b9 0b3d 4bad 5e3e 7954 073e
00000110: 3fc6 9f3d c496 5f3d 6f58 69be 3051 47be
00000120: b70a 2b3f cc8f 1e3e 81c0 2e3d fc58 a33d
00000130: 40b9 d2bd 0339 293e 0db6 1dbd 0697 11be
00000140: 8ba4 2e3c c80b 6f3e 5c25 733d a73d 413e
00000150: 1c20 0bbe eb75 d03d f651 31be 3c1d e4bd
00000160: 50a5 583d a30d 15bd 08d7 3cbf 24ec f83e
00000170: c205 a63e 22de 203e 3adb d7bd b311 0b3f
00000180: 9629 f3bd f749 96bc 370d 39be c2d0 c73d
00000190: 195b 803e b739 d23c e82b bb3e 8624 da3c
000001a0: 2e73 1e3d 58e7 dd3d 8b8c 49be df55 9a3c
000001b0: fc08 0e3c e24e 10bf 0903 0cbd 7aee 17bf
000001c0: 5492 5a3e 92ab 083e 7132 dfbc 93da adbe
000001d0: 441b 0cbe 7e1f e43d 6854 b1bd 4b52 37be
000001e0: 4e02 a8bd 73f7 6fbd 3e26 cfbe 987c 34bd
000001f0: fb08 7c3e 3878 3bbe 450d 04bd f26c ca3e
00000200: b913 c1bd eb6a 553e 4ebd 473e a3bd 36bd
00000210: 82cb d53d 0d8a 7d3e 14fd 983b a0df 23be
00000220: 5971 0f3e 9830 5d3e 07ca ecbd b139 703d
00000230: 3160 a73e 0ea4 283c a327 72bd fa9f e2bc
00000240: 825e 063e 4dc7 18bc 3c10 83be 6d36 3bbd
00000250: c61f f73d 7838 03bd d1bd af3d dd86 db3d
00000260: 5d09 113f f594 453d e037 6fbe b835 5d3a
00000270: 7ac1 47be 62cb 603d 76f8 7f3e 3560 9a3d
00000280: bdca 20bd 57a5 5abc 437b 02be 600e 5ebd
00000290: e01e 023e 47bf 713e 8164 d5be 86e3 703e
000002a0: 34dd b2bd f1f2 2fbe 68ac 873e c4ff dcbd
000002b0: 33ff bbbe 0c8b b53e d91a 303e 30ee f13d
000002c0: 56fb 7cbd 59b3 603c b3e2 92bd 0971 483e
000002d0: 19a2 59be 57dd 4d3e 6774 b03d 72a0 7b3e
000002e0: 3533 c53e 4013 bb3c 3050 c03d 4cdc b3bd
000002f0: 0cde a43e 03f9 8fbe 59be 4a3e 6779 073e
00000300: 1d91 43bd 0b3c c0be 59db d5be 1a02 39be
00000310: ecc6 803e f8dc a1be e6bd 783e 2a82 613e
00000320: adf8 a23e 9931 f93d adf6 1dbd 3063 91bd
00000330: 5fb6 35bd e576 01be d1f3 c43d 996d 8bbd
00000340: 8015 2f3e 7675 c13d 89f7 253e bc89 053e
00000350: d725 493e b68a a1bd fb48 8fbd 9526 23be
00000360: 32f9 63be e937 35be 30c3 48be 8d3b 34bd
00000370: 790b de3d 0590 033e e8a2 9ebc 5183 ea3e
00000380: fc61 693e 2aa3 f0bd c161 f13d 8a4f cb3e
00000390: 833d dbbd 3fd5 483e 4ed5 79b9 944b 5b3d
000003a0: fb48 82bd 65b0 183e 2bfa db3d 40ce a3bd
000003b0: 814e e6bb 8af4 d33d 51df 953e 3bb3 53be
000003c0: fc87 fbbe 1d86 1e3e f243 54be c53b 343e
000003d0: 2fe2 6abe a68c 6b3e b76b c8bd 3e86 09bf
000003e0: 808c a6bd 8bf3 efbc 88c3 55be 9737 e13c
000003f0: 9910 393e 6721 a9bd c7df 223c 6f08 f03d
-0.3393902 -0.14819533 -0.014652808 -0.08367819 -0.23840599 0.10705196 -0.40625384 0.17844622
-0.056204848 -0.103309445 -0.11547405 -0.0785163 -0.034459118 0.19519767 0.04117577 -0.0019050653
0.18042289 0.014102743 -0.07481846 -0.030271519 -0.15739737 -0.26649424 -0.11267311 -0.2806324
-0.18012239 -0.11555968 0.242529 -0.12736873 -0.27586657 -0.08211232 0.2756635 0.063907966
-0.54083127 0.35408527 -0.07508503 0.29469138 -0.003511124 0.26409432 -0.0708572 0.23057988
0.15807538 0.21551456 0.103826724 -0.05064209 0.14593478 -0.039301027 0.18517776 -0.118790895
-0.121554166 0.11248497 0.07272909 0.16663663 -0.38556516 0.25033218 0.106791854 0.16707629
-0.03056042 0.091682635 0.066498116 0.25461927 0.0022429028 -0.19755685 -0.17675024 0.047003396
0.07388924 0.03411272 0.21745794 0.13215818 0.07801484 0.05458714 -0.22787641 -0.19464564
0.66813225 0.15484542 0.042664055 0.07975957 -0.1028924 0.16525654 -0.038503695 -0.14217767
0.010659347 0.23344338 0.0593618 0.18871175 -0.13586468 0.10178741 -0.17316422 -0.111383885
0.05289203 -0.036389958 -0.7376561 0.4861766 0.32426268 0.15709737 -0.10539861 0.5432388
-0.11873166 -0.018345816 -0.18071447 0.09756614 0.25069502 0.025662286 0.36556935 0.026628744
0.038684063 0.10835141 -0.19682519 0.018839775 0.008669134 -0.56370366 -0.034182582 -0.5934826
0.21344882 0.13346699 -0.027245732 -0.3395582 -0.13682276 0.11138819 -0.08658677 -0.17902486
-0.082035646 -0.058585595 -0.40458864 -0.044064134 0.24612801 -0.18307579 -0.032239217 0.39536244
-0.0942759 0.20841567 0.19505808 -0.044614445 0.10439207 0.24759693 0.004668841 -0.16003275
0.14008082 0.21600568 -0.11561971 0.05864877 0.32690576 0.01029302 -0.05911983 -0.027664173
0.1312199 -0.009324861 -0.25598323 -0.0457062 0.12066607 -0.032036275 0.085811265 0.107190825
0.5665491 0.04823776 -0.23361158 0.00084384857 -0.19507399 0.05488146 0.24997124 0.07537881
-0.039255846 -0.013345084 -0.12742333 -0.054212928 0.1270709 0.23608123 -0.4167824 0.23524293
-0.087335974 -0.17182519 0.26498723 -0.10790971 -0.3671814 0.35457647 0.17197742 0.11813009
-0.06176313 0.013714635 -0.07172146 0.1957437 -0.21253242 0.20103966 0.08615952 0.24572924
0.3851563 0.022836328 0.093902946 -0.08782253 0.32200658 -0.28119668 0.19799174 0.13229905
-0.047745813 -0.3754581 -0.4176891 -0.18067208 0.25151765 -0.31613898 0.2429119 0.2202231
0.3183035 0.12167663 -0.038565326 -0.07098997 -0.044363376 -0.12643011 0.09616817 -0.068080135
0.17098045 0.09446232 0.16207708 0.13040823 0.19643341 -0.07887785 -0.06996342 -0.15932687
-0.22263029 -0.1769711 -0.19605708 -0.044002105 0.10842032 0.12847908 -0.01936479 0.4580331
0.22791284 -0.11749871 0.11786223 0.3970912 -0.10705092 0.19612597 -0.00023825953 0.053538874
-0.06361576 0.14911039 0.10741075 -0.079983234 -0.0070284014 0.103493765 0.2927194 -0.2067384
-0.49127185 0.15480848 -0.20729044 0.17600925 -0.22937845 0.23002872 -0.0978617 -0.5372046
-0.08132267 -0.029290935 -0.2087537 0.027492328 0.18072738 -0.08258324 0.009941048 0.117203586

a2c_network.actor_mlp.2.bias f4 [128]
00000000: c4a4 c6be 0f03 20bf 966b b4be 9d32 07bf
00000010: cda3 aebe f30c 00bf c488 543d 2e7f 2fbf
00000020: e151 12bf 0921 edbe 9861 ffbe f36b 29be
00000030: da75 15bf 805c d5be 0965 33bf fac2 b6be
00000040: bf37 e5be b87c 9bbe 4467 2cbf 289e b9be
00000050: 1946 a0be df71 c3be 8c29 76be c0b8 1fbf
00000060: cfa2 c9be b510 36be f9db 9abe ea93 25bf
00000070: c7f1 3fbf 5297 99be 78ea 8fbf d36e 24bf
00000080: 6ed8 abbe 1203 4dbf 8850 a8be 9e55 06bf
00000090: 16db c0be 70f1 1ebf 2821 afbe 31b7 b9be
000000a0: f950 73bf 0da5 aabe 1cdf 78be bb12 8cbd
000000b0: 31c5 1fbf 8ac2 2dbf 1dc7 22bf d03b 1fbf
000000c0: 000f 1cbf 7427 16bf d680 26bf 8f63 cebe
000000d0: 8e3a 62be 2a44 0dbf 4a33 e1be 462e 92be
000000e0: 0674 94be c746 46bf 2179 c7be aba0 84be
000000f0: 6fc1 bbbe ce6b bfbe 39fc 64be 3d08 f4bd
00000100: b8f6 65bf 9315 93be 4ae9 cfbe a8d5 80be
00000110: 7cba cabe 3bb9 9fbe af31 94be 8738 f8be
00000120: 0004 babe feaf abbe 75f5 8cbe ea5b a5be
00000130: eacb 86be d761 ebbe c816 9fbe bf9f 57be
00000140: 19c4 9dbe 007b 8fbe 631f 1abf 8359 0bbf
00000150: cf85 8fbe cf21 d9be 65e3 ccbe fa51 06bf
00000160: 5b3e 45bf b025 03bf 432a 23bf 5748 993d
00000170: 8cc7 4abe 4820 21be c093 efbd 5418 07bf
00000180: 8a22 19bf e981 1cbf ee55 d8be 95e8 49be
00000190: 5103 f9be d423 d2be 2a16 bfbe 3762 76be
000001a0: 692a eabe 022a dfbe e72a 05bf 4d5c 09bf
000001b0: 9d28 1abf fa12 8dbe 418e 13bf 0367 02bd
000001c0: 3b83 abbe 4e75 aabe f503 88be 0d1b 3abf
000001d0: cade 1ebf a33b 78be 79e4 50bd 498d 09bf
000001e0: 0c7b ddbd e36c 87bd 499c 53be d570 4fbe
000001f0: 802b 7f3d b182 e0be 340e d3be cc13 37bf
-0.3879758 -0.6250467 -0.35238332 -0.52811605 -0.34109345 -0.5001976 0.051888242 -0.68553436
-0.5715619 -0.46314266 -0.49879146 -0.16545086 -0.5838295 -0.41672134 -0.7007604 -0.3569563
-0.44769093 -0.3036859 -0.6734507 -0.36253476 -0.3130348 -0.38172814 -0.24039286 -0.6239128
-0.39382026 -0.1777981 -0.3024595 -0.64678824 -0.749783 -0.2999826 -1.1243429 -0.64231604
-0.3356356 -0.8008281 -0.3287394 -0.5247439 -0.3766715 -0.62087154 -0.34204984 -0.36272576
-0.9504543 -0.3332905 -0.2430386 -0.0683951 -0.62410265 -0.6787497 -0.6358507 -0.6220064
-0.6096039 -0.5865395 -0.6504034 -0.40310332 -0.2209265 -0.55182135 -0.43984443 -0.2855093
-0.2899477 -0.7745175 -0.38959602 -0.2590383 -0.36671016 -0.37386936 -0.2236184 -0.11915634
-0.8982959 -0.28727397 -0.40607673 -0.25163007 -0.395954 -0.31196007 -0.28944156 -0.48480627
-0.36331177 -0.3353271 -0.2753102 -0.32296687 -0.2632745 -0.45973083 -0.31072068 -0.21057032
-0.30813673 -0.2802353 -0.6020414 -0.5443346 -0.28031775 -0.42408606 -0.40017238 -0.52468836
-0.7704827 -0.5122938 -0.6373636 0.07484501 -0.19802684 -0.1573497 -0.11698103 -0.52771497
-0.5981833 -0.6113573 -0.4225306 -0.19717629 -0.48635343 -0.4104296 -0.37321597 -0.24060903
-0.4573548 -0.43586737 -0.5201859 -0.53656465 -0.6021822 -0.2755354 -0.5763894 -0.03183652
-0.33498558 -0.3329262 -0.2656552 -0.72697526 -0.620587 -0.242415 -0.05099914 -0.5373121
-0.10814485 -0.06612565 -0.20665087 -0.20257886 0.062297344 -0.4384971 -0.41221774 -0.7151458

a2c_network.actor_mlp.4.weight f4 [64, 128]
00000000: 3876 f9bc c6c1 f7bd 3e82 843c d061 503e
00000010: 7909 80bc e815 313e 6b61 9cbd c038 bfbd
00000020: 1ac5 1b3e c031 2dbd 5837 21be 1e54 fe3d
00000030: 2766 bf3c cceb 05bc 4505 9fbd 349a bebc
00000040: af6a a73d 724d abbd ea4c a6bd b067 533c
00000050: fd72 c1be 027c d33c 7365 d2bc cb7e e83d
00000060: 38c8 27bc cf84 503e baed 9abd bdff 49bd
00000070: 5e1f 273d 0f2a 01be fd7a afbd 2346 70bd
00000080: 3729 acbd b18a 953c 874e 023f ebb7 a43b
00000090: 28cc 9d3d 9370 ad3d 39fc 00bc eb8f d93c
000000a0: 5000 2d3e 2fd7 c63c 1364 923d ce8d 07bd
000000b0: 2268 9f3d 52eb 6d3c 1a57 f73c 4e35 57bd
000000c0: 3996 81bd de43 81bc d73f 463e 8949 023e
000000d0: 6648 6bbd 053d 223e e562 bc3d 9d72 0c3e
000000e0: a60f b43d 87fd 75bd 0093 b33c a3ff 90be
000000f0: 7a1b 5dbe e3a7 963d 687d 623c d590 073e
00000100: d3ef b23d 3565 31bd 723f 2bbd 2ad4 f33d
00000110: 3a46 b23d b58d 91bc 4187 493d 9de9 cc3b
00000120: 266a 703d fe8e f03b 2cf9 943e 34b7 c93b
00000130: d9c7 8d3d 45c5 9fbd 57a0 5bbc 8b41 863e
00000140: 10ee 063d ce3f 4cbc 2a7d 5e3e 7224 113e
00000150: 5af1 303d 5931 1f3e d52c 5dbe 1a58 53bc
00000160: c4b0 1fbe c6bb cfbd 4c51 153e 6dbb 65bd
00000170: ee54 4b3d 9997 53bd 3e8a ebbd 1524 82bd
00000180: 170f 093e 62cd ccbd fea9 0abe 438e 693e
00000190: b617 81bc 428a d5bd ef5e 79bd 092d ab3d
000001a0: 61c9 68bd cab4 f63c fe65 ff3d 6188 43bd
000001b0: be3c 00be 4ce4 0abe 1afa 7dbe 7054 b1bd
000001c0: 1463 cfbd e6e2 f13c 7f94 103b 51fa af3d
000001d0: b893 a13d f136 573c 0394 04bd b5ca 95bd
000001e0: 275e 8ebd f3d3 ba3c 3dda 23bc aa53 e33d
000001f0: b125 cc3d 6777 393d a6ad 6a3b 6d43 a53d
00000200: 2bf5 9cbc e819 12bd 6683 ad3d d9a4 34bc
00000210: f29e e4bd 8cc9 a43c 0c2d 2dbb d1eb f6bc
00000220: b1a8 e73c a3e8 7cbc 6684 123d 8393 9fbc
00000230: 50fb b13d 9405 383c dbfb c53d 84fc 023c
00000240: 7839 7d3d 5ef8 a43d 6dfa d83b 2058 46bd
00000250: a220 ad3b 22db 2bbd 728b 8fbd b627 593c
00000260: 4e1f d93c 9fba b83c c0cd e83d dacf c33c
00000270: 6aa1 113e 0ca8 1b3a e984 19bd efe5 2a3d
00000280: d7e0 a63d d5b6 703d eb89 9dbd 46fd 21bd
00000290: a054 eb3d 02c3 35bd 2adf 3b3c d1d4 0fbe
000002a0: 40f2 adbc 21fa 5cbd 8a8c 89bd 8eaa e5bd
000002b0: dacc fd3a 24df eebc ef41 36bd b04e 6f3d
000002c0: a938 803d 0190 07be d8f2 c73d f137 05ba
000002d0: 8c3a 583d 8410 963c ae1b 623d dcf8 1d3e
000002e0: 16fc 263c c10f ebbd f409 193e 9ff8 40bd
000002f0: cb4c 2e3d ec9e 6b3c 437a 35bd 6a7a 43bd
00000300: dedf 4c3d be4b 943d 4557 35bc 07be 0fbd
00000310: 0220 e83d 0ef1 03be af7e e1bd a4fa 17bd
00000320: d82e 9abd 3831 38bd 9331 ca3b 8fb1 93bd
00000330: f6f7 85bd 6169 c4bb ab6e 9dbd e971 023d
00000340: a60f 81bd 4e25 3bbd 65ed bb3d e4e5 893c
00000350: 87fa 23be 41b0 4abd 903d a4bd 6246 83bd
00000360: bdcd 9abc 1e6e 3d3d 2953 bebb eff5 a1bd
00000370: 7e04 c4bd 3d27 fcbc 5643 a63b 52d4 c6bd
00000380: 4fe4 e33c 82af e1bc 1c27 11bd a035 783d
00000390: ed37 9fbd b4bf d8bd 7ff4 44bd 5cdd 313d
000003a0: de1a eebc 4330 b1bd 23da e93c 9eed 283d
000003b0: 2080 ecbd e6be aabd bbca b8bd df8a 6f3c
000003c0: 3704 07bd 65bc 7bbc 36fc 6f3d 3478 fc3d
000003d0: 8cbf 9bbc de9d e4bc 6a59 0dbe f2c8 cabc
000003e0: acbe 3f3d c2d1 9ebc ec48 66bd 33a2 9d3d
000003f0: 2aed 5ebd 8de1 f6bc 6a01 993b f244 ab3d
-0.030451879 -0.12097506 0.016175386 0.20349813 -0.015629517 0.17293513 -0.076357685 -0.09336996
0.15211907 -0.042283773 -0.15743768 0.12418388 0.02336414 -0.008173894 -0.07764677 -0.02326689
0.08174645 -0.08364381 -0.08120139 0.012903139 -0.37783042 0.025815967 -0.02568314 0.11352309
-0.010240607 0.20363162 -0.07564874 -0.049316157 0.0408014 -0.126137 -0.0856838 -0.058660638
-0.084062986 0.01825461 0.50901073 0.0050268075 0.07704955 0.084687375 -0.007872635 0.026557883
0.1689465 0.02427253 0.07147994 -0.03309422 0.07783534 0.014521437 0.0301929 -0.05254107
-0.06327481 -0.015779432 0.1936029 0.12723364 -0.05744209 0.1584359 0.0919855 0.13715596
0.08792047 -0.060056236 0.021920681 -0.28320035 -0.21592513 0.073562406 0.0138238445 0.13238843
0.08737149 -0.04330941 -0.041808553 0.119057015 0.08704801 -0.017767766 0.049201254 0.006253435
0.05869498 0.0073412647 0.29096353 0.0061558727 0.069228835 -0.07801298 -0.013404927 0.2622188
0.032941878 -0.012466384 0.21727434 0.14174059 0.04319892 0.15546168 -0.21599133 -0.012899423
-0.15594774 -0.10143237 0.14581794 -0.056086946 0.049641542 -0.051658247 -0.11500977 -0.06354538
0.13384663 -0.10000111 -0.1354141 0.22808175 -0.015758377 -0.10426761 -0.06088155 0.08358199
-0.056832675 0.030115504 0.12470625 -0.047737483 -0.12523171 -0.13563651 -0.24802437 -0.08658683
-0.101263195 0.029527139 0.0022061167 0.08592666 0.07889503 0.013135658 -0.032367717 -0.07314054
-0.06951552 0.022806143 -0.0100007625 0.11099942 0.099681266 0.045279887 0.003580907 0.08069501
-0.019159874 -0.035669237 0.08472328 -0.011025631 -0.11163129 0.020115636 -0.0026424555 -0.030141743
0.02827868 -0.015436324 0.035770796 -0.019479519 0.08690512 0.011231799 0.09667178 0.007994775
0.061822385 0.08055185 0.00662165 -0.048423886 0.005283431 -0.04195703 -0.07009019 0.013254097
0.026504185 0.022549925 0.11367369 0.023902822 0.14221731 0.00059378217 -0.03748027 0.041723188
0.081483535 0.058768112 -0.076923214 -0.03954818 0.1149075 -0.044375427 0.011466781 -0.14046027
-0.021233678 -0.05394948 -0.06716259 -0.11214171 0.0019363419 -0.029159136 -0.044496473 0.05842465
0.06260807 -0.13238527 0.09763116 -0.0005081883 0.05279021 0.018318422 0.05520218 0.15426964
0.010191938 -0.11477614 0.14945203 -0.047112104 0.042553704 0.014381152 -0.04430605 -0.047724165
0.050018184 0.07241009 -0.01106817 -0.035093334 0.1133423 -0.12884924 -0.11010491 -0.037104264
-0.07528466 -0.044968814 0.0061704605 -0.07211601 -0.065414354 -0.0059940075 -0.07687124 0.031846914
-0.06301813 -0.045689873 0.09176139 0.016833253 -0.16013537 -0.049484495 -0.080195546 -0.06409909
-0.018896932 0.046247594 -0.0058082533 -0.07908236 -0.09571169 -0.030780429 0.005073945 -0.09708466
0.027818827 -0.027549509 -0.03543769 0.060598016 -0.07774339 -0.105834395 -0.048084732 0.043423995
-0.029065546 -0.08651783 0.028546399 0.041242234 -0.115478754 -0.08337192 -0.09023043 0.014620512
-0.032963004 -0.015364741 0.058590136 0.123276144 -0.019012235 -0.027907308 -0.1380364 -0.024754021
0.0468127 -0.01938713 -0.056221887 0.07696953 -0.054425396 -0.030136848 0.004669358 0.0836276

a2c_network.actor_mlp.4.bias f4 [64]
00000000: d3ef 79be e1fc 98bd 70db d9bc 0ed0 53be
00000010: 758c 6cbf bd49 18be a4a3 2fbe cd0e 7cbe
00000020: f3b0 20be 7280 24be b749 04be ffad 2bbe
00000030: ef1f 52be f8b7 823e 3313 3ebe bcb1 afbd
00000040: bc8f 2abe 70dd 3ebe ac31 17bd 2558 96bd
00000050: 48d3 1ebe d390 57be 8664 01be 43ad dcbe
00000060: 8009 babd a230 e7bd 647c de3c 304d 3bbe
00000070: f015 d9bd 86e0 26be f024 26be 290c 70bd
00000080: c227 3bbe dacb f9be b67c d5bc ca55 4fbe
00000090: 190b cbbd 56a9 cbbd aaa5 e9be 2e6d 53be
000000a0: 0447 b8be 1572 60be 7190 9bbd 2dc6 d6bc
000000b0: 0360 84be f650 87be d193 bbbe 9b90 ecbd
000000c0: dea4 5ebe 0156 aabd 6de2 45be 393c 22be
000000d0: e9c5 e3be 7716 3cbe 9277 13bf aeab c2bd
000000e0: 6a31 08be 6cae 4cbe f48d cbbd 3e89 ebbe
000000f0: 5aaa eebd 2099 b2bd ea4d 8bbd 741e d2bd
-0.24407892 -0.07470108 -0.026593894 -0.20684835 -0.9240182 -0.14871879 -0.17152268 -0.24615021
-0.15692501 -0.16064623 -0.12918745 -0.16765593 -0.20519994 0.25530982 -0.18562011 -0.08578822
-0.16656393 -0.18639159 -0.036912605 -0.07341031 -0.15510285 -0.2105134 -0.12636003 -0.43100938
-0.09083843 -0.11288573 0.027158923 -0.18291163 -0.10599887 -0.16296586 -0.16225028 -0.058605347
-0.18276885 -0.4878834 -0.026060443 -0.2024757 -0.09914226 -0.09944408 -0.45634204 -0.20647117
-0.3599168 -0.21918519 -0.075959094 -0.026217544 -0.258545 -0.26428956 -0.36636212 -0.11551019
-0.2174258 -0.08317185 -0.19324656 -0.15843286 -0.4448693 -0.18367945 -0.57604325 -0.095054016
-0.133001 -0.19988412 -0.09939185 -0.46003145 -0.11653586 -0.087206125 -0.0680197 -0.10259715

a2c_network.value.weight f4 [1, 64]
00000000: c594 2a3b bb68 ab3b ff27 a839 691d d93b
00000010: 480d 973a 1e1e 073c 6bc9 263b 7118 783a
00000020: bbfe e7b9 527a 3e3b 5fe1 09bb a9e3 b53b
00000030: 9781 983a 3606 c03d d95e 9fbb 4816 fd3a
00000040: 0713 823b 8bea 3abb 5b75 103b 9e2e 6aba
00000050: 735f 4fbb 0a3e 593b 667e d23a 03eb d23b
00000060: d78d 843a dc06 463b 66f0 8c3b e095 5f3a
00000070: 9419 fab8 5ce2 b23b bf1c 453b 61f0 2ebb
00000080: fbdd ee3a 6420 80bc 897e ccba ff4f 11bd
00000090: c866 a2ba 2b98 5d3a 602f 723e f227 1e3b
000000a0: 55e0 5b3b 9f3d 8f3b 8e64 fc3b d6d8 ed39
000000b0: f14d 133e f304 0bbb 325f 383a 0465 df3a
000000c0: 8741 093c 6134 a7ba d11f aeba 152b b33b
000000d0: ab8a debd 4cb6 893a 5132 543c 1dd3 27bb
000000e0: 81df c5ba 0720 38bb efa3 18ba 6902 bfbc
000000f0: 30e0 0a3b 8401 143a 1754 7f3b 0faa aeba
0.0026028615 0.0052309907 0.00032073256 0.0066258204 0.0011524344 0.008246927 0.0025449644 0.0009464091
-0.00044249542 0.0029064608 -0.0021038873 0.005550821 0.00116353 0.09376185 -0.0048636016 0.0019309008
0.0039695534 -0.0028521146 0.0022042606 -0.0008933338 -0.0031642586 0.003314855 0.0016059398 0.006436707
0.0010113072 0.003021649 0.0043011187 0.0008529108 -0.00011925693 0.005459113 0.0030076948 -0.002669357
0.0018224114 -0.015640445 -0.0015601675 -0.03547668 -0.001239025 0.0008453156 0.23650885 0.0024132696
0.003355046 0.0043713595 0.0077024167 0.00045365718 0.14385201 -0.0021212667 0.0007033228 0.0017043655
0.008377439 -0.0012756699 -0.0013284629 0.0054677823 -0.108662926 0.0010506599 0.0129514495 -0.002560801
-0.0015096517 -0.0028095262 -0.0005822768 -0.023316579 0.0021190755 0.0005645978 0.0038960034 -0.0013325828

a2c_network.mu.weight f4 [18, 64]
00000000: c4ae 8a3b f4e8 31bc f91e 1e3b 1bdb 9dbb
00000010: 7258 6bbc febc ab3a da11 4a3c 4f5a 7f3b
00000020: 1b26 50bb 5a41 213c 44d3 9c3b 01e2 4abb
00000030: a7e6 1abe 8bc1 053c f4d0 21bc a88c dc3b
00000040: 02b0 043c d466 e5ba 3ee3 823a 5f8d 95bb
00000050: fce7 6db9 516c e7bc 8b68 f3bb 4e23 0a3e
00000060: 89c3 a2bb 727f a8bb 003e 24bb 92b6 413c
00000070: 3906 f93a 5b5a 45bb 9206 a03b 61cb ebbb
00000080: 6251 193a 3de2 33bd 0600 edba 1777 1fbd
00000090: abc0 043a 04e5 f33a 5033 ef3b 2001 6b3a
000000a0: dd2a 11bd 6b8c f8bc 871a c83b 2435 afba
000000b0: eb58 de3c ca0f 74bc 16e4 e8bc ab52 0b3b
000000c0: 2cbd 2dbd 5a1e c7bb 13e8 2c3b 7d2f 36bc
000000d0: 5e93 873b b56b f23b d47c 1fbe fe5a 2dba
000000e0: 4a24 d7b9 1a0f b43a 6e20 013b 9fd1 06bc
000000f0: e4db 37bb 1b73 e5ba dfac 7fbb ea51 7abb
00000100: 0c76 013c 9261 91b8 bacc c4b7 7144 f83c
00000110: 2d1c b33a 5391 8b3a 2c57 80bb 68d9 6ebd
00000120: 0d0c c83b 2328 6abb 947d cabb 1ba8 29ba
00000130: ec1a 45bc 4e46 733c 9b21 b73c 66bc 4abb
00000140: 7ef5 65bc 4983 263b 3468 623a 1d8a 7639
00000150: 0d91 f03b e96f 1dbd 6536 933a 9afc 54bb
00000160: e94b 88bb 717c 28bc 62ba 47bb ef03 a2bc
00000170: 72a4 0f3a 3cf1 1b3b a7a5 9ebb 0005 b83b
00000180: 0114 37be abb6 483c da3e c23b 3ed5 373c
00000190: 51bb 893a 61da 083b 71c4 7b3b f4fc 02bb
000001a0: 427c 863c 796b 68bb 1bb0 193c 6daa 44ba
000001b0: f6e9 cdbc cf76 4b3e 2df0 003d 839d de3b
000001c0: 6b0a 9f3d cfa2 f9ba ecab 16bb 00f7 acbb
000001d0: 992c 1cbc 4964 293b 8d0b 09bd c5c5 3cba
000001e0: 02e1 be3a 2720 29bb d747 78ba 6733 ae3c
000001f0: 0e80 e6ba def8 89bb 5107 6ebb 8053 5e39
00000200: 4b71 0b3b 2576 4a3c 93cb c83a 05a0 993c
00000210: 9576 43bc 6289 87bb a70d ea3b 40a1 f8bc
00000220: 0393 54bc 3b79 b7bb c3e0 04bc 1305 203b
00000230: c209 c7bd 75f8 b2bb 3c7c c5bc 242e 303c
00000240: c79b e1bc 3fcd e63b b8f2 f8ba a748 adbb
00000250: ba2d 5c3b 903b 623d dcd5 2fbb a107 2d3e
00000260: aa57 cd3b 3c50 23bc 30d9 093b a517 9cbc
00000270: e1c3 553b 90f9 cfbb 633c 2e3a 04c2 13bc
00000280: 5fa0 03bd 7fbe febc e953 88bb f7f4 ecbb
00000290: c2a3 aabb d79b 8fba fc32 0bbd 5f44 113c
000002a0: 80f9 24bd f5aa 3cbd 9c6b 8b3b 09b6 2f3c
000002b0: f041 7d3c bebd 093d fe6d 1e3d cc84 cbbb
000002c0: a84f debb 661d a7ba c54c 933b 2dd1 06bc
000002d0: e42f ac3c 7f25 423c fe01 04be cea3 b7bb
000002e0: 64cf 06bb 248f 7d3b 8e38 8bba b783 543c
000002f0: bfb2 713c d713 30bc 8f4b 13bb 843c 113c
00000300: b30d 5fbc a79f be3b bcdc f639 1c04 55bd
00000310: 03da 8a3c 98d2 b739 7c4f 463a 8762 eb3d
00000320: 3428 dabb c909 b7ba 20b1 98b9 e563 a7ba
00000330: fa68 07bb 19de 13bd ae88 c13c 470c aebb
00000340: 9bd3 16bd 8f89 ff3a f7eb 50bb e197 eb3a
00000350: af12 09bc 6004 f13c 314e b13a 8e51 0b3d
00000360: 3584 ac3b a94d fc3b f564 b23b e851 93bd
00000370: a200 47bb f2e6 423b df95 a0ba 5c4e 94ba
00000380: d751 8bbb 7bba b13c 697e 1bbb 7229 06bc
00000390: d096 b2bb fd55 69bb 1b07 56bc dccb e2ba
000003a0: b889 323e cd86 a6bd c14c 8a3c c25d a13b
000003b0: 462a ba3c 361c b93d 0434 2abd 1ed3 90bb
000003c0: 2fd9 e0bd 0458 353b 9bcb 11bb e876 c03b
000003d0: e01f 2d3d 09d0 2dbc cb39 0fbc dcf5 3f3b
000003e0: afc5 1c3b baef ab39 059d 713b 2205 46bc
000003f0: e1cd 3b3a 5d64 a73b d82a aa3b 6aff 353b
0.0042322595 -0.010858763 0.0024127348 -0.004817379 -0.014364349 0.0013102589 0.012333358 0.003896374
-0.0031760994 0.009842241 0.004785927 -0.0030957463 -0.1512705 0.00816382 -0.009876478 0.0067306347
0.008098604 -0.0017501959 0.0009985936 -0.004563972 -0.00022688502 -0.028249891 -0.007428234 0.1349003
-0.0049671573 -0.005142146 -0.002506137 0.011823313 0.0018999047 -0.003011367 0.0048835957 -0.0071958755
0.0005848614 -0.04391693 -0.0018081672 -0.038931932 0.000506411 0.0018607681 0.007299818 0.0008964706
-0.03544127 -0.030340394 0.006106678 -0.0013367278 0.027142009 -0.0148963425 -0.028429072 0.002125899
-0.042416736 -0.0060766162 0.0026383444 -0.0111197205 0.0041374406 0.0073980936 -0.15574962 -0.0006612985
-0.00041035033 0.0013737411 0.0019703167 -0.0082286885 -0.002805465 -0.0017505618 -0.0039012951 -0.0038195797
0.00790168 -6.932313e-05 -2.3460354e-05 0.030306073 0.0013665013 0.0010648168 -0.0039166417 -0.058312804
0.006104952 -0.003572949 -0.006179521 -0.0006471888 -0.012030344 0.014848305 0.022354892 -0.0030935048
-0.014035581 0.0025407842 0.00086367433 0.0002351184 0.00734151 -0.038436804 0.0011231421 -0.0032499195
-0.00415944 -0.010283575 -0.0030476083 -0.019777266 0.00054795214 0.002379491 -0.0048415246 0.0056158304
-0.17878725 0.012250583 0.0059279026 0.0112202745 0.0010508095 0.0020882117 0.0038416649 -0.0019987198
0.016416673 -0.003546445 0.009380366 -0.0007502202 -0.025135975 0.1986954 0.03147905 0.006793679
0.07765659 -0.0019045713 -0.0022990657 -0.005278468 -0.009532117 0.0025847128 -0.03345828 -0.0007201101
0.0014562907 -0.0025806518 -0.0009471154 0.021264745 -0.0017585771 -0.0042105755 -0.003632028 0.00021202676
0.0021277245 0.012357269 0.0015319459 0.018753061 -0.011930128 -0.0041362504 0.007142741 -0.030350327
-0.012974503 -0.0055991686 -0.008110228 0.0024417087 -0.09718658 -0.0054617473 -0.024107091 0.010753188
-0.0275401 0.00704351 -0.0018993234 -0.005288202 0.003359659 0.055232584 -0.002683035 0.16897441
0.006266554 -0.00996786 0.0021033995 -0.019054243 0.0032617974 -0.006346889 0.00066465716 -0.009018425
-0.032135364 -0.031096695 -0.0041603935 -0.0072313505 -0.0052075097 -0.0010956478 -0.03398417 0.008866399
-0.040277004 -0.046061475 0.0042547714 0.010724553 0.015457615 0.033628218 0.038679115 -0.006210899
-0.006784398 -0.001274985 0.0044952356 -0.008228582 0.02101893 0.01184976 -0.12891385 -0.005604244
-0.0020570392 0.0038690055 -0.0010621713 0.012970856 0.014752089 -0.010746918 -0.0022475456 0.008864526
-0.013614106 0.005817372 0.00047085236 -0.052005872 0.01694966 0.00035061385 0.00075649447 0.11493402
-0.0066576246 -0.0013964708 -0.00029123668 -0.001277086 -0.0020661936 -0.03610048 0.023624744 -0.005311522
-0.036822896 0.0019495952 -0.0031878927 0.0017974341 -0.008366271 0.029421031 0.0013527331 0.034013323
0.0052647837 0.0076996875 0.005444164 -0.07193357 -0.0030365367 0.0029739705 -0.0012251696 -0.0011314857
-0.0042516994 0.021695366 -0.002372647 -0.008188592 -0.005450107 -0.0035604232 -0.0130632175 -0.0017303186
0.17435348 -0.0813118 0.016882302 0.004924507 0.022725236 0.09038584 -0.041553512 -0.0044196984
-0.109789245 0.002767087 -0.0022246602 0.0058735497 0.042266726 -0.0106086815 -0.008741806 0.002929083
0.002392154 0.00032794272 0.0036867273 -0.012086185 0.0007164162 0.0051084 0.0051930957 0.0027770647

a2c_network.mu.bias f4 [18]
00000000: 1dc9 9a3e 5b69 46bc 8b89 ddbd f0fb 473e
00000010: c8af 26be 3944 46be f924 013e 966d 20be
00000020: 736b 483e 3c20 783d 7846 cabd 80b5 563d
00000030: ed09 02be c27a 893d 7e0d 713e 3aab 833c
00000040: 2b79 823e 3695 1a3d
0.30231562 -0.01211008 -0.1081725 0.195297 -0.16277993 -0.19361962 0.1261176 -0.15666804
0.19572239 0.060577616 -0.09876722 0.052419186 -0.12699099 0.06712867 0.23540303 0.016072858
0.2548307 0.037739955

exp_avg f4 [18]
00000000: a39b 893b 633c 373c 165d ffbb bf77 6a3a
00000010: 8936 b9bb 5868 b339 f2c8 97bb f49e 813b
00000020: b7c6 feba fe67 733b 7bc4 81bb 9645 d8bb
00000030: aca3 17bc 6b9d ecbb d6f1 3d39 1c26 523b
00000040: dd14 a43a 98df 6abb
0.0041994615 0.011183831 -0.007793079 0.0008944235 -0.005652253 0.00034219283 -0.004632109 0.0039557163
-0.0019437884 0.0037140842 -0.00396019 -0.006600092 -0.009255331 -0.007220914 0.00018114535 0.0032066172
0.0012518425 -0.0035838839

exp_avg_sq f4 [18]
00000000: 426e 553a f938 453a 9a88 593a 4f59 5a3a
00000010: 7e0c 4a3a 9fbc 583a 602e 5a3a fe4d 4f3a
00000020: e870 573a b8f4 663a 45e3 5e3a 3a2c 753a
00000030: ff09 5b3a 349d 573a 95e7 543a f09a 5e3a
00000040: abe0 4f3a a219 463a
0.0008141735 0.0007523443 0.0008298248 0.0008329348 0.000770755 0.0008267853 0.00083229505 0.0007908045
0.00082184235 0.00088102696 0.0008502494 0.00093525986 0.00083556765 0.0008225024 0.00081216666 0.00084917154
0.00079299015 0.000755692
