exp_log/DualFrankaPPO_fullstage/DualFrankaPPO_0621_fullstage.pth (torch, 752816 bytes, 36 tensors)

value_mean_std.running_mean f8 [1]
000000 32 50 07 90 29 c7 af 40
       4067.5811769757647

value_mean_std.running_var f8 [1]
000000 8e df fc 6a f6 88 78 41
       25726822.686736636

value_mean_std.count f8 []
000000 00 00 00 02 00 52 ac 41
       237568001.0

running_mean_std.running_mean f8 [74]
000000 f4 2a 6a 06 38 5a cb 3f 41 08 71 08 d8 ca ad bf
       0.21369076073855064 -0.05818820097967193
000010 24 a1 d6 bb 66 45 c6 3f 72 93 68 df 53 f2 c9 3f
       0.1739929597072286 0.20270775230997234
000020 c3 18 43 3e 06 62 c7 bf 23 2f f7 ae 42 64 bc 3f
       -0.18267896690503535 0.11090485355014983
000030 f3 ac 5a a6 7a ee d8 3f 9f 63 8c ee 58 ad e6 bf
       0.3895556091835736 -0.7086605700634329
000040 60 b3 82 66 39 a5 e6 bf 57 6b 56 4e 11 05 cd bf
       -0.7076689722212954 -0.22671715092732356
000050 cb 82 bf 76 c8 23 c2 3f 3c 67 41 d1 18 c0 c4 bf
       0.14171701238867337 -0.1621123334651261
000060 f3 41 f8 3a 83 fd a8 bf a2 37 87 64 29 79 c9 3f
       -0.048809147785622196 0.19901006134608418
000070 7b ce 63 67 5d ab ed 3f 18 84 70 65 44 f8 b6 3f
       0.9271685618718516 0.08972575642157243
000080 fd 71 74 27 0e 61 cd 3f a7 9a 8d 73 ee 66 cd 3f
       0.22952439238078162 0.2297037185882875
000090 18 a1 73 86 5e 00 66 3f 60 80 f0 33 8a 80 6d bf
       0.0026857229419087296 -0.003601331641689895
0000a0 5b 35 3c e7 f3 5a 82 3f fd c6 68 f9 3c cc 77 bf
       0.008962541097867918 -0.005810011082347574
0000b0 8a db e8 69 13 e2 7b bf 63 4a 37 c4 77 aa 7f 3f
       -0.006807399592211003 0.0077309301736528694
0000c0 ff c9 98 3c 05 83 4f bf e9 46 f5 8b eb c0 2b bf
       -0.0009616637773375846 -0.00021174311948839807
0000d0 bc b6 b7 1a 0f bb 52 bf 5e e0 b8 a5 4d 97 8e 3f
       -0.0011432311538287906 0.014937025661410693
0000e0 cd 1c 4b 9c 79 6d 8b 3f df 5d f3 ba fd 68 8d bf
       0.013392400819965644 -0.014360410945683575
0000f0 e7 f4 65 3b 24 e0 36 bf 2e a6 3b 78 65 dd 67 3f
       -0.00034905323573026923 0.002913187201433207
000100 69 42 43 c7 44 a0 84 bf 95 3a 3a 7e 60 6f 7a 3f
       -0.010071313220039362 0.006453873563840991
000110 32 1e 4a 3c 21 9c 80 3f 3f 62 10 a3 58 da 6b bf
       0.008110294010534511 -0.0034000140372081595
000120 a0 ac 28 3b ec 95 7d bf 29 f7 8d 47 a6 52 34 bf
       -0.007223055627530034 -0.00031010207708691506
000130 b8 97 4a 84 f5 09 52 bf 21 17 ce c0 f7 4d 75 3f
       -0.0011010072350159227 0.005201308999749605
000140 df f3 41 7e 24 6c 86 bf bf b7 b0 b1 3e 0e 7f 3f
       -0.010948453047825822 0.007581944369162429
000150 5e 69 84 af 83 50 e7 bf 13 cf 63 b0 d6 84 ea 3f
       -0.7285784175940468 0.8287156529536069
000160 cf 78 70 da 7d ca 9f 3f f0 f0 63 13 76 88 b0 3f
       0.03104588170764871 0.06458223317526168
000170 20 58 0d e9 1b 50 d5 3f 4f 1e 27 ac 17 e3 d9 3f
       0.3330144668483417 0.40448562442586405
000180 58 67 2c 8a 9e ce e6 3f f3 e5 1f e9 27 38 e7 bf
       0.712722082014106 -0.7256049683775799
000190 b3 5a b7 5c 55 e0 e4 3f 78 b7 c5 ea 08 af a0 3f
       0.6523844538558791 0.03258540979264429
0001a0 66 e5 64 e0 3c bf b8 bf 44 1d 86 c9 8b fa e2 bf
       -0.09666805723545266 -0.5930842338574753
0001b0 a4 1c f8 4e 8e d7 b3 3f 77 47 9f 44 cb 5d e8 3f
       0.07750787189444225 0.7614494648243938
0001c0 74 2c 77 d6 e1 cf e3 3f 05 06 44 d4 4c 42 ba bf
       0.61912624252126 -0.10257415945309141
0001d0 c1 13 e9 e1 aa 21 e0 3f 99 4e e2 d1 ba 43 f4 bf
       0.5041098034204127 -1.2665355871767245
0001e0 85 7a 45 be d3 ef e0 bf 64 28 e2 37 c9 9c 00 40
       -0.5292757717359825 2.0765556684391857
0001f0 ed a0 e7 3a fd 0e f2 3f 92 56 de 92 d4 dd 77 3f
       1.128659467789528 0.00582678829768714
000200 85 01 cc 2c a0 f2 77 3f f9 0a e8 34 0f 05 e5 bf
       0.005846620257898731 -0.6568676026657548
000210 df bc fa 87 0f fa cf 3f 52 96 35 87 5e 0f de bf
       0.2498187459909564 -0.4696880646136822
000220 06 30 e2 71 14 4e fa bf 07 9b 4a c1 70 73 e2 3f
       -1.6440624664855945 0.5765918517325596
000230 5c 88 ac ad f4 eb 0c 40 99 91 64 54 39 a3 d0 3f
       3.6152127807882106 0.259962398924722
000240 2a 5b d1 a7 3f 2e 99 3f 6a cc d0 57 30 2f 99 3f
       0.024590487115655403 0.02459407363876346

running_mean_std.running_var f8 [74]
000000 5e 6a 56 98 7d 9a 98 3f c4 22 40 b8 b7 95 9f 3f
       0.02402683489126855 0.030844565029869
000010 9a 8e 31 bd 14 a6 a2 3f e3 61 f5 8b 18 eb b4 3f
       0.03642334756366701 0.08171227852779554
000020 42 ff 15 f8 1f 71 a8 3f 12 a3 e3 e3 4c ab b4 3f
       0.047738074335028205 0.08073883594228118
000030 6b fb 7e f3 b0 66 a2 3f f6 ae c3 17 d7 9a b9 3f
       0.03593972179759571 0.10001892404732957
000040 74 2e 38 90 2e 61 b9 3f 5f 48 3e b2 19 59 91 3f
       0.09913912793143159 0.01694145346079556
000050 e2 55 0e a6 6f 59 9c 3f 44 79 9d ed 21 31 98 3f
       0.027684921751264364 0.02362492573535603
000060 2c 8e 0b 4b 13 7b 9d 3f 29 ee 47 af bc 83 a0 3f
       0.02878980775393651 0.032255073925594076
000070 bb 10 8b 88 29 95 8f 3f a5 9b f8 76 38 cc 9f 3f
       0.015421223144024379 0.031052477132245255
000080 05 de e7 f7 79 05 7d 3f c2 af df ae 79 ae 7d 3f
       0.0070853008642113345 0.00724647076092916
000090 eb 75 70 16 2d 49 79 3f 71 dd a9 e7 c2 41 73 3f
       0.006173301814695868 0.004701386783032433
0000a0 7f a5 91 18 d4 4d 78 3f 48 ab 1f 59 dc 51 77 3f
       0.005933598041431564 0.005693302855415201
0000b0 c1 7f ee 93 99 c4 80 3f 1b 16 9e 6d e9 a8 84 3f
       0.008187484576239858 0.01008779874588144
0000c0 3a f9 2f 05 18 bc 7f 3f 17 44 03 6e a7 04 09 3f
       0.007747739628938094 4.7718390989389004e-05
0000d0 d8 46 cd ea b8 fa 08 3f 6f 00 94 b1 a9 01 77 3f
       4.7644394135416205e-05 0.005616820207478764
0000e0 2b c2 ea 0c 6f 7b 54 3f 96 56 df eb 78 f6 59 3f
       0.0012501320340271387 0.001584642493516785
0000f0 d2 92 26 5f cd e2 73 3f 34 3d 8d 28 24 8c 6e 3f
       0.0048549673396435945 0.0037289339274263703
000100 f9 10 d0 43 d5 2d 74 3f c5 b1 bd 48 3e 91 6f 3f
       0.004926522317877374 0.003853437088699093
000110 ce 16 a7 7a 1a 09 80 3f 3e 37 ac 70 c2 29 6d 3f
       0.007829863422453977 0.003559951558947199
000120 70 4f e7 ec a6 88 7f 3f 5b 88 83 d6 1d e4 f3 3e
       0.007698680927621257 1.8969612399007438e-05
000130 58 f4 bf 0d d9 fe fb 3e 7d 30 49 97 2a 31 71 3f
       2.669858882596953e-05 0.004197279330195977
000140 ec ca 1e 54 dd ff 49 3f c9 20 95 78 ca 64 5f 3f
       0.0007934408861188492 0.0019161202674969227
000150 d0 f2 fa c5 8b ce 97 3f db 5c 24 38 6f 63 83 3f
       0.023248847922092974 0.009466999913043164
000160 30 39 9a 20 77 44 8b 3f f2 50 9a 43 cc 09 a3 3f
       0.013314181024978028 0.03718412709454978
000170 c2 4b f4 5a 32 a3 ad 3f 23 8b 2b 8e e5 60 b5 3f
       0.057885717013185026 0.08350977631520755
000180 d4 8d a8 1a 7e d5 a1 3f c1 a6 12 1d 6e ef 98 3f
       0.03483194423122496 0.024350853466478698
000190 8b 11 95 bb 77 65 7e 3f 51 7e a9 2d 83 7f 86 3f
       0.007420985895184261 0.010985398131366926
0001a0 6a 1d 89 26 cf c4 8b 3f 2b 72 8f b1 f1 fa 8d 3f
       0.01355897747374853 0.014638794165812893
0001b0 29 de 4b 18 25 c4 8f 3f e0 4a 75 ae 68 42 83 3f
       0.015510835460630439 0.009404008697548816
0001c0 72 f3 5a 70 f6 d0 c9 3f 7f a4 14 7a 84 89 b8 3f
       0.2016895340547325 0.09584835033878568
0001d0 60 0d ee 25 69 91 d3 3f 3b 4c 78 c6 84 90 c7 3f
       0.30575016693201995 0.18409785929597597
0001e0 79 29 5d 14 8f a5 d9 3f 3d 9a d4 c2 4b 5c d2 3f
       0.4007299136034344 0.28688329721845546
0001f0 ce 45 83 70 e5 4e d3 3f b7 e7 13 a9 da fa 04 3f
       0.3016904448278098 4.0015981662435756e-05
000200 35 43 e8 d5 9e cb 04 3f 5c b5 6c ed 03 34 c2 3f
       3.966406324107942e-05 0.14221238224983324
000210 79 b3 e1 c4 0d 06 b6 3f ef 91 3e 41 69 62 c9 3f
       0.08602987343483716 0.19831577001345077
000220 0e 99 13 a5 e4 9a b0 3f 35 14 0b b8 22 54 d1 3f
       0.06486348180951415 0.2707602307603481
000230 70 cc e3 c7 1b 0e ac 3f bf 85 20 bc bb ae d0 3f
       0.054795139456381814 0.260664876668752
000240 be 82 db 1d 4f d8 c7 3e 89 4f 0c c1 c0 62 c8 3e
       2.84254041003936e-06 2.9070083730295594e-06

running_mean_std.count f8 []
000000 00 00 00 04 00 52 9c 41
       118784001.0

a2c_network.sigma f4 [18]
000000 61 d4 34 bf 0c 00 75 bf aa 46 32 bf ac 00 3f bf
       -0.70636564 -0.95703197 -0.69639075 -0.746104
000010 1d 3f e2 be ff eb f9 be a8 61 d7 be 2d 76 22 bc
       -0.44188777 -0.48812863 -0.42066693 -0.009915871
000020 76 d6 c0 3b a5 7c 78 bf 31 b2 be bf 38 4b 61 bf
       0.0058849407 -0.9706519 -1.489813 -0.880054
000030 36 93 d2 bf 45 be 57 bf 5d 80 4a bf 16 cd b5 be
       -1.6451175 -0.84274703 -0.79102117 -0.3550803
000040 9e 45 70 bc d0 44 0b 3d
       -0.0146650355 0.03400117

a2c_network.actor_mlp.0.weight f4 [256, 74]
000000 4a 18 d8 3d de 8e 85 3e bb c7 dd 3e fd 92 04 be
       0.10551508 0.26085562 0.43316445 -0.12946697
000010 b6 d8 87 bd 1f 26 2b be 70 40 1b bd bc 93 06 bd
       -0.06633131 -0.16713761 -0.03790325 -0.032855734
000020 a1 92 c3 3e 63 e2 d1 bd 3e 18 f1 3d 7b ad 53 3d
       0.38197806 -0.10248258 0.11772202 0.051679116
000030 db f1 16 be 19 01 a8 be b5 90 cd be 57 cb ac be
       -0.14740698 -0.32813337 -0.40149465 -0.33748886
000040 fa 60 ef 3e e3 2d 31 3f 96 f5 b4 3d 4a c0 50 3e
       0.46753675 0.6921064 0.08835904 0.20385852
000050 6a 8d 53 be 9d 58 52 bd cc 48 d0 bd d7 b0 a5 3c
       -0.20659414 -0.05135404 -0.10170135 0.020225925
000060 f3 64 0b bd c9 89 b6 be 3a 44 66 3e e9 9d 0e be
       -0.03403182 -0.35651997 0.22486964 -0.13927425
000070 5d ba 71 3f a1 57 65 bf d7 a1 1e 3e 98 c7 cc ba
       0.9442499 -0.89586836 0.15491425 -0.0015623448
000080 9e 66 45 3e 17 67 66 bd 6b be 31 3d 02 c6 83 3d
       0.19277427 -0.056250658 0.043394487 0.06434251
000090 0c c5 41 3e ed 85 78 3f 6f df 04 3d 93 16 27 bf
       0.18922824 0.97079355 0.032439645 -0.6526882
0000a0 f3 ec 36 3e 8e 96 9c be 4b 23 3b bf 66 d9 52 bf
       0.17863826 -0.30583614 -0.7310073 -0.82362974
0000b0 6e 63 71 be e4 07 77 3e 7f a0 1f 3f b1 45 1a be
       -0.23573086 0.24124104 0.6235427 -0.15065648
0000c0 3b 4f 57 3c 91 8a 90 3e 65 7c 6d bc b5 14 0a 3e
       0.013141449 0.28230718 -0.01449499 0.13484462
0000d0 2f cf 79 3f a4 9d 87 be 07 cc 38 3f ee cd e4 3e
       0.9758176 -0.26487458 0.7218632 0.44688362
0000e0 ea 43 a4 3e c2 b5 c6 3e ee 5c d3 3e 62 09 c5 bd
       0.32083064 0.38810545 0.41281837 -0.0962093
0000f0 d2 6e 0f be 27 dc 9d be 38 74 98 bd a9 22 91 bd
       -0.14007118 -0.30832025 -0.07444042 -0.07086689
000100 2e 66 b4 3e 30 cb a5 bd 2a 65 bd 3d de 80 84 bc
       0.35234207 -0.080953956 0.09247811 -0.01617473
000110 80 d0 02 be 4b 64 a5 be bd bd b9 be ae 8f b2 be
       -0.12774849 -0.3230308 -0.3627757 -0.34875244
000120 e7 a4 02 3f fe 39 50 3f 3e 76 79 be 66 bc c5 bd
       0.5103287 0.8133849 -0.24361512 -0.09655075
000130 95 38 ab bc d2 5d 54 bd 33 01 10 3f 7b 35 2c 3e
       -0.020901004 -0.051847287 0.5625183 0.16817276
000140 f8 b2 48 3d 80 2d 35 be 4c c9 98 bc dc 77 91 3e
       0.048998803 -0.17693138 -0.018650673 0.28411758
000150 be bc 66 be 5f cd 3f 3e b5 c3 84 3e b7 37 ff bd
       -0.22532937 0.18730687 0.25930563 -0.12461799
000160 fe 5e 3b 3e e1 64 82 3d be 83 64 3e 83 9c 95 bd
       0.18297955 0.063668974 0.2231588 -0.07305243
000170 0c 4d 29 bf 4c 0b 0e 3f 62 57 04 bf 33 89 f3 bd
       -0.6613319 0.5548599 -0.51695836 -0.11891403
000180 2c cf 04 3d bb 7c 04 3e b1 77 bb 39 fa 88 99 bd
       0.032424137 0.12938206 0.00035756596 -0.07496829
000190 75 91 24 3f 10 3f 18 3e d7 f4 22 3f de b6 f3 be
       0.6428445 0.14867806 0.63654846 -0.47600454
0001a0 45 f1 93 ba 39 ad c5 be 7f e0 bd 3d 37 01 87 3e
       -0.0011287114 -0.3860872 0.09271335 0.26368114
0001b0 ee 29 1c be 00 df 05 3c 7d 5c bd bd 53 48 df 3d
       -0.1525037 0.008170843 -0.09246156 0.109024666
0001c0 95 c4 d4 3e 10 16 d3 be 25 ea 8a 3d 84 ea 32 be
       0.4155623 -0.4122777 0.06782941 -0.17472273
0001d0 cb 38 86 3f 53 8b 2a be 44 57 5a 3e 26 69 7b 3e
       1.0486082 -0.1665471 0.21322352 0.2455183
0001e0 03 b1 8a be fa b6 23 bc 81 2e 0c 3f da 96 ec 3e
       -0.27088174 -0.0099923555 0.5475846 0.4620884
0001f0 37 ee b2 3e 4a 2a 61 bf f3 90 8f 3c 28 ce 03 bf
       0.34947369 -0.87955153 0.017525172 -0.51486444
000200 52 fb 3b 3e f8 1a c1 3d 69 e1 b5 be 4d a1 98 bd
       0.1835759 0.09428972 -0.35523537 -0.07452641
000210 a9 a1 f8 bd cb e5 d8 bd 60 90 09 3f d5 ba 96 3e
       -0.12140209 -0.105907045 0.53735924 0.29439417
000220 f5 4d 8d 3c 61 e6 1b bd ba 48 3b be 0a a0 31 3e
       0.017249087 -0.038061503 -0.18289462 0.17346206
000230 98 0b 90 be 5c b3 b9 3e 0d 93 2e 3e b7 8a 38 be
       -0.28133845 0.36269653 0.17048283 -0.18021666
000240 23 42 5d 3e 6f b9 f9 3d 1e 37 bb 3d e4 8e 08 3d
       0.2160726 0.12193572 0.09141372 0.033339396
000250 a2 52 88 bd 78 d7 c5 bc c0 1d ba 3c cb 17 72 be
       -0.06656386 -0.024150595 0.022719264 -0.23641889
000260 89 08 a7 3e 77 f4 16 3d 76 1e 86 be b9 5d c8 bd
       0.326237 0.036854234 -0.26195115 -0.09783501
000270 32 a2 e5 bd 32 b7 0b be 21 87 e0 3d e2 b3 6d 3d
       -0.11212577 -0.13644102 0.10963274 0.058032878
000280 ee 5c dd 3c a5 79 30 3e 5e d5 0e 3f a3 67 43 be
       0.027021851 0.17233904 0.5579432 -0.19082503
000290 e1 40 61 be 5c b7 86 3e ea e1 e1 bd 9f 66 04 3d
       -0.21997406 0.26311767 -0.11029418 0.03232443
0002a0 fc d1 d0 bd d9 d6 ad 3c a6 a4 21 bd 25 45 c4 3b
       -0.10196301 0.021220611 -0.03946366 0.005989688
0002b0 3e 6c 57 3d 97 70 e1 bc d9 21 c3 be a2 25 e6 3c
       0.052593462 -0.027519507 -0.3811176 0.028094117
0002c0 57 aa 41 bd a5 2f 0f 3f 76 41 d7 3e 90 2b 21 3d
       -0.04728159 0.55932075 0.4204213 0.039348185
0002d0 4f 93 40 3f c4 66 f7 be 30 ba b6 3e fa 97 80 be
       0.75224775 -0.4832059 0.35688925 -0.2511595
0002e0 f6 18 a1 3d ef d1 fc be 52 92 8c be 33 b1 91 bf
       0.07866089 -0.49378917 -0.27455384 -1.1382202
0002f0 dd 52 8b be a9 3f c5 be f6 8a a9 3c b5 1f e9 3e
       -0.27211657 -0.3852513 0.020696145 0.45532003
000300 b9 a1 ec bb 2a b6 b4 b8 7d 22 d6 bd 79 48 79 3e
       -0.0072214273 -8.6169995e-05 -0.10455797 0.24344052
000310 a5 76 31 3e a6 ee 0c be 1d a0 4a bf ae df ae bd
       0.17330416 -0.13762912 -0.79150563 -0.08538757
000320 f5 1e cd 3f 8b be 6d be 09 2d f4 be 97 b3 79 3e
       1.6025072 -0.23217218 -0.4769061 0.24384914
000330 ec 87 4e 3d da c4 ee bd 94 65 e5 3d 07 84 c4 be
       0.050422594 -0.1165864 0.11201015 -0.3838198
000340 33 81 69 3e 7c c2 80 bd 73 d7 69 be 02 2d a0 bc
       0.22803192 -0.06287095 -0.22836094 -0.019552711
000350 6a 8d 02 be 79 b4 02 be 02 c6 1a 3e f0 6d 6e bd
       -0.12749258 -0.12764157 0.15114596 -0.058210313
000360 e6 78 40 bd 96 df c3 3d 7e 72 e8 3e 37 bc 5c be
       -0.046990298 0.0956413 0.4539985 -0.21556173
000370 db a4 b1 bd 23 a6 9c 3e 87 07 a5 be 3d 38 ca bc
       -0.08674022 0.30595502 -0.32232305 -0.02468502
000380 c4 c4 fd be 93 5d a1 bd 2d ee 55 3e aa 43 f3 be
       -0.49564183 -0.07879176 0.20891638 -0.4751256
000390 e7 3e 01 bc 30 bf f0 3d 15 86 04 be 55 6d ae bd
       -0.007888532 0.11755216 -0.12941773 -0.08516947
0003a0 ec 43 bd be 91 18 50 be 2c 76 05 3e 54 47 ba bd
       -0.36965883 -0.20321871 0.1303336 -0.09095636
0003b0 cc 2e 5a 3e cf 3a 15 3f 82 c5 80 bf 77 65 af 3f
       0.21306914 0.5829286 -1.0060275 1.370284
0003c0 19 eb 24 bc 9e 7e c7 bd 02 5c 00 be 49 3d 5f 3b
       -0.010065817 -0.09740947 -0.12535098 0.0034063628
0003d0 00 49 1b be 83 7c 54 3b ca f1 df bd ff 5f 1d be
       -0.15164566 0.0032422848 -0.109347895 -0.15368651
0003e0 8a bd 88 bd 59 e2 a0 be 38 52 7f 3f a2 24 05 bf
       -0.06676777 -0.3142269 0.9973483 -0.5200902
0003f0 8a 2c 2a be f8 f5 b5 be ee 2c 85 bd b9 0d c5 3e
       -0.16618553 -0.35539222 -0.0650271 0.38487032

a2c_network.actor_mlp.0.bias f4 [256]
000000 6e bd a3 bf 33 c4 de bf 14 e3 f6 bf 79 70 1f bd
       -1.2792184 -1.7403625 -1.9288049 -0.03892562
000010 90 2d 62 bf 1d 93 13 3f 26 df ac bb 6a a9 d2 bf
       -0.8835077 0.5764635 -0.005275625 -1.6457951
000020 64 38 39 bf a9 13 e7 bf 53 26 a8 bf 4c 24 fd be
       -0.7235167 -1.8052875 -1.3136696 -0.49441755
000030 09 28 7e bf 6e 7e 5c bf 56 75 87 be ca 2e 89 bd
       -0.9927984 -0.86130416 -0.26456708 -0.066983774
000040 ec d1 47 bf ee 80 23 bf 8f 6c 87 be bf ea 9f be
       -0.7805469 -0.63868606 -0.2645001 -0.31233785
000050 75 e2 92 bf f2 74 2c bf 97 28 ae be b1 e3 2f bf
       -1.1475359 -0.67365944 -0.34015343 -0.68706805
000060 4d 34 5e be 56 dd 8c bf c0 31 02 c0 fe c6 d5 bf
       -0.21699639 -1.1005046 -2.0342865 -1.6701353
000070 7c 19 00 bf 44 77 ea be 67 b5 8b bf 7d e5 c1 be
       -0.50038886 -0.45794117 -1.0914735 -0.37870398
000080 dd 3c 9e be 3e 7d b7 be 44 25 99 bf 19 fd 68 bf
       -0.3090581 -0.3583774 -1.1964498 -0.91011196
000090 59 fa c6 be e5 dc 06 bf 2c a9 64 bf 94 75 b3 bf
       -0.38862875 -0.5268081 -0.89320636 -1.4020257
0000a0 94 8b 07 bf 58 9a 6f bf 60 97 d8 bf d6 09 4a bf
       -0.52947354 -0.93594885 -1.6921196 -0.7892126
0000b0 3b 5f 0c c0 98 6c 3b bf ae 91 63 be 14 d6 0e 3e
       -2.1933124 -0.73212576 -0.22223541 0.13948852
0000c0 6b 4e 73 bf c1 1d 92 bf ff a9 9b bf f6 23 dc be
       -0.9504153 -1.141533 -1.2161254 -0.42996186
0000d0 5f ef 5e 3e 7a 8e ec bf 56 3a 89 be 53 7b 02 bf
       0.21771 -1.848098 -0.2680232 -0.5096943
0000e0 1e 21 73 3e 1d 75 41 bf a8 aa ab 3e 6d 46 a1 be
       0.23743102 -0.75569326 0.33528638 -0.31499043
0000f0 92 ba b4 be 45 bf 52 bf 19 6c 18 c0 f0 89 0a bf
       -0.35298592 -0.82323104 -2.3815978 -0.54116726
000100 ae bb 56 bf 41 ce 02 bf f2 60 fe bf 73 55 22 bf
       -0.83880126 -0.5109597 -1.9873335 -0.63411635
000110 60 ab 9f be 77 32 c3 bd 95 ae c2 be 45 f3 d7 3d
       -0.31185436 -0.0953111 -0.3802382 0.10544447
000120 f9 d2 9e bf d6 53 d0 bf 40 b3 90 be 0f dc bb bf
       -1.2408134 -1.6275585 -0.28261757 -1.4676532
000130 50 07 36 bd 21 5b a8 bf 00 1b ca bf d9 7b 16 be
       -0.044440567 -1.315281 -1.578949 -0.14695682
000140 3e 39 59 bf cd e6 c5 bf d4 66 bd bf ef 55 b1 bf
       -0.8485297 -1.546106 -1.4797006 -1.385435
000150 2c d6 7f bf 51 ad cc bd 8b 41 1b 3e 19 3e de be
       -0.99936175 -0.09993995 0.15161721 -0.43406752
000160 9f 77 8c bf cf ea 89 3c d7 00 34 bf 68 a2 0b bf
       -1.0974005 0.016835598 -0.7031378 -0.5454469
000170 fd 3f 9c bf b3 da 83 be 6e a5 1c bf fe 73 90 bf
       -1.2207028 -0.25752792 -0.61189926 -1.1285398
000180 a1 54 9a bf 8b 6f 86 bf cf 47 c9 be 25 2e 4b bf
       -1.2057077 -1.050279 -0.39312598 -0.79367286
000190 a9 65 97 be 78 f9 b2 bf 2b ca 57 bf 7d 26 37 3f
       -0.29569748 -1.3982382 -0.8429286 0.71543103
0001a0 59 50 b5 bf 4f e2 68 bf db c5 f9 bf f0 73 60 bf
       -1.4165145 -0.9097032 -1.9513506 -0.87676907
0001b0 4a c7 bc bf e0 39 14 bf 41 7f cc bf bb 80 34 bf
       -1.4748318 -0.5790081 -1.5976335 -0.7050893
0001c0 cf 6f 3f bf 8a f4 a1 bf 72 73 df be 8f ac 49 3e
       -0.7477998 -1.2652752 -0.43642765 0.19694732
0001d0 a3 f9 5b bf a2 61 03 bf a0 2a 0f bf a3 5d 43 3d
       -0.8592779 -0.5132085 -0.55924416 0.04769672
0001e0 2e 41 a0 bf a0 6e 09 bf d4 14 94 bf c3 6a 0a bf
       -1.2519891 -0.53684425 -1.1568856 -0.54069155
0001f0 8e 7d 3a bf 22 fd 20 bf 57 dd 11 bd c3 6c 10 bf
       -0.7284783 -0.6288625 -0.035611477 -0.5641596
000200 2d 23 1f bf f4 b9 fd be 7b 26 ab bf d8 b4 f4 bf
       -0.6216305 -0.49555933 -1.3371118 -1.9117689
000210 a3 69 ca bf 3a e4 99 3c 19 0c b6 bf 7d 17 b5 bf
       -1.5813488 0.018785585 -1.4222442 -1.4147793
000220 04 f6 65 3e ea ae 9b bf d5 a6 cb bf c1 aa 2f bf
       0.22457129 -1.2162755 -1.5910288 -0.68619925
000230 49 e7 66 bf 92 c6 2f bf a2 1f 52 bf 79 86 68 bf
       -0.90196663 -0.6866237 -0.8207952 -0.9083019
000240 63 83 01 c0 46 5d 1c 3e 21 30 f0 bf 39 cf 9d bf
       -2.0236442 0.15269956 -1.8764688 -1.2328864
000250 3d 7d 13 bf 2e 5e 4c 3d 1c ee 97 bf 78 9f 19 bf
       -0.57612973 0.049894504 -1.186954 -0.60008955
000260 c0 72 8a bf 42 04 53 bf d2 5f 80 3e d8 dc be bd
       -1.0816269 -0.8242837 0.25073105 -0.09319466
000270 9a 7a b1 3e e2 eb 1c bf 05 e5 f7 bf 4c 0d 25 bf
       0.3466385 -0.6129743 -1.9366766 -0.64473414
000280 8c 33 9e bf 91 b4 2a bf 41 81 9a be a5 f0 0a 3e
       -1.2359481 -0.6668177 -0.30176738 0.13568361
000290 6e f4 98 bf c2 69 e1 3e 70 6e 44 bf 61 cd 2f bf
       -1.1949594 0.44026 -0.76731014 -0.6867276
0002a0 63 f5 8f be 77 5b 85 bf 49 b3 c2 3e d2 6b 8a bf
       -0.28116903 -1.0418538 0.3802741 -1.0814154
0002b0 d4 f2 96 bf aa b5 12 c0 c9 82 bd bf 8c 4d 83 bf
       -1.1792855 -2.292338 -1.4805537 -1.025804
0002c0 25 e7 60 bf 77 38 d5 bf ad d8 09 bf 82 ac 1b bf
       -0.878527 -1.6657857 -0.53846246 -0.608101
0002d0 d2 52 25 bf f3 99 ba bf c5 ae 75 3c 57 b6 b2 3d
       -0.645795 -1.4578232 0.014995282 0.08726185
0002e0 83 c8 90 bf dc fd 95 be aa 81 cc be f3 f8 ca bf
       -1.1311191 -0.29295242 -0.39942676 -1.5857223
0002f0 c2 77 80 bf 31 96 88 bf a1 d4 64 3b 03 67 a3 bf
       -1.0036547 -1.0670835 0.0034916776 -1.2765812
000300 77 29 90 bf 36 d0 8b be 8f 22 53 bf 0b bb 9b bf
       -1.1262654 -0.2730729 -0.8247461 -1.2166456
000310 63 e3 8d bb b3 86 3a bf ea be ce bf 43 13 59 bf
       -0.004330085 -0.72861785 -1.6152012 -0.84795016
000320 0f d0 ab bf 28 10 8d be 76 6f bd bf 02 52 7f bf
       -1.342287 -0.2755139 -1.479964 -0.9973451
000330 85 60 7a 3e 9b c1 0c be 19 4c cf bf 74 8f 2d bf
       0.24450882 -0.1374573 -1.6195098 -0.6779702
000340 30 8d 32 bf 28 6a 70 bf d4 e9 aa bf 36 06 a4 be
       -0.69746685 -0.9391198 -1.3352609 -0.3203599
000350 75 00 23 3f 90 f5 c3 be 20 22 83 be df fb 83 3e
       0.6367257 -0.38273287 -0.25611973 0.257781
000360 6e a6 58 be f1 a6 26 bf 12 8a d0 bf 3f d6 6c bf
       -0.21157238 -0.6509848 -1.6292136 -0.92514414
000370 e3 1a 46 bf 24 08 75 3f 42 ed 6c bf 93 9d 3f 3f
       -0.77384776 0.95715547 -0.92549527 0.74849814
000380 db c4 c5 be b4 9e 23 3e a7 a7 b6 bf b6 13 94 bf
       -0.3862675 0.15978509 -1.4269913 -1.1568515
000390 e8 c8 d9 bf 85 a7 06 3d 2b 1a cb be a9 b5 dc bf
       -1.7014437 0.032874603 -0.39668402 -1.7242938
0003a0 82 d3 89 bf 96 4e e6 bd 4a 98 69 bf 1c 96 fb be
       -1.0767672 -0.11245458 -0.91248 -0.49137962
0003b0 5a e7 ed 3e cd 32 63 bf ac d3 f2 3e b5 4e ce be
       0.4646557 -0.8874939 0.47427118 -0.40294424
0003c0 a7 5f 41 bf 62 4f ca bf 44 7c 5d bf f5 4e 57 bf
       -0.7553658 -1.5805476 -0.8651774 -0.84104854
0003d0 05 3c 5d bf d8 1e e4 bf 8f cd d2 be a6 b3 5b bf
       -0.8641971 -1.7821913 -0.41172454 -0.85820997
0003e0 38 2f ba bf 22 83 ba bf 64 2a fc 3e 0d 83 34 bf
       -1.454566 -1.4571269 0.4925109 -0.7051247
0003f0 57 dd 20 bd a6 f4 1a 3f 92 31 14 bf 65 01 c6 be
       -0.039273586 0.60529554 -0.5788814 -0.3867294

a2c_network.actor_mlp.2.weight f4 [128, 256]
000000 a0 76 43 be 77 b5 ce bd 5d d0 72 3e 7e 9c 47 3f
       -0.1908822 -0.100932054 0.23712297 0.77973163
000010 2a 17 ed be c1 4d 37 3e 04 03 ab be 90 9e 0e 3f
       -0.46306735 0.17900755 -0.33400738 0.557107
000020 0c 9c 5c be 3c ad 1a 3e 83 67 ae bd c1 8b a0 3e
       -0.21543902 0.15105146 -0.08515837 0.31356624
000030 3d c7 5a be 00 ff 6d bf fc 86 84 be e6 a2 51 be
       -0.21365066 -0.92967224 -0.25884235 -0.20472297
000040 4f b3 f6 3d 14 05 4e be 67 13 45 be f9 56 00 be
       0.12045919 -0.20119125 -0.19245683 -0.12533177
000050 1d 08 c1 bd 0a 1d 3d bf 77 69 ee be e1 98 32 3e
       -0.094253756 -0.73872435 -0.46564838 0.17441131
000060 f8 8f 41 bf f7 f2 a3 3e 0a 3d bc 3e f1 d0 03 3e
       -0.75610304 0.32021305 0.3676532 0.12872674
000070 c5 6c b6 be 1a 16 16 3e fe 1a 03 bc 05 c5 3f bd
       -0.3562986 0.14656869 -0.008002041 -0.04681875
000080 4e 8f 2c 3e f8 a0 60 3d d5 ec b4 bc c6 6b 85 bd
       0.16851541 0.05484101 -0.022085587 -0.06514697
000090 b3 3f 45 3d 1a 1b 20 3e 7b 53 53 bf ad a0 89 be
       0.04815645 0.15635338 -0.82549256 -0.26880398
0000a0 bb f4 15 be a0 72 37 3f 24 77 0b 3f 50 c2 31 bf
       -0.14644139 0.7165928 0.5447867 -0.6943712
0000b0 b4 6d 06 3e 32 f2 12 bd e8 63 eb 3d b7 4c d5 3e
       0.13127786 -0.035875507 0.11493665 0.4166009
0000c0 75 8b 11 3f 04 3a 25 be 52 4c d3 bd 85 b8 14 3e
       0.5685342 -0.16135412 -0.10317291 0.14523514
0000d0 4e 22 4d 3e 28 8b 34 3e 73 37 3f be 43 f6 66 3e
       0.20032617 0.17631209 -0.18673496 0.22554879
0000e0 c7 e4 7f 3d 86 e6 02 bf 85 63 d4 bc 58 63 0d 3e
       0.06247404 -0.51133 -0.02592636 0.13807428
0000f0 37 c4 99 bc e6 87 a1 3d de 18 24 3f b4 f1 66 3e
       -0.01877032 0.07887249 0.64100444 0.2255314
000100 15 f2 35 be 42 43 2f 3f c1 9a 0e 3f 9a 56 1e 3e
       -0.17768128 0.68462 0.55704886 0.15462723
000110 57 f4 04 bf 37 27 7e 3b ea c1 77 3e b4 2c f3 be
       -0.51935333 0.0038780698 0.24195066 -0.47495043
000120 71 3f 73 bf 41 d8 81 bd 5d cc a8 be a6 b5 6d bd
       -0.9501868 -0.06340075 -0.32968417 -0.05803456
000130 25 db 3d be 54 81 f1 bc 9c 70 a3 be a7 e5 1c 3e
       -0.18540628 -0.029480614 -0.31921852 0.1532198
000140 ff 50 31 bf 12 32 e1 3e 3e 09 41 3e cf 1a 2e 3f
       -0.69264215 0.43983513 0.18851182 0.68009657
000150 9d c6 62 bd 78 49 43 bc 26 25 6e be c6 14 0e bf
       -0.055365194 -0.011919372 -0.23256359 -0.5550045
000160 78 36 9e bd 5a 53 89 be 53 a6 4f be c6 69 a7 3c
       -0.07725233 -0.26821405 -0.20278291 0.020436179
000170 5f fe 64 bc 70 2f ab be 54 5a c5 3e 35 23 fd 3c
       -0.013976662 -0.3343463 0.38545477 0.030900577
000180 84 67 39 bf 58 58 00 bf 75 a8 1f bf db 88 12 bf
       -0.7242358 -0.501348 -0.6236642 -0.57240075
000190 af 13 68 3e d7 f7 46 bf 1b d2 ae 3d c3 77 46 be
       0.22663759 -0.77721924 0.08536168 -0.19381623
0001a0 d3 7c fc 3d 2c 85 da 3e ca 2d 62 bd b0 7b c2 3e
       0.12328496 0.42679727 -0.05521945 0.3798499
0001b0 98 f0 41 bf f0 fa bd 3d d4 69 9f be 20 d3 c2 be
       -0.7575774 0.09276378 -0.31135428 -0.380517
0001c0 eb 36 30 bd 80 f9 ab 3e 2e 1f 8d 3e 05 19 97 bf
       -0.043021124 0.3358879 0.2756285 -1.180451
0001d0 10 53 94 be 96 03 0e bf bf b8 1e bf 3f 91 e1 bd
       -0.28969622 -0.5547422 -0.6200065 -0.110140316
0001e0 2d b5 34 3e a9 ef 8c be e9 34 37 be ed e7 49 bf
       0.17647238 -0.27526596 -0.17891277 -0.78869516
0001f0 1f 37 1e 3e d6 0e d7 3c 57 90 f5 3e b6 b5 c2 bd
       0.15450715 0.026252192 0.47961685 -0.09507315
000200 f0 27 15 3e 5c 83 d8 3b 6a a5 cf be 79 08 6e 3c
       0.14566016 0.006607456 -0.40555888 0.014528387
000210 2b 6b 90 bd 3a c6 87 3d 2d 34 14 3e 4b c3 d5 3e
       -0.07051691 0.066296056 0.14473028 0.4175056
000220 04 75 8b 3e 21 d0 2f bd 81 a1 6c 3e 44 53 eb be
       0.27237713 -0.042923097 0.23108484 -0.45961964
000230 2f f5 44 3d a5 ae 0d bf c2 8e ce 3e 57 9f ac 3c
       0.048085388 -0.5534461 0.4034329 0.021072073
000240 c2 88 0e 3e 45 1e 0d 3c 08 16 0a 3e 3f 8b 0c bf
       0.13919356 0.008613174 0.13484967 -0.5489997
000250 62 b4 73 bf 08 8a 3f 3e 90 2f 9f be 8b 1c df bd
       -0.9519712 0.18704998 -0.31090975 -0.10894116
000260 e9 b0 bf 3e cd c7 be 3d 93 fe 9a bd 8b c2 c9 bd
       0.3743966 0.09315453 -0.075680874 -0.09851559
000270 0c aa ba 3d 15 f6 0b be c1 24 e4 bd 11 e9 bb 3e
       0.09114465 -0.13668092 -0.11139823 0.36701253
000280 dd f4 0f be 56 16 89 bd 93 e3 3f be 14 68 4a be
       -0.14058252 -0.06693713 -0.18739156 -0.19766265
000290 cd a4 7f 3e 0f a5 7a 3d 4e cb d1 bd b5 5e 1d 3d
       0.2496521 0.06119257 -0.102438554 0.038420398
0002a0 eb 35 90 3e 08 ca b8 3e c2 4e 1e be 36 ef 56 be
       0.28166136 0.36091638 -0.15459731 -0.20989689
0002b0 f0 39 16 be 11 34 1a bf b5 ce 7e 3e b8 34 20 3f
       -0.14670539 -0.602357 0.2488354 0.6258044
0002c0 40 9e cf 3d ca 70 a8 bd a3 34 da 3d 44 e0 b3 bd
       0.10137606 -0.08224638 0.10654571 -0.0878301
0002d0 81 4f 48 3e fb 14 15 be 14 64 8d 3e 6d d4 08 be
       0.19561578 -0.14558785 0.27615416 -0.13362284
0002e0 cd 8a 58 be f6 26 06 3e 18 d5 53 bf b7 db f0 be
       -0.21146698 0.131008 -0.8274703 -0.4704263
0002f0 e1 30 4b bf a3 a3 fd bd 4e cb bc 3e 56 55 a5 be
       -0.7937146 -0.12384727 0.3687386 -0.3229167
000300 f4 86 38 3e 5e 56 9a be 53 fd 75 be 3b 86 10 3e
       0.1802023 -0.30144018 -0.24022417 0.14113705
000310 c0 d6 22 bf a1 e8 92 3d 83 54 e4 3d b1 15 84 be
       -0.6360893 0.07173277 0.11148932 -0.257978
000320 5f 3c dd be 46 40 04 bf f7 9a 88 3e f6 11 3a be
       -0.43210122 -0.51660573 0.2668073 -0.18170914
000330 ad b3 0b 3f 08 c0 15 bf 02 bc 2f 3e c1 7d c2 bd
       0.5457104 -0.5849614 0.17161563 -0.09496642
000340 39 3d d4 3e 6d ab 1d be e8 5b 82 3e cd 67 09 3e
       0.4145296 -0.15397425 0.25460744 0.13418503
000350 df 27 09 be 12 84 65 bc cb d6 d8 3d b2 35 0b be
       -0.13394116 -0.014008539 0.105878435 -0.13594702
000360 0a da 89 be 0d 1a 2d bf b8 4f 43 3e b6 07 ce 3d
       -0.26924163 -0.67617875 0.19073379 0.100600645
000370 ac e8 68 3e fa 13 7e be 7d 12 9f be 30 69 d0 bd
       0.22745007 -0.24812308 -0.31068793 -0.10176313
000380 b3 6a 1e be 90 65 92 3e 85 c2 c5 be 93 5f f1 3d
       -0.1547039 0.2859311 -0.3862497 0.117858075
000390 e4 1e 28 bf 2b b7 39 bc 85 7b 03 3f 43 68 d6 3d
       -0.65672135 -0.011335175 0.5136035 0.10469105
0003a0 ea 37 b2 be c7 80 ec 3c c4 d3 88 3f d2 ce 0a 3f
       -0.34808284 0.02887 1.0689626 0.5422183
0003b0 f6 b4 e3 be f7 b2 eb be bd dc c7 3a bd 4e 7e be
       -0.44474 -0.46034977 0.001524828 -0.24834724
0003c0 23 76 9f bb cf f6 d9 bb 41 53 05 bf ee 69 53 be
       -0.004866378 -0.0066517363 -0.5208016 -0.20645878
0003d0 44 ad a3 3d bc 1d 75 bf ba 3c 79 3e 85 43 21 be
       0.07992032 -0.95748496 0.24339572 -0.15748413
0003e0 d8 18 1f 3e 5b 97 f8 3e c7 f6 76 bf 88 1b 3a be
       0.15536821 0.48552975 -0.964703 -0.18174565
0003f0 ee c9 08 3f 7f 48 82 be 1b c9 a4 be 02 43 94 be
       0.5343312 -0.25445935 -0.3218468 -0.28957373

a2c_network.actor_mlp.2.bias f4 [128]
000000 cd e6 c4 be 92 4b 5e bf c1 9f 57 bf f3 d0 fb bf
       -0.38457337 -0.8683406 -0.8422814 -1.9673141
000010 68 aa 7c bf e4 70 97 be 29 0d 68 bf e3 9f c7 be
       -0.9869752 -0.29578316 -0.9064508 -0.3898917
000020 f9 c9 f3 be c4 3a 7e be 5b 86 a4 be 95 ff 7a be
       -0.4761503 -0.24827105 -0.32133755 -0.2451156
000030 7b 8c 1a 3e a8 d7 f9 bd ab b0 7d bf 00 e2 19 bf
       0.15092652 -0.12199336 -0.990977 -0.60110474
000040 20 44 c6 be 74 78 e7 be 51 fa f7 be 84 68 8c bf
       -0.3872385 -0.45209086 -0.48433164 -1.0969396
000050 44 43 46 bf 19 b7 9e bf 2a ce 3f bf 4b 07 9c bf
       -0.7744639 -1.2399627 -0.74923956 -1.2189726
000060 82 a7 37 bf 8a 42 02 bf 65 36 41 bf 37 50 2b bf
       -0.7173997 -0.5088278 -0.75473624 -0.66919273
000070 bd 23 a6 be 3b fb 21 bf d3 59 30 bf 2f fe bd bf
       -0.3244914 -0.6327397 -0.6888706 -1.4843196
000080 c9 92 a9 be 46 3d 2c bf 3d e1 16 bf 61 5f 05 bf
       -0.331198 -0.67280996 -0.58937436 -0.5209866
000090 7d 9d ea be 3d e4 62 bf cb db a6 bd b1 9c 8d be
       -0.4582328 -0.88629514 -0.08147391 -0.2765861
0000a0 d2 ed 36 bf da 67 ad bf 66 72 61 be 17 9f 7c bf
       -0.71456635 -1.3547318 -0.22016296 -0.9868025
0000b0 ab bf 9a be 4b 60 83 be 9c 03 a0 bd 15 24 37 bf
       -0.30224356 -0.25659403 -0.078131884 -0.7153943
0000c0 7a 7c 6d bf ae 35 1e bf 56 c9 1f be 80 48 32 bf
       -0.9276806 -0.6180066 -0.15604147 -0.69641876
0000d0 28 17 82 bf 1d aa 85 be 2b 66 1a be 23 e7 05 bf
       -1.0163317 -0.2610635 -0.15078036 -0.5230581
0000e0 a0 40 38 bf 1f ac 47 bf 49 63 da be 65 0e 41 bf
       -0.7197361 -0.7799701 -0.42653874 -0.7541259
0000f0 e8 61 41 bf f5 00 04 bf c8 93 92 bf 02 c3 d9 bd
       -0.7554002 -0.5156396 -1.1451349 -0.10632898
000100 78 35 be be 5b 55 96 bf e6 bf 45 bf eb 5a 46 be
       -0.37150168 -1.1744798 -0.7724594 -0.1937062
000110 fd 5c 17 bf bc c8 35 bf f4 10 1f bd 6e 23 2d bf
       -0.59126264 -0.7100942 -0.038834527 -0.67632186
000120 2f 63 07 bf 7a 86 52 bf 9e 5f 16 bf 5e 6e 4c bf
       -0.5288572 -0.82236445 -0.5873965 -0.79855907
000130 c6 10 d9 be 7f 81 d3 be c6 e7 2c bf 4e 28 34 be
       -0.4239561 -0.41309735 -0.6754116 -0.175935
000140 22 20 f3 be a4 93 49 bf f2 53 55 bf 03 f9 46 bf
       -0.47485453 -0.78740907 -0.83331215 -0.7772371
000150 97 9d 35 bd 77 11 f7 be 31 fc 16 bf 8c 4d 10 bf
       -0.044339743 -0.48255512 -0.58978564 -0.5636833
000160 8e ae 6b bf eb 44 7c bd 6a f1 1b bf 08 3b 98 be
       -0.92063224 -0.061589163 -0.60915244 -0.29732537
000170 47 e6 fe be f3 00 db be 04 b6 f5 3a 61 7a ba bf
       -0.49785063 -0.42774162 0.0018746261 -1.4568597
000180 5c fc f3 bf c0 ff 27 bf 12 fc d7 bf 77 1b ab be
       -1.9061389 -0.6562462 -1.6873801 -0.33419392
000190 db af 2f bf 49 40 f2 be ad ff 5f bf 2b a6 23 bf
       -0.6862771 -0.4731467 -0.87499505 -0.6392543
0001a0 9a 28 e8 be 98 cc 95 be 31 a7 69 bf df 78 75 bf
       -0.45343477 -0.29257655 -0.9127074 -0.9588756
0001b0 ba f7 fb be 6f 20 31 bf 6d cb 0f bf d8 76 7f 3e
       -0.49212438 -0.69190115 -0.5616978 0.24947679
0001c0 65 a1 43 bf d5 34 29 bf de d6 b7 be 40 90 53 bf
       -0.76418144 -0.6609624 -0.35906118 -0.82641983
0001d0 73 fc 62 bf ba 05 ad be 55 c6 d4 bf bf fd 16 bf
       -0.88666457 -0.33793432 -1.6623026 -0.58980936
0001e0 f6 3a 6a 3e 9a a8 46 3e 1b 32 1c bf 7f 84 0c bf
       0.22874054 0.19400254 -0.61013955 -0.54889673
0001f0 59 ad 7a 3e 57 ae dd be d3 5e ad bf eb 8a 6e bf
       0.2448019 -0.43297073 -1.3544563 -0.9318072

a2c_network.actor_mlp.4.weight f4 [64, 128]
000000 e3 b4 d1 bd a8 a0 4b 3c a0 b5 72 3d ec 23 e8 3d
       -0.102395795 0.01242844 0.059255242 0.113349766
000010 27 ab ba bd 6c cf bd 3d 67 0b a6 3d f9 47 88 bd
       -0.09114676 0.09268078 0.081076436 -0.06654353
000020 db 14 90 3d f7 69 ca 3d 37 2f 6d bc 7c 6e 95 b8
       0.07035228 0.098834924 -0.014476589 -7.125453e-05
000030 39 70 05 3e 51 b6 b7 bd 23 6e 0a 3d 6a d2 64 bd
       0.13031091 -0.08970321 0.03379644 -0.05586473
000040 ee fe 1e bc e8 ac 9e 3d cc e1 5d 3c 52 9a 90 3d
       -0.009704335 0.07747823 0.013542604 0.07060684
000050 b0 1e 24 bd 47 d9 80 3c 92 10 cd bd 2a 8a cb bc
       -0.04006833 0.015728606 -0.10012926 -0.024846155
000060 65 83 25 bd d3 b1 27 3c 48 a3 9a 3d b4 19 8b 3b
       -0.04040851 0.010235268 0.07550675 0.0042450074
000070 2b 81 5c be d9 8b b0 3e c8 d8 23 3a b6 8d 16 bb
       -0.21533649 0.34481695 0.00062502595 -0.002297265
000080 0c da 93 bc 89 63 84 bd bb e5 13 be 81 20 38 3d
       -0.018048309 -0.06464297 -0.14443104 0.044952873
000090 fc 73 54 bd 6b 07 ca 3c 1a 49 94 bd 97 be 71 bd
       -0.051868424 0.02466174 -0.072405055 -0.05901965
0000a0 9a 00 b6 3d f1 5f 6a bd 13 d7 2d bd dc 46 8b bc
       0.088868335 -0.057220403 -0.04244144 -0.017001562
0000b0 e5 f4 72 3d 05 97 02 3b 25 e2 5d bd fb 1d 21 bd
       0.05931558 0.001992644 -0.054170746 -0.039335232
0000c0 16 c9 04 3e 3d 74 0e 3e 71 0a 8e bd 77 d1 27 bb
       0.12967333 0.13911529 -0.06935585 -0.0025607029
0000d0 cb 82 65 bd b4 f3 8e 3d 39 8e 76 3e 18 33 55 3d
       -0.056032937 0.069800764 0.24077691 0.05205068
0000e0 a3 17 91 bb 9c 35 95 bd 9a d6 24 3b c7 21 9a be
       -0.0044278665 -0.07285616 0.0025152327 -0.30103895
0000f0 12 02 1c be 02 31 d7 3d 32 02 0a be 09 69 5b 3d
       -0.15235165 0.105073944 -0.134774 0.053566966
000100 91 f3 3b bd f4 81 75 bd 6e 06 02 3d b4 81 0d 3d
       -0.04588658 -0.059938386 0.031744413 0.034547523
000110 21 fc 7d be 31 d1 22 3d c2 24 af 3c e8 af 93 3c
       -0.24803211 0.03975028 0.021379832 0.018028215
000120 b0 5a 05 3e 00 d2 7c 3e d9 89 1a be bf 72 6c 3d
       0.13022876 0.24689484 -0.15091647 0.057726618
000130 6c f3 70 bd 9f 60 70 bd 73 8d f7 3c 71 c1 98 3e
       -0.058825895 -0.058685895 0.030218815 0.29835084
000140 a1 35 0d 3e 3f 8e 06 be 39 c0 00 3d 50 c7 a5 bd
       0.13789989 -0.131402 0.031433318 -0.080946565
000150 e3 d2 36 3e 21 94 40 3e a6 c8 fb bc 4e 29 82 bd
       0.17853884 0.18806507 -0.030735325 -0.063555345
000160 88 f0 33 3c 56 6c 9c 3b b9 f3 20 bd 9b eb 81 b9
       0.01098264 0.004773657 -0.039294932 -0.00024780337
000170 14 37 b1 bb e3 15 cf bc c0 f8 29 be 92 37 b5 bd
       -0.005408177 -0.025278991 -0.16598797 -0.0884849
000180 50 7e 96 bc 10 a2 b6 3d 7c d5 24 bd 4f 01 0e be
       -0.018370777 0.0891763 -0.040242657 -0.13867687
000190 ed ba 5b 3e d3 8a 4f be e1 72 db 3d 7a 18 07 be
       0.21458025 -0.20267801 0.10715271 -0.13192931
0001a0 f4 90 b4 be bc 65 2a bd ea 40 b5 3d 77 14 3d bb
       -0.3526684 -0.041600928 0.08850272 -0.002885131
0001b0 42 ad 9e 3d cd ba a0 b9 be 4d 02 be 8d d3 db 3d
       0.0774789 -0.00030656756 -0.12724969 0.107337095
0001c0 c5 90 63 3e 03 af fa bd 48 67 3f be 09 ac 56 3e
       0.22223194 -0.12240412 -0.18691742 0.20964064
0001d0 58 2f 63 3e 48 00 a8 be 6e 96 70 3c 5e 91 d4 bc
       0.22186029 -0.32812715 0.014684303 -0.025948223
0001e0 11 a8 4d be fd 3e 0f bd 97 c6 6c 3e 65 93 36 bd
       -0.20083643 -0.03497218 0.23122631 -0.04457416
0001f0 9e 3f a9 bd ee 88 d2 3b fe 3f 97 3d 5a 08 b9 bd
       -0.08264087 0.0064250147 0.073852524 -0.09034796
000200 da a4 b0 3d 02 e3 d6 bc 59 b2 7e 3e 0c 15 23 3e
       0.08625193 -0.026231293 0.24872722 0.15925997
000210 8b be 30 3d f7 0a a0 3d 80 fa e0 3d 6e df dc 3d
       0.043150466 0.078145914 0.10985279 0.10784803
000220 fa 45 cf 3d 42 e1 5d bd 25 55 b6 be 6d f6 86 3d
       0.10120769 -0.0541699 -0.35611835 0.06589971
000230 61 f9 45 bd 8d bc 3e bc a3 5e 33 3e f4 23 9d be
       -0.04833353 -0.011641634 0.1751657 -0.30691493
000240 05 25 a2 3c 16 e3 e3 ba 82 04 c1 3d 35 34 7b bd
       0.019793043 -0.0017386402 0.09424688 -0.061329085
000250 5b 64 fd bd 4f 05 38 be 78 1a 8f 3d 14 a4 dc be
       -0.12372657 -0.17970775 0.069874704 -0.43093932
000260 b2 a4 22 3c a4 a6 03 3e 39 8f 06 bd 34 da f7 ba
       0.009926962 0.12856537 -0.03285143 -0.0018909634
000270 84 78 9f 3d f1 a6 c1 bd c2 d4 10 bf a5 a3 80 bd
       0.077866584 -0.0945567 -0.5657464 -0.06281213
000280 dd 01 16 bd e5 fc ef bd ed 30 89 bc 13 30 07 bd
       -0.03662287 -0.11718158 -0.016746962 -0.03300483
000290 d9 18 72 bd ea 5c 91 3d 47 c6 7e bd f2 f7 87 bd
       -0.059105728 0.070978 -0.06220081 -0.06639089
0002a0 a2 17 be bc a9 f4 61 be 9f 44 a8 bd 66 ec 25 bd
       -0.023204628 -0.22065987 -0.082162134 -0.04050865
0002b0 db 9b d2 3d 54 3b b0 bd 02 42 99 3c bf 85 26 bd
       0.10283633 -0.08605066 0.018708233 -0.040654894
0002c0 02 dc 81 bc 1f 09 dc ba 0f 50 37 3c 1e df 3c be
       -0.015851978 -0.0016787386 0.011188521 -0.18444487
0002d0 bf 64 19 3d e1 30 c7 ba 72 bf ee bc 3b b7 5e bd
       0.037449595 -0.0015197062 -0.029144023 -0.05437396
0002e0 54 45 ff bc 49 7a 93 bd da 6b 45 3d 27 84 41 3e
       -0.031160988 -0.072010584 0.04819856 0.18898068
0002f0 6f 57 cd bb 9d 18 72 3e bf 57 c6 bd 0f 5c 91 bd
       -0.0062665264 0.23642202 -0.09684705 -0.07097637
000300 ba 69 f6 bd bb 36 82 3c 90 bd 15 be 57 14 bb 3d
       -0.120318845 0.015895238 -0.14623094 0.09134739
000310 5b ab 28 bd e4 2b b0 3d ee 04 15 3e 05 ce 03 be
       -0.041179042 0.086021215 0.14552662 -0.12871559
000320 52 0e aa bb 9d 22 52 bc 71 51 0b 3f 92 6e b5 bc
       -0.0051896954 -0.012825635 0.54421145 -0.02214745
000330 1c ae 7d bc 85 b6 5e bd cf e8 27 3d 3b 22 e7 3c
       -0.015483405 -0.054373283 0.040993508 0.028214565
000340 95 fe 27 3d bc 4a 68 be 63 17 77 3b d1 12 fd bd
       0.041014273 -0.22684759 0.0037703149 -0.123571046
000350 91 9b 0d be a0 42 95 3c 4c d7 35 3e be d4 1a 3e
       -0.13828875 0.018220246 0.1775791 0.15120217
000360 aa 07 6f 3d 75 49 63 bd 89 18 71 3d 26 64 fb bd
       0.05835692 -0.055489976 0.05886129 -0.12274961
000370 3b e0 50 be bf a0 22 be 20 27 f4 ba 3d 29 1b bc
       -0.20398037 -0.15881632 -0.0018627383 -0.009470281
000380 78 0a 03 3e d1 6f cf 3b 09 d7 35 3c 22 8d 6a 3d
       0.12796962 0.006330468 0.011098632 0.0572635
000390 de 3e d7 3d 3b 6a a2 bc f1 8d 86 3d 46 18 b4 3c
       0.10510038 -0.019826045 0.06570042 0.02198423
0003a0 e7 9a 8b bd 59 20 09 3e aa 08 7a bc 82 89 b3 3d
       -0.06816655 0.13391246 -0.015260855 0.08766462
0003b0 b8 0a e5 3b 46 f0 ef 3c 8e 48 94 bc 4b df d4 bd
       0.006989803 0.029289376 -0.018101003 -0.10394152
0003c0 fc 87 df bd 2a 04 36 bd ac 44 53 3d f0 24 38 3d
       -0.10914609 -0.044437565 0.051579162 0.0449571
0003d0 b7 a1 c2 3c b3 51 99 3c 8c 58 ea bd ff 37 7b bc
       0.023758752 0.018715715 -0.1144267 -0.015333175
0003e0 5c c6 55 be df 49 09 3d f8 e7 6c bd 26 ec fd bc
       -0.2087645 0.033517715 -0.05783841 -0.030996393
0003f0 5a 8c 91 bc b9 eb 44 3e 2a dd de bd 68 e9 1c 3d
       -0.01776712 0.19230546 -0.108820274 0.03830853

a2c_network.actor_mlp.4.bias f4 [64]
000000 78 ae 60 be 03 0a 42 be 98 e0 91 be 0c 18 b2 be
       -0.21941555 -0.18949132 -0.28491664 -0.3478397
000010 64 14 06 bf c7 11 4e be ac d8 89 be ff 25 04 bf
       -0.52374864 -0.20123969 -0.2692312 -0.5162048
000020 65 4b 5d be 4b d5 87 be a5 b4 01 bf 13 cb a0 be
       -0.21610792 -0.26529917 -0.50666267 -0.31404933
000030 81 45 8d be 46 6d 8a bb 78 86 e9 be 09 14 ba 3d
       -0.2759209 -0.004224452 -0.45610404 0.09085853
000040 4b b7 30 be 8e a4 9d be de e1 c4 bd be e9 f2 bd
       -0.1725742 -0.30789608 -0.09613393 -0.11860989
000050 b5 eb 9e be 8f 47 32 be 8f e2 92 be e5 19 2b be
       -0.31039205 -0.1741011 -0.28688475 -0.16709097
000060 b3 6f 8d be 99 be 19 be 0c 56 72 be ee 67 d5 be
       -0.27624282 -0.15014113 -0.23665637 -0.41680855
000070 23 18 7e be 56 3e 73 be e1 b5 39 be e3 27 13 be
       -0.24813895 -0.23754248 -0.18135788 -0.14370684
000080 ea 74 85 be f2 52 41 bf 15 a8 74 be 27 81 24 bf
       -0.2606576 -0.7551719 -0.23892243 -0.6425957
000090 a2 bd a5 be 06 5c 13 be da 78 c7 be 86 43 7a be
       -0.3237124 -0.14390573 -0.3895939 -0.2443982
0000a0 9b bb d3 be 2b 30 1c be aa 69 de bb 16 bc eb bd
       -0.4135407 -0.1525275 -0.0067874985 -0.11510484
0000b0 97 6c 81 be 82 2d 36 be 88 62 cd be 68 22 5d be
       -0.2527816 -0.17790797 -0.40114236 -0.21595156
0000c0 93 ec 9a be fd 8c 4a be 5f 25 11 bf 53 93 a0 be
       -0.30258617 -0.19780345 -0.5669765 -0.313624
0000d0 fe 35 22 bf 4e f3 a4 be 9f 93 9a be 04 33 86 be
       -0.63363636 -0.32216877 -0.3019075 -0.26210797
0000e0 58 f3 33 be 89 e0 d2 be 09 71 9d be 74 30 9b bf
       -0.17573297 -0.41186932 -0.307503 -1.2124162
0000f0 ba 1d 31 be 6b 56 5d be 4a c8 41 be 06 58 99 be
       -0.17296496 -0.21614997 -0.1892406 -0.2994997

a2c_network.value.weight f4 [1, 64]
000000 40 d3 77 3b 52 f5 e6 bd ef fb a7 ba 86 10 54 bb
       0.0037815124 -0.1127726 -0.0012816171 -0.0032358482
000010 b5 67 c6 3a f4 1c 29 be ee 69 96 3a df 23 c5 3b
       0.0015137108 -0.16514951 0.0011475661 0.006016239
000020 d4 5a 5e 3a d8 3c 98 bb c8 d6 7f 3b 8b a9 d2 b8
       0.00084821624 -0.004645925 0.0039037932 -0.0001004516
000030 e7 de 98 3c 08 bc 67 3e 1a 11 8d bd 90 4b 87 bd
       0.018660976 0.22630322 -0.068880275 -0.06606209
000040 66 a4 ec ba 84 0f 13 3c 36 59 1f bb 60 76 c9 3b
       -0.0018054366 0.008975867 -0.0024314648 0.0061481446
000050 3c 2d 62 3c cb fd 42 bb ea bd 99 3c 20 b5 78 3b
       0.01380473 -0.0029753323 0.018767316 0.0037949756
000060 60 66 09 bb 2c af 15 bb aa ab 09 3d 85 fc c0 3a
       -0.0020965561 -0.0022840006 0.033610977 0.0014723694
000070 15 a8 d9 bb fd 06 5a 3b e4 ae 3b 3b 1e d4 dd ba
       -0.0066423514 0.0033268325 0.0028638178 -0.0016924178
000080 c7 b2 11 ba 4e ae 60 bb d9 84 01 3e ba b3 67 be
       -0.0005557951 -0.0034283581 0.12648334 -0.22627154
000090 1e 3b 66 bb 79 2e 6e 3c 77 f7 3e 3b a0 5e bb 3b
       -0.0035130451 0.014537447 0.00291392 0.0057180673
0000a0 e0 6a 05 3c 2a 3e 53 bb a8 45 db ba d7 38 2f bb
       0.008143157 -0.0032233098 -0.0016729133 -0.002673676
0000b0 66 fa 71 3b 4b 7c e6 3b 6b ad 4b bb ce 28 a4 3b
       0.003692293 0.00703386 -0.0031078707 0.005009747
0000c0 26 f0 ae 39 a5 5d 3a 3e 1b fa c6 bb cc 63 c8 3b
       0.0003336679 0.18199785 -0.0060722954 0.0061154123
0000d0 b7 31 99 bc 16 7a ff 3b 38 b8 c0 3a 3c f2 96 ba
       -0.018700464 0.007796536 0.0014703339 -0.0011516283
0000e0 a5 7b 93 3a 45 32 f8 ba 4f a8 15 3b 90 84 15 3e
       0.0011252059 -0.001893588 0.0022835915 0.1460135
0000f0 0e 42 4b bb eb dc 2c 3e 4b 42 a5 bb fd f8 16 3c
       -0.0031014713 0.16881149 -0.005043303 0.009214637
