exp_log/dual_box_spoon_w_dual_finger_dist_rew/DualFrankaPPO_spoon3.pth (torch, 752816 bytes, 36 tensors)

value_mean_std.running_mean f8 [1]
51.33791461651865
00000000: dd64 41c9 40ab 4940

value_mean_std.running_var f8 [1]
1259.13225274633
00000000: 2d91 436d 87ac 9340

value_mean_std.count f8 []
1540096001.0
00000000: 0000 4000 00f3 d641

running_mean_std.running_mean f8 [74]
0.11191887738145159 0.1580122442741034 -0.04274956662939641 -0.09614954078687851 -0.808077897899154 0.40731431215067004 0.47891129743233984 -0.10956154341632503
-0.3973713330692784 -0.2774940209107395 0.4089261520791679 0.2199643986562963 0.11609736382521899 0.19915456802792972 0.8590275117447661 0.08182334897165605
0.74491423736905 0.8425283749243869 -0.015372240961122031 -0.0049170315312409 0.014881560032554864 -0.016208980532789446 -0.013978269676513033 -0.0035513512007565914
0.041235068482423295 0.0002809058966892403 -0.00044321319086399103 0.020915020795114155 -0.012327630001997627 0.023290756386199922 0.007973688996543785 -0.01670427482245644
-0.020846380902577975 -0.016447346302458084 -0.002011580861952388 0.01067135207731115 0.02202920577947027 4.5724286655510375e-05 -0.00023797785311917424 0.02759143537597938
-0.027373720806251438 -0.007018331289858078 -0.5302695272253678 0.44240822218851594 0.37563076019103625 -0.03142133693182716 -0.5049221541720147 0.03437587866914756
0.5797835143950859 -0.23391481190158353 0.43674631482749776 -0.27185408624999585 0.5664457503091047 -0.2547185684695866 0.05864584439469068 0.5790059399065574
0.3242625963259811 0.2785439807809569 -0.12385534726012705 -1.7151204100510264 -2.341245680547623 2.635287524510035 1.3875434196450527 0.017808768708094832
0.012052573045786226 -0.8039834280061435 0.720855012477688 0.6373039107870327 -1.3965377962689733 0.5770104964278904 3.4867663051657427 0.23706508644072863
0.03489828395447585 0.03685056666625496
00000000: da8a 282e b7a6 bc3f df2d c3c6 be39 c43f
00000010: fccf 2e6d 45e3 a5bf e67e 349d 419d b8bf
00000020: 071d 032e c6db e9bf ae4f 780c 7011 da3f
00000030: 7a09 0a92 7ba6 de3f 9d55 dfad 390c bcbf
00000040: 5ea1 f92b 886e d9bf 2c6b 2948 76c2 d1bf
00000050: 7d2f 6a98 d82b da3f 3aad 411d cb27 cc3f
00000060: 12f8 c78c 8eb8 bd3f 23b5 439a e57d c93f
00000070: 5adb a943 277d eb3f c4e8 e1ff 5ff2 b43f
00000080: 2e65 fa61 56d6 e73f 9512 0811 fef5 ea3f
00000090: 54d3 8d41 7b7b 8fbf 7fd9 eb99 e123 74bf
000000a0: e0ec 392d 397a 8e3f 8bc9 2845 1699 90bf
000000b0: 331e ec98 a3a0 8cbf 4c8a 7128 b917 6dbf
000000c0: ce20 294d c31c a53f 677d b8a3 d168 323f
000000d0: 234c f028 e20b 3dbf 929e 3d49 bf6a 953f
000000e0: eeee 907d 3a3f 89bf be4c e933 88d9 973f
000000f0: 68c1 bf6b 8254 803f 4c6d 43e8 ec1a 91bf
00000100: 66ba ddf0 c058 95bf ef71 e6b9 92d7 90bf
00000110: cbb4 7d40 977a 60bf efc2 68a1 dcda 853f
00000120: 92ca 84f9 d28e 963f e6c4 cb86 02f9 073f
00000130: 33be 5031 3631 2fbf 77ad 5be2 ed40 9c3f
00000140: 7ede 874e db07 9cbf 8887 ccf5 40bf 7cbf
00000150: 5ff2 afcc f7f7 e0bf d0fe 7193 6a50 dc3f
00000160: 7c18 9999 550a d83f 739f 091d 7516 a0bf
00000170: c33a 6681 5228 e0bf 4b7d 4f15 b799 a13f
00000180: 63c7 2228 968d e23f da69 95a9 ebf0 cdbf
00000190: b149 b5d0 a6f3 db3f 9092 6eae 0e66 d1bf
000001a0: 2a25 91d6 5220 e23f 22b1 501c 4f4d d0bf
000001b0: a168 71ff d306 ae3f 37d4 0277 3787 e23f
000001c0: 1850 a2e7 b7c0 d43f 50eb fc21 aad3 d13f
000001d0: 79be eae9 fbb4 bfbf b7f0 5d19 2271 fbbf
000001e0: 91d3 ee03 dfba 02c0 839e 2aa0 1115 0540
000001f0: f37c 92ba 6033 f63f cfb1 bb3c 763c 923f
00000200: 44b1 83f8 04af 883f d4fe 3974 3bba e9bf
00000210: 9cfa f787 3e11 e73f c12e ce2b cb64 e43f
00000220: 82a6 2904 3858 f6bf 9068 73b7 de76 e23f
00000230: 5cda 8bbb e5e4 0b40 dfa6 a414 2658 ce3f
00000240: e6bf 8a18 30de a13f 2f5d 57d5 13de a23f

running_mean_std.running_var f8 [74]
0.0252053492640317 0.062609712935764 0.02764177285624448 0.0696826847913689 0.09115243698218582 0.1620441012302092 0.05802864101198067 0.3279619975455842
0.47791861124929164 0.021286866333748263 0.020227132844825607 0.025727591444260987 0.041184354453155055 0.029762087879434074 0.03997077714012995 0.03677543323779949
0.24116435438019726 0.1647580782751158 0.0038308476280689415 0.0017764980843895095 0.004935815181770305 0.003778555145632048 0.01098368232131077 0.009877068111219196
0.022242605214060292 0.0013385877189191738 0.0012749161078023374 0.011229304130175437 0.007722590266903718 0.013137511886179924 0.0019763685155418094 0.0014105992188682339
0.0041766673867797525 0.001539090907150726 0.005987526606034502 0.0064530886666755915 0.01286383817392789 0.0003675589085661708 0.0002644291086685425 0.008100360854209065
0.0032234270191783807 0.006953976888405087 0.0047383193202232225 0.028009756201713646 0.010259712236757243 0.08107117095576362 0.12159594456344854 0.0642059154665785
0.13999698933527902 0.007270862458742251 0.0014663557642998447 0.014061350362815398 0.1005746395926698 0.048142007569617506 0.07738634622878325 0.0495473219774759
0.21158140251044133 0.194557411518552 0.23199245046764821 0.15699517049526535 0.764939017931034 0.5757791704781184 0.48703005547889555 0.00013118609176430336
0.00019116873459070925 0.17868933968022868 0.06285507500229738 0.21595029449159403 0.09278839837832607 0.249829059043144 0.14202278879966385 0.30867040387494943
9.646703698363212e-05 6.590452798397224e-05
00000000: 18d5 175b 6ecf 993f 0897 78ad 3007 b03f
00000010: a222 aff9 1f4e 9c3f 8bc2 4674 b9d6 b13f
00000020: 4b08 ca1f c455 b73f 2990 a571 dcbd c43f
00000030: 8e6c c116 eeb5 ad3f e280 7251 54fd d43f
00000040: dbc9 5df1 3796 de3f 8f7a f36a 39cc 953f
00000050: 88d2 3de8 6bb6 943f 898a 6e6f 5558 9a3f
00000060: 7162 f79e 1d16 a53f d050 69e8 f379 9e3f
00000070: cca1 39b9 0c77 a43f cbeb 1ac6 3ad4 a23f
00000080: 350f 833b 79de ce3f 54c2 f8ee ca16 c53f
00000090: de98 e9a8 de61 6f3f fb83 204b 2c1b 5d3f
000000a0: 628e 8ecc 9337 743f b916 da58 34f4 6e3f
000000b0: 8ba1 e0e2 9c7e 863f e4f7 24a4 6d3a 843f
000000c0: bf8f e3f7 c3c6 963f 74fc 6f9e 71ee 553f
000000d0: 00ed 3dbf 62e3 543f 09b0 f7af 63ff 863f
000000e0: 9b2a 300a b9a1 7f3f af33 37ff d6e7 8a3f
000000f0: bf79 73c4 be30 603f 5dc0 d160 7b1c 573f
00000100: ccdf 519d 8d1b 713f 5075 2747 6a37 593f
00000110: ea3f 4f6f 6086 783f f744 81cc 8d6e 7a3f
00000120: 0180 1022 5b58 8a3f 0275 dc7d 9d16 383f
00000130: f718 b45f 6254 313f 4013 a307 ec96 803f
00000140: 7df7 1b34 0468 6a3f 3164 01f5 c57b 7c3f
00000150: ba37 4be8 7c68 733f 01d2 6beb 96ae 9c3f
00000160: 389a 2f44 0b03 853f 2d47 e78b 14c1 b43f
00000170: e5ea 396d e920 bf3f 8881 2383 cc6f b03f
00000180: cfe2 5ddd 6beb c13f bb8d 9547 0dc8 7d3f
00000190: 7075 5383 5706 583f b52e 917f 32cc 8c3f
000001a0: 5a85 db73 42bf b93f a08c 26b8 11a6 a83f
000001b0: 87a5 3572 97cf b33f ceca fe3e 445e a93f
000001c0: 34b1 1c72 1915 cb3f f852 d5db 41e7 c83f
000001d0: a6b6 d6b9 edb1 cd3f 241c 74f1 6a18 c43f
000001e0: 3c57 2e64 617a e83f 277d 5d70 c86c e23f
000001f0: e8db 1c1c 802b df3f 113d 98f2 df31 213f
00000200: 7073 19ed 8e0e 293f 6f03 09d3 4adf c63f
00000210: 31c2 852b 4517 b03f 5e94 335e 42a4 cb3f
00000220: 67ae 7b00 fbc0 b73f 0823 170b 66fa cf3f
00000230: e633 9780 cd2d c23f 8bb4 7882 41c1 d33f
00000240: 6041 7113 cb49 193f 55a9 5d2b c746 113f

running_mean_std.count f8 []
770048001.0
00000000: 0000 8000 00f3 c641

a2c_network.sigma f4 [18]
-0.71897656 -1.4236146 -0.9955236 -1.3751752 -0.907754 -0.93920475 -0.9045246 -1.837274
-1.3595935 -1.1039082 -0.30547854 -0.9674524 -1.1125568 -0.48474917 -0.29403904 -0.928888
-0.9163775 -0.50532067
00000000: d90e 38bf 0139 b6bf a2da 7ebf be05 b0bf
00000010: 9162 68bf b96f 70bf ed8e 67bf cb2b ebbf
00000020: 2907 aebf dd4c 8dbf af67 9cbe f6aa 77bf
00000030: 4368 8ebf 0b31 f8be 498c 96be 9bcb 6dbf
00000040: b797 6abf b25c 01bf

a2c_network.actor_mlp.0.weight f4 [256, 74]
-0.1256845 -0.16970547 0.02412084 0.06347006 0.12211081 0.084202826 -0.03348283 -0.17576222
-0.09697256 -0.11392928 -0.08790064 0.12012178 0.22456686 0.031073544 0.033672146 0.019029636
-0.030070689 -0.065204896 0.02274666 0.10007876 0.024191368 -0.050353575 -0.037059005 -0.028898258
-0.12199738 -0.25497597 0.04207576 0.5649074 0.40037012 -0.3512549 -0.058078334 0.013352397
0.028066799 0.046401065 0.07445959 -0.030203108 0.020942593 0.0067266678 0.007817751 -0.70194346
-0.60021544 0.23653571 -0.20503815 -0.20685819 0.11794663 0.010010737 0.052672602 -0.0049746064
-0.079258844 -0.19419783 0.2506836 -0.17224066 0.03409711 -0.04073188 0.024149245 -0.060411207
0.089941114 -0.04254269 0.002602406 0.09683835 0.049280424 -0.05694482 -0.06899836 -0.21212071
-0.12531942 -0.09234584 -0.11322069 0.052537847 0.24442738 0.036007125 0.07190473 0.008519008
0.005271421 0.058253262 -0.08754476 -0.14503805 0.17140664 -0.11363231 -0.10814662 -0.14866154
-0.043257143 0.059800327 0.05976946 0.002088602 -0.11942355 0.09679541 0.00070513383 -0.02552504
0.008732345 -0.09159881 0.0469993 -0.108727865 -0.045423545 0.14053129 -0.018037599 -0.0043877764
-0.0074234093 -0.003985897 0.15706213 0.040807225 0.12714645 -0.121626414 -0.50851166 0.52979165
0.25710705 -0.08098949 0.30132043 -0.002518731 -0.028207712 -0.04143521 0.038555827 -0.09897558
-0.06348256 -0.12319446 -0.129226 0.18575573 0.20207101 0.19856758 1.5351171 0.20679575
-0.5393373 -0.26220185 0.116378434 0.19809449 0.059046805 -0.0034725002 -0.06717942 -0.038174666
0.085205674 0.0068249246 -0.19953091 -0.12292233 0.07047607 -0.16778186 -0.13315268 -0.022420093
-0.07531207 0.1987848 -0.10507638 -0.10869455 -0.175516 0.27195495 -0.08814788 -0.08127625
0.041025475 -0.033057563 -0.07709314 -0.0064373207 -0.068886206 0.043636017 -0.15800615 0.11445676
-0.12238363 0.08369133 -0.01397224 0.1088275 0.031008542 -0.027428528 0.3550197 0.05697343
0.010831446 0.13149245 -0.1537689 -0.11974396 -0.07873759 -0.021766981 0.17080404 -0.15914348
0.1366933 -0.06082294 -0.016611656 -0.008635816 -0.10968747 0.055260938 0.09635832 0.2849218
-0.4659381 -0.21867685 0.062238477 -0.109226 0.01688213 0.12503885 -0.03630204 0.1404771
0.028380945 0.1177691 -0.027004318 -0.2987228 0.47868404 -0.57793194 0.052040424 0.30198264
-0.024255771 -0.05023604 0.2224255 0.005769082 0.00976774 0.022487907 0.21785785 -0.017511023
-0.03973452 -0.021182343 0.007973839 0.024659865 0.048009023 -0.04876723 -0.06639222 -0.03301471
-0.22252983 -0.015878769 0.018163837 0.18666849 0.014934694 -0.018744137 0.39668024 -0.058944073
-0.06334521 0.054737233 -0.2571339 -0.14535622 0.06415089 0.023255564 -0.0056986813 -0.09449364
-0.031807717 0.13272554 0.009371721 0.13160467 0.05982976 -0.19333315 -0.06652393 0.08551024
-0.07973223 0.12519191 -0.021605955 -0.018660683 0.077455424 0.032573827 0.009725754 0.056689464
0.12148196 -0.2095837 0.12565167 0.20637523 0.04179719 0.099647954 -0.015774671 -0.0922555
-0.045683306 0.48064482 -0.07017232 -0.6117661 0.13762914 0.010563588 0.11570068 -0.047549423
00000000: 70b3 00be 45c7 2dbe 1199 c53c 97fc 813d
00000010: 3b15 fa3d 8872 ac3d 4b25 09bd 03fb 33be
00000020: 8d99 c6bd c153 e9bd 4005 b4bd 6802 f63d
00000030: dbf4 653e f28d fe3c ceeb 093d 0ae4 9b3c
00000040: ce56 f6bc 258a 85bd 3457 ba3c 18f6 cc3d
00000050: fa2c c63c 8d3f 4ebd 2fcb 17bd 0abc ecbc
00000060: c3d9 f9bd 368c 82be a257 2c3d c59d 103f
00000070: 50fd cc3e afd7 b3be 8ce3 6dbd 03c4 5a3c
00000080: 58ec e53c 0b0f 3e3d 457e 983d 826c f7bc
00000090: cd8f ab3c 616b dc3b 0616 003c 91b2 33bf
000000a0: b8a7 19bf 6b36 723e 85f5 51be a2d2 53be
000000b0: 018e f13d 1304 243c 3abf 573d 0602 a3bb
000000c0: 7652 a2bd ccdb 46be 9a59 803e db5f 30be
000000d0: 69a9 0b3d 79d6 26bd a3d4 c53c be71 77bd
000000e0: 0c33 b83d 3e41 2ebd 218d 2a3b 2f53 c63d
000000f0: 45da 493d f93e 69bd 034f 8dbd 2c36 59be
00000100: bc53 00be d11f bdbd 40e0 e7bd ed31 573d
00000110: 2c4b 7a3e 357c 133d c942 933d 4f93 0b3c
00000120: e2bb ac3b f99a 6e3d ab4a b3bd db84 14be
00000130: 3985 2f3e 0eb8 e8bd fa7b ddbd bb3a 18be
00000140: 672e 31bd 30f1 743d d2d0 743d ede0 083b
00000150: 5694 f4bd ac3c c63d bbd8 383a e419 d1bc
00000160: 1c12 0f3c 2898 bbbd 5782 403d b7ac debd
00000170: 0a0e 3abd 6fe7 0f3e 96c3 93bc 56c7 8fbb
00000180: 1240 f3bb 219c 82bb e5d4 203e 7a25 273d
00000190: ae32 023e 4517 f9bd d22d 02bf 6da0 073f
000001a0: 89a3 833e d1dd a5bd ac46 9a3e 4b11 25bb
000001b0: dc13 e7bc f7b7 29bd b7ec 1d3d b5b3 cabd
000001c0: 2503 82bd 614d fcbd d253 04be c036 3e3e
000001d0: b4eb 4e3e 4d55 4b3e b87e c43f 44c2 533e
000001e0: 0212 0abf 523f 86be d157 ee3d 48d9 4a3e
000001f0: 10db 713d e392 63bb 5d95 89bd 0a5d 1cbd
00000200: 5080 ae3d 9ea3 df3b d551 4cbe b4be fbbd
00000210: c255 903d 02cf 2bbe 2d59 08be 58aa b7bc
00000220: 373d 9abd 3e8e 4b3e 4932 d7bd 409b debd
00000230: 77ba 33be ae3d 8b3e e086 b4bd 2a74 a6bd
00000240: 540a 283d 5e67 07bd 02e3 9dbd 29f0 d2bb
00000250: 3614 8dbd aebb 323d 5dcc 21be 4e68 ea3d
00000260: 45a4 fabd 5c66 ab3d d2eb 64bc f4e0 de3d
00000270: a005 fe3c cbb1 e0bc 24c5 b53e f95c 693d
00000280: 6176 313c f5a5 063e 9875 1dbe 523c f5bd
00000290: 2c41 a1bd ab50 b2bc 41e7 2e3e 82f6 22be
000002a0: 54f9 0b3e 7a21 79bd 2b15 88bc 3d7d 0dbc
000002b0: d3a3 e0bd 4b59 623d 8357 c53d 45e1 913e
000002c0: 708f eebe d3ec 5fbe c6ed 7e3d e2b1 dfbd
000002d0: 654c 8a3c 2f0a 003e 73b1 14bd 3bd9 0f3e
000002e0: 287f e83c ed30 f13d 2938 ddbc 32f2 98be
000002f0: 1316 f53e 59f3 13bf 5728 553d 789d 9a3e
00000300: 0ab4 c6bc 4ec4 4dbd 83c3 633e 910a bd3b
00000310: df08 203c 8f38 b83c 2116 5f3e 4773 8fbc
00000320: aac0 22bd 9886 adbc b4a4 023c 7c03 ca3c
00000330: 1ca5 443d 26c0 47bd a5f8 87bd 6f3a 07bd
00000340: dcde 63be 3114 82bc 54cc 943c 0626 3f3e
00000350: a6b0 743c 4e8d 99bc ac19 cb3e 576f 71bd
00000360: 22bb 81bd 2634 603d 0ea7 83be 43d8 14be
00000370: 8b61 833d 7482 be3c 01bc babb e285 c1bd
00000380: cf48 02bd 34e9 073e d98b 193c 60c3 063e
00000390: 0d10 753d 20f9 45be b33d 88bd fe1f af3d
000003a0: a74a a3bd 4f32 003e f9fe b0bc 4ade 98bc
000003b0: f3a0 9e3d 226c 053d c558 1f3c 3633 683d
000003c0: 89cb f83d 1c9d 56be d5aa 003e 0754 533e
000003d0: 8833 2b3d 3a14 cc3d e239 81bc 74f0 bcbd
000003e0: 6b1e 3bbd 1417 f63e 81b6 8fbd b49c 1cbf
000003f0: a7ee 0c3e e612 2d3c 7af4 ec3d 2fc3 42bd

a2c_network.actor_mlp.0.bias f4 [256]
-0.3188036 -0.32056493 -0.0007237975 -0.33277455 0.014952082 -0.07602394 0.18158418 -0.049359567
-0.19484898 -0.4113536 -0.8253592 -0.57580304 -0.13988626 -0.22645056 -0.25151733 -0.13241386
0.047420938 -0.2737836 -0.20035234 -0.49441388 -0.49774113 -0.29889223 -0.12284741 -0.92688626
0.027553203 -0.08847701 -0.43735096 0.08821356 -0.25398684 -0.14705054 -0.289053 -0.12827829
-0.3050505 -0.16955718 -0.22223812 -0.5673199 -0.32852337 -0.42564803 0.23935685 -0.42693052
-0.23409255 -0.25805014 -0.2869031 -0.2454557 -0.39039174 -0.3363404 -0.025009535 0.22788605
-0.32895648 -0.17988639 -0.31782147 -0.40271428 0.14892763 -0.38411498 -0.24772994 -0.45234266
-0.1172241 -0.134089 -0.6307484 -0.12951134 -0.19166279 -0.23371862 -0.4371502 -0.17272119
-0.4738805 -0.13244352 -0.6348945 0.031740803 -0.03296474 0.032725412 -0.11308591 -0.37058395
-0.43277878 0.18509483 0.28277194 -0.36816242 -0.22525404 -0.22460636 0.10491445 -0.36708146
-0.34691375 -0.29798263 -0.5398261 -0.069011614 0.21141364 -0.42432907 -0.17888702 -0.04228815
-0.16803133 -0.45994794 -0.19540748 -0.11057488 -0.3768953 -0.41557813 -0.22967333 -0.68228424
-0.33457416 -0.29565844 -0.7842119 -0.33995327 -0.37390122 -0.06476583 -0.35052994 -0.2818321
-1.0191939 -0.36226287 -0.119810045 0.20572197 -0.26358157 -0.12497882 -0.104008466 -0.24280836
0.21345559 -0.5977944 -0.2436062 -0.20436461 -0.20697172 -0.27281216 -0.6024544 -0.15443042
0.02869112 -0.37466282 -0.3055088 -0.0888201 -0.2689826 -0.05585214 -0.48105565 -0.37420532
-0.10767613 -0.53303057 -0.45020193 -0.7610432 -0.35777995 -0.5114248 -0.57366693 -0.7514429
-0.45207393 -0.11972949 -0.677906 -0.19594531 -0.41935396 0.15625907 -0.4229359 0.10107646
-0.42057067 -0.50852346 -0.096446425 -0.50996333 -0.35466564 0.29417607 -0.25295767 -0.29498768
0.00799234 -0.089944646 0.16396491 -0.46075746 0.20536608 -0.09184433 -0.27203894 -0.6832642
-0.42398933 -0.53070974 0.029184839 -0.04488394 -0.49651906 -0.11684109 -0.37047756 -0.2785548
-0.49435055 -0.46829987 -0.2800175 -0.48096013 -0.13043167 -0.3724013 -0.104209505 -0.6582602
-0.27527007 -0.26727846 -0.39905533 -0.38507286 0.21873736 -0.4722058 -0.28729704 -0.61049354
-0.49339005 -0.43211475 -0.22010678 -0.665576 -0.061876964 -0.22274406 -0.11009515 -0.5201288
-0.40194622 -0.10622187 -0.5659947 -0.52290297 -0.19689696 -0.38989538 -1.074382 -0.7717349
-0.44990623 0.04389624 -0.9525735 -0.81265527 0.31342486 -0.10885901 -0.29020375 -0.012424236
-0.15287888 -0.42950538 -0.010917083 0.14248554 -0.15091445 -0.32190675 -0.26381326 -0.51925135
0.05361262 -0.11974375 0.060526684 0.29032382 -0.31031564 -0.35075966 -0.2869979 -0.22436051
-0.17629175 -0.16338462 -0.50222987 -0.27838492 0.20645112 -0.026322 -0.5880928 -0.43623906
0.09778971 -0.66475075 -0.2094361 0.20964873 0.06277087 -0.31384262 -0.16825107 -0.38991812
0.017797168 -0.18403363 0.11583657 0.13295926 -0.2787935 -0.36710954 -0.22441044 -0.61717486
-0.12464121 -0.47560644 -0.36162782 -0.025963796 -0.66110885 -0.53140837 -0.37165472 -0.11881627
00000000: 3a3a a3be 1621 a4be 3abd 3dba 6d61 aabe
00000010: 94f9 743c 71b2 9bbd 34f1 393e 422d 4abd
00000020: 7e86 47be f09c d2be be4a 53bf d467 13bf
00000030: 583e 0fbe a8e2 67be e1c6 80be 8097 07be
00000040: 753c 423d 5d2d 8cbe 2a29 4dbe d123 fdbe
00000050: edd7 febe 6708 99be 6c97 fbbd 6b48 6dbf
00000060: 41b7 e13c 6f33 b5bd 77ec dfbe 50a9 b43d
00000070: 900a 82be 6b94 16be c1fe 93be 625b 03be
00000080: 942f 9cbe 66a0 2dbe 6492 63be e13b 11bf
00000090: 3734 a8be 8aee d9be f619 753e a396 dabe
000000a0: f5b5 6fbe 261f 84be f7e4 92be bd58 7bbe
000000b0: 6de1 c7be cf34 acbe cce0 ccbc f65a 693e
000000c0: fc6c a8be 2334 38be 7fb9 a2be 9130 cebe
000000d0: 7c80 183e b8aa c4be ebac 7dbe 7599 e7be
000000e0: 3013 f0bd a04e 09be ba78 21bf 9f9e 04be
000000f0: 4043 44be ef53 6fbe 27d2 dfbe d3dd 30be
00000100: 77a0 f2be 469f 07be 7288 22bf a502 023d
00000110: 0906 07bd 150b 063d 9699 e7bd 2ebd bdbe
00000120: 2e95 ddbe 8089 3d3e 7cc7 903e c97f bcbe
00000130: ffa8 66be 36ff 65be 63dd d63d 1af2 bbbe
00000140: ae9e b1be 2e91 98be 0b32 0abf f655 8dbd
00000150: d17c 583e a941 d9be 292e 37be 5736 2dbd
00000160: 6810 2cbe 4c7e ebbe e618 48be 1575 e2bd
00000170: 6cf8 c0be a8c6 d4be 7c2f 6bbe 2eaa 2ebf
00000180: 4e4d abbe 8b60 97be 1cc2 48bf 5b0e aebe
00000190: fb6f bfbe f3a3 84bd a978 b3be 4c4c 90be
000001a0: f274 82bf 857a b9be f85e f5bd c8a8 523e
000001b0: 2af4 86be e5f4 ffbd 6402 d5bd c1a2 78be
000001c0: 1a94 5a3e 0e09 19bf e773 79be f544 51be
000001d0: 65f0 53be 09ae 8bbe 743a 1abf 0223 1ebe
000001e0: a409 eb3c ced3 bfbe a66b 9cbe 50e7 b5bd
000001f0: 16b8 89be 37c5 64bd ed4c f6be d797 bfbe
00000200: 4e85 dcbd b174 08bf de80 e6be bad3 42bf
00000210: ef2e b7be bcec 02bf d6db 12bf 905e 40bf
00000220: 3c76 e7be bc34 f5bd 3f8b 2dbf e3a5 48be
00000230: 90b5 d6be 6102 203e 0e8b d8be 2d01 cf3d
00000240: 0a55 d7be 982e 02bf b485 c5bd f58c 02bf
00000250: bc96 b5be 3f9e 963e ab83 81be a008 97be
00000260: 4ef2 023c e634 b8bd 6be6 273e 67e8 ebbe
00000270: 7c4b 523e e118 bcbd b048 8bbe 67ea 2ebf
00000280: 2115 d9be 98dc 07bf 0b15 ef3c 39d8 37bd
00000290: bf37 febe 624a efbd 3caf bdbe bc9e 8ebe
000002a0: 841b fdbe 00c5 efbe 745e 8fbe 6840 f6be
000002b0: e18f 05be 62ab bebe cb6b d5bd be83 28bf
000002c0: 33f0 8cbe b9d8 88be fb50 ccbe 4528 c5be
000002d0: b0fc 5f3e f5c4 f1be 9918 93be 4e49 1cbf
000002e0: 9f9d fcbe 253e ddbe ac63 61be 3063 2abf
000002f0: b372 7dbd 0517 64be 9179 e1bd 2927 05bf
00000300: e5cb cdbe da8a d9bd 07e5 10bf f8dc 05bf
00000310: 5b9f 49be 5ea0 c7be 5985 89bf 6b90 45bf
00000320: 1c5a e6be 8bcc 333d dbdb 73bf 2d0a 50bf
00000330: 3979 a03e 79f1 debd 9695 94be 068f 4bbc
00000340: 488c 1cbe 21e8 dbbe 91dd 32bc bbe7 113e
00000350: 5189 1abe f6d0 a4be 8812 87be a8ed 04bf
00000360: e898 5b3d 363c f5bd d4ea 773d 53a5 943e
00000370: b1e1 9ebe c596 b3be 64f1 92be c3be 65be
00000380: d385 34be 4c4e 27be 2392 00bf 7888 8ebe
00000390: ec67 533e 3ca1 d7bc 408d 16bf ba5a dfbe
000003a0: f945 c83d 1b2d 2abf 6b76 56be 28ae 563e
000003b0: 048e 803d fbaf a0be 024a 2cbe 59a3 c7be
000003c0: 5ecb 913c 5073 3cbe b93b ed3d 7926 083e
000003d0: 06be 8ebe c8f5 bbbe dacb 65be 2cff 1dbf
000003e0: e443 ffbd b082 f3be 4827 b9be 07b2 d4bc
000003f0: 6e3e 29bf 610a 08bf 8749 bebe f255 f3bd

a2c_network.actor_mlp.2.weight f4 [128, 256]
0.06833358 -0.050189994 0.04789138 0.11374213 -0.012186792 0.22204745 -0.10848179 -0.032698743
0.08819991 -0.14407925 0.26105887 -0.009511248 -0.02142983 0.07765201 -0.15640078 -0.16733524
-0.13288221 -0.0066134008 -0.0016701124 -0.29609945 0.01352299 0.14771211 -0.16903372 -0.009823156
-0.088549145 -0.040029965 0.030965084 -0.012737957 0.20222469 0.04042758 0.023007082 0.04174605
0.015926396 -0.059258517 -0.16794637 0.059703264 -0.048295688 -0.00013305274 -0.034460682 0.13363075
-0.0087600155 -0.05028676 -0.032059077 -0.24323516 0.0795247 0.044972915 -0.11266255 0.033359725
0.023247711 0.0654398 -0.042641617 0.0740006 0.032162618 0.09176215 -0.0054504457 -0.12845623
-0.1744758 -0.08413607 0.06391346 -0.011646914 -0.10251157 -0.056440864 0.36708423 -0.057952613
0.090845026 -0.18492755 0.06783476 -0.11561126 -0.25967264 0.05204362 -0.026383631 -0.047910575
0.019945914 0.1934049 -0.21760458 -0.09879084 -0.09352335 -0.03555779 0.14158954 -0.0067701833
0.06828742 0.18385181 -0.049730357 -0.042092822 -0.05421997 0.11055956 -0.18376146 -0.082384415
0.105413675 -0.045164324 0.07404377 -0.19395411 0.082299 -0.100972004 0.12363016 0.029695382
-0.03019539 0.14507079 0.17210703 -0.100805216 -0.039143253 0.07157117 -0.11431682 0.052649025
-0.007270518 0.08273759 -0.04130457 -0.051906694 -0.036763635 -0.038074695 0.15852617 -0.14744706
-0.15460508 0.17888455 -0.00088641077 0.08175495 0.109643556 0.0637866 0.04740538 0.22913077
-0.054051954 0.070755735 -0.2712446 -0.008582418 0.01538972 0.060586456 -0.048260547 0.04035433
-0.014620881 0.057374474 -0.2830029 0.01926798 0.03829846 0.16769558 0.024191225 0.15737389
0.15824315 0.051965572 0.06598382 0.077437826 0.06530658 0.09107808 0.14495727 -0.059024207
-0.05824215 0.05030737 0.08582975 0.18867186 0.0014683855 0.1806592 0.22882523 -0.11736857
-0.05114819 0.13079739 -0.051359676 -0.09399955 -0.0072382754 0.05070144 -0.10611916 -0.05076104
-0.036841616 0.07105002 0.016976405 0.040633433 0.06926917 -0.056342706 -0.13225348 0.02453169
0.026156813 0.00022327682 -0.15329492 0.08048493 -0.06999551 -0.017590191 -0.06807257 -0.117386356
0.084745504 0.05857021 -0.16584882 -0.087140255 0.019733708 -0.12816806 0.009239815 0.31926492
-0.059165917 -0.1962515 0.096337326 0.027116273 -0.15672193 0.16522661 -0.13932343 -0.1189022
0.094162464 -0.06350247 -0.030034479 0.07488434 -0.0166446 -0.005559476 0.20946684 0.019717073
-0.08257319 -0.045296274 0.047287486 0.039099567 -0.09439513 -0.042367082 -0.120083645 -0.108579926
0.179493 -0.20110285 -0.021734904 -0.06863183 -0.11383991 0.024502829 0.028543973 0.10328772
0.061323676 -0.09823727 -0.14382711 -0.15718403 0.16605596 0.32080328 -0.05566009 -0.142869
0.0071996343 0.09337157 -0.19754449 0.0366333 -0.104629084 -0.05699088 0.10495865 -0.15000568
0.0040696934 0.070622064 -0.11119658 0.026342874 -0.034646165 0.10605159 -0.00034534108 0.02377081
0.1335446 0.004570065 -0.048305035 -0.040819358 -0.13210818 0.04214037 -0.054707248 0.018581634
0.07391093 -0.08346141 0.034855887 -0.13736314 0.15039492 0.0024871167 -0.0880431 -0.13066144
00000000: 7af2 8b3d 0694 4dbd c029 443d a2f1 e83d
00000010: 1cab 47bc 6860 633e b32b debd 1eef 05bd
00000020: 28a2 b43d 8389 13be 82a9 853e 11d5 1bbc
00000030: 9c8d afbc 0408 9f3d 8727 20be ee59 2bbe
00000040: 4612 08be 3ab5 d8bb ace7 daba 599a 97be
00000050: 888f 5d3c d841 173e 2d17 2dbe 4df1 20bc
00000060: 4159 b5bd 76f6 23bd 7daa fd3c ddb2 50bc
00000070: fd13 4f3e 6497 253d 5979 bc3c e8fd 2a3d
00000080: 1378 823c 0fb9 72bd 22fa 2bbe 698b 743d
00000090: b3d1 45bd 1384 0bb9 a526 0dbd 80d6 083e
000000a0: 2b86 0fbc 7df9 4dbd 6150 03bd a312 79be
000000b0: d9dd a23d 8535 383d 9fbb e6bd 35a4 083d
000000c0: fc71 be3c 4d05 863d faa8 2ebd a08d 973d
000000d0: f3bc 033d cbed bb3d a799 b2bb 088a 03be
000000e0: c9a9 32be 884f acbd 0fe5 823d b3d2 3ebc
000000f0: 96f1 d1bd 892e 67bd 77f2 bb3e b85f 6dbd
00000100: f50c ba3d a65d 3dbe f3ec 8a3d 99c5 ecbd
00000110: d0f3 84be b12b 553d 7c22 d8bc e13d 44bd
00000120: 9d65 a33c ef0b 463e bcd3 5ebe da52 cabd
00000130: 2c89 bfbd 0ca5 11bd d9fc 103e 6ad8 ddbb
00000140: 46da 8b3d a643 3c3e 0fb2 4bbd 8669 2cbd
00000150: c215 5ebd 0d6d e23d f72b 3cbe 29b9 a8bd
00000160: 20e3 d73d 3afe 38bd 43a4 973d e89b 46be
00000170: 618c a83d 69ca cebd cf31 fd3d bb43 f33c
00000180: 535c f7bc 708d 143e d33c 303e f772 cebd
00000190: ad54 20bd e893 923d f01e eabd 81a6 573d
000001a0: 873d eebb 5372 a93d fb2e 29bd 1d9c 54bd
000001b0: 7795 16bd 36f4 1bbd af54 223e 5dfc 16be
000001c0: cb50 1ebe 832d 373e 055e 68ba 246f a73d
000001d0: cd8c e03d 8da2 823d 252c 423d 42a1 6a3e
000001e0: 9565 5dbd 62e8 903d 92e0 8abe 459d 0cbc
000001f0: 2a25 7c3c 8129 783d daac 45bd 954a 253d
00000200: 6b8c 6fbc 7f01 6b3d c2e5 90be e2d7 9d3c
00000210: d9de 1c3d 64b8 2b3e ad2c c63c 9f26 213e
00000220: 7e0a 223e dad9 543d 8622 873d b997 9e3d
00000230: 75bf 853d 2587 ba3d ae6f 143e 5ec3 71bd
00000240: 528f 6ebd 1a0f 4e3d 82c7 af3d 3233 413e
00000250: d776 c03a bafe 383e 2951 6a3e ef5e f0bd
00000260: c480 51bd c0ef 053e 865e 52bd d682 c0bd
00000270: 0e2f edbb 50ac 4f3d 0155 d9bd cfea 4fbd
00000280: 3ce7 16bd ac82 913d 1a12 8b3c 3e6f 263d
00000290: ffdc 8d3d 9cc7 66bd 756d 07be aff6 c83c
000002a0: d046 d63c 6a1f 6a39 58f9 1cbe 48d5 a43d
000002b0: ce59 8fbd 4e19 90bc a269 8bbd 4268 f0bd
000002c0: 0d8f ad3d 51e7 6f3d 46d4 29be 9776 b2bd
000002d0: 96a8 a13c 7d3e 03be 9862 173c b176 a33e
000002e0: f657 72bd 27f6 48be 814c c53d f222 de3c
000002f0: b77b 20be 2a31 293e cdaa 0ebe ff82 f3bd
00000300: 40d8 c03d 950d 82bd de0a f6bc f65c 993d
00000310: 425a 88bc 442c b6bb 7a7e 563e b385 a13c
00000320: 221c a9bd 9688 39bd 86b0 413d de26 203d
00000330: 3c52 c1bd 1b89 2dbd 6aee f5bd 275f debd
00000340: 03cd 373e e8ed 4dbe 660d b2bc d88e 8cbd
00000350: e624 e9bd 28ba c83c 0dd5 e93c 8388 d33d
00000360: 892e 7b3d 9f30 c9bd 6a47 13be daf4 20be
00000370: 930a 2a3e 5440 a43e d6fb 63bd 404c 12be
00000380: e9ea eb3b 9839 bf3d 1a49 4abe cd0c 163d
00000390: c647 d6bd 456f 69bd 90f4 d63d 179b 19be
000003a0: 105b 853b 4da2 903d 08bb e3bd 03cd d73c
000003b0: 23e9 0dbd 9331 d93d e50e b5b9 00bb c23c
000003c0: eabf 083e 7cc0 953b 80db 45bd 3332 27bd
000003d0: 5e47 07be 619b 2c3d b514 60bd 8338 983c
000003e0: 9d5e 973d d1ed aabd 0cc5 0e3d eca8 0cbe
000003f0: 2001 1a3e e5fe 223b f14f b4bd 1dcc 05be

a2c_network.actor_mlp.2.bias f4 [128]
-0.29813507 -0.25076896 -0.30240604 -0.37882647 -0.34634984 -0.20464718 0.0153910415 -0.4713257
0.17730474 0.14878729 -0.2738013 -0.42941758 -0.101206414 0.0062437453 -0.5341684 -0.28330827
0.090088405 -0.17929882 -0.14797702 -0.20975704 -0.2247636 -0.41209134 -0.1335748 -0.5551564
-0.3761345 0.057888623 0.050199233 -0.6318477 0.0017785334 -0.20811506 -0.41804788 -0.68904597
-0.22987074 -0.70954037 -0.37017232 -0.3519476 -0.4911737 -0.3521109 -0.1751549 -0.24440159
-1.0857984 -0.15159068 -0.051227074 -0.20826505 -0.049020316 -0.34482744 0.027472796 -0.4796352
-0.3782571 0.26757744 -0.6211838 -0.318485 -0.3891614 -0.22934005 -0.09056682 -0.4266403
-0.11654472 -0.35032415 0.017322496 -0.28514877 -0.06745013 -0.28113133 -0.39229667 0.18257247
-0.16214512 -0.29146537 -0.6408918 -0.18695277 -0.056410957 -0.6692269 0.006256838 -0.99042946
-0.7763885 0.003227646 -0.2506324 -0.41035834 -0.08581459 -0.2847263 -0.35824433 -0.22707781
-0.09681484 -0.109044716 -0.20053549 -0.73881817 0.0047532474 -0.39563057 -0.27098706 -0.7509549
-0.27200457 -0.21606946 -0.886987 -0.048414305 -0.5008895 -0.24936178 -0.19810823 -0.2839246
-0.19647202 -0.19150029 -0.37828425 -0.23712292 0.07116533 -0.44423807 -0.2545449 -0.23427838
-0.45184696 -0.36892015 -0.50298643 -0.17288516 -0.31746757 0.07985415 -0.25749627 -0.05199384
0.09562285 -0.16728549 -0.15010875 -0.24101938 -0.5244667 -0.12550975 -0.6074833 -0.0148811145
-0.16655858 0.007934421 0.051638506 -0.22316797 -0.07786426 -0.13195086 -0.30672333 -0.29170007
00000000: 29a5 98be ca64 80be f7d4 9abe 8bf5 c1be
00000010: c454 b1be 088f 51be b52a 7c3c 9a51 f1be
00000020: 608f 353e b25b 183e af2f 8cbe 9fdc dbbe
00000030: 4f45 cfbd 5598 cc3b 43bf 08bf c80d 91be
00000040: 4580 b83d 1c9a 37be 4a87 17be 8dca 56be
00000050: 6e28 66be a3fd d2be d5c7 08be bb1e 0ebf
00000060: b494 c0be 9f1c 6d3d b69d 4d3d c5c0 21bf
00000070: ae1d e93a 1d1c 55be 5f0a d6be 5165 30bf
00000080: 3c63 6bbe 70a4 35bf 3a87 bdbe 7a32 b4be
00000090: 1f7b fbbe e147 b4be ce5b 33be 6944 7abe
000000a0: 71fb 8abf 963a 1bbe 7bd3 51bd 6f43 55be
000000b0: 87c9 48bd 398d b0be a10e e13c bf92 f5be
000000c0: eaaa c1be e9ff 883e e705 1fbf 7710 a3be
000000d0: 2a40 c7be 1ed8 6abe 197b b9bd 9970 dabe
000000e0: 00af eebd b05d b3be e8e7 8d3c 05ff 91be
000000f0: 4b23 8abd 72f0 8fbe 1cdb c8be 47f4 3a3e
00000100: 5f09 26be f33a 95be 7c11 24bf 8c70 3fbe
00000110: 2d0f 67bd 7452 2bbf 2906 cd3b c98c 7dbf
00000120: 66c1 46bf ea86 533b e452 80be 7d1a d2be
00000130: 8fbf afbd a5c7 91be cd6b b7be 1687 68be
00000140: dc46 c6bd d652 dfbd 2d59 4dbe 3023 3dbf
00000150: 21c1 9b3b 1790 cabe d1be 8abe 953e 40bf
00000160: 2f44 8bbe 5041 5dbe 9411 63bf 144e 46bd
00000170: 4b3a 00bf b258 7fbe e2dc 4abe 915e 91be
00000180: f62f 49be a718 44be 79ae c1be 5ad0 72be
00000190: 21bf 913d 2c73 e3be b653 82be ace6 6fbe
000001a0: 7c58 e7be 1ae3 bcbe b8c3 00bf cf08 31be
000001b0: 1c8b a2be 938a a33d 8dd6 83be 7ef7 54bd
000001c0: ead5 c33d e34c 2bbe 1cb6 19be c9cd 76be
000001d0: 7343 06bf a185 00be 0784 1bbf ebcf 73bc
000001e0: 558e 2abe 60ff 013c e682 533d 2586 64be
000001f0: 4c77 9fbd 201e 07be d70a 9dbe b659 95be

a2c_network.actor_mlp.4.weight f4 [64, 128]
-0.06772485 -0.0022351411 -0.08132735 -0.08106866 0.003873429 -0.00077943946 -0.036696002 0.09468801
0.090712674 -0.07637225 -0.8629949 0.052742753 0.20690173 -0.08165473 0.019315789 0.025363343
-0.06166974 -0.051280133 0.034256678 -0.0032760687 -0.059231747 -0.16525076 0.057374507 0.10903801
0.12070442 -0.011848256 -0.03570671 0.0014617334 0.1255438 -0.14312038 0.10070302 -0.13887574
0.06666444 0.1290879 0.03987595 -0.005975707 0.123109296 -0.17187132 -0.035917126 -0.10179644
0.11857565 0.042341642 -0.04174745 0.09588491 -0.08378882 0.07449077 -0.051935572 0.038932815
0.020427391 -0.24624713 -0.037375286 0.0030232533 0.070612796 0.087672524 -0.028717365 0.016617319
-0.07497608 0.060504198 -0.25125623 0.008223716 0.0103089865 -0.14139827 0.046919297 -0.061084304
-0.08296425 0.0036862073 -0.14964537 0.042332627 -0.016731123 -0.24820386 0.0009927199 0.12167693
-0.01139463 -0.14138667 0.099659964 0.11966704 -0.0821721 0.12154901 0.15632653 0.1663668
-0.039956775 -0.13124678 -0.065443225 -0.15799826 -0.107406765 0.09094362 0.117552474 -0.08091654
0.0036295576 0.06126568 0.23155898 -0.05419331 0.16750054 -0.04822704 0.008866337 -0.09744133
0.100606896 -0.08390296 0.14121012 0.051516734 -0.083350204 0.06751692 0.036479715 -0.03534345
-0.028010957 -0.026227595 -0.02765381 -0.029719068 -0.040288173 0.07426816 -0.10859086 0.035392325
-0.065046124 0.04299391 -0.08836616 -0.023992402 -0.04586236 -0.1586193 -0.019286793 0.05558732
-0.01548981 0.10413114 0.04268111 0.10575277 0.05832306 -0.017835231 0.038016368 -0.02418249
0.07923735 -0.041880365 -0.020045843 0.04784395 0.099047415 0.087241076 -0.17390633 0.038555328
-0.05611526 -0.114002526 0.036099 -0.103445955 0.0012576188 -0.01427539 -0.0025528655 0.07794764
0.020714005 0.07869731 -0.05710288 0.067101836 -0.106048256 0.012010734 -0.009420756 0.19799544
0.07779565 0.014408125 -0.042587105 -0.04717045 0.07375297 -0.015757887 -0.04498613 -0.009432437
0.005851843 0.016740065 -0.0007146734 0.05932246 -0.06458533 -0.0044513205 0.0642055 0.13730583
-0.026999518 -0.18104686 0.09903985 -0.03757108 0.09963734 0.09882943 -0.012641933 -0.06517719
0.09497339 -0.04231356 -0.0864507 0.07900346 -0.09436256 0.16023195 -0.08029777 0.16375469
-0.15914617 0.046691485 0.0076244175 -0.025067052 -0.09170504 -0.07797688 -0.0024160962 0.045327228
-0.07890174 -0.0056980927 -0.06582772 0.1170438 0.04430814 -0.13430029 0.046335913 -0.10970386
-0.03461928 0.12562798 -0.033499867 0.11084408 -0.03133371 -0.16115388 0.11107964 -0.025756026
-0.021386461 0.033540465 -0.06161643 -0.13604908 -0.00981529 -0.14768492 -0.05527952 0.27420363
-0.024398915 0.02121664 -0.05868965 -0.03855995 0.081427395 0.061444495 0.022643624 -0.011130572
-0.02331598 0.034758046 0.0006969362 0.0004210906 -0.012333491 -0.057377122 -0.045997273 0.03413781
-0.14692827 -0.04502946 -0.033779707 0.04459118 -0.12378385 -0.13274245 -0.036703568 -0.02242646
-0.09958461 -0.026565367 0.11070464 -0.14141582 0.07898976 0.032183208 0.04987778 -0.013057187
-0.053198174 -0.038889885 0.05691049 0.06596252 -0.07759421 0.094033085 -0.024564158 -0.030913198
00000000: 53b3 8abd 727b 12bb f48e a6bd 5307 a6bd
00000010: 5bd9 7d3b 4c53 4cba 8c4e 16bd caeb c13d
00000020: 91c7 b93d 0e69 9cbd 3ced 5cbf c908 583d
00000030: 0cde 533e 983a a7bd 253c 9e3c c9c6 cf3c
00000040: 6999 7cbd 1e0b 52bd bb50 0c3d 50b3 56bb
00000050: fd9c 72bd 7f37 29be 8801 6b3d 524f df3d
00000060: e133 f73d 301f 42bc 3341 12bd a297 bf3a
00000070: 8e8e 003e 268e 12be 633d ce3d 7135 0ebe
00000080: 5e87 883d 9e2f 043e f754 233d ddcf c3bb
00000090: ba20 fc3d 09ff 2fbe d61d 13bd a77a d0bd
000000a0: cad7 f23d 6e6e 2d3d 60ff 2abd 4f5f c43d
000000b0: 7999 abbd 9e8e 983d 65ba 54bd 0478 1f3d
000000c0: 5857 a73c 3528 7cbe d416 19bd c621 463b
000000d0: 719d 903d a78d b33d ae40 ebbc 0b21 883c
000000e0: 0f8d 99bd 40d3 773d a8a4 80be c4bc 063c
000000f0: 06e7 283c b5ca 10be 732e 403d 8933 7abd
00000100: 29e9 a9bd 4c94 713b a33c 19be fa64 2d3d
00000110: b50f 89bc 2729 7ebe 271e 823a c131 f93d
00000120: 8bb0 3abc abc7 10be 861a cc3d fe13 f53d
00000130: d949 a8bd b0ee f83d 1014 203e 0f5c 2a3e
00000140: b7a9 23bd 8e65 06be 1907 86bd 4cca 21be
00000150: 14f8 dbbd a640 ba3d 5abf f03d 92b7 a5bd
00000160: dfdd 6d3b b9f1 7a3d cc1d 6d3e cef9 5dbd
00000170: 4385 2b3e b789 45bd 1d44 113c 528f c7bd
00000180: fd0a ce3d 51d5 abbd 6399 103e 3603 533d
00000190: 83b3 aabd 5046 8a3d c16b 153d 4bc4 10bd
000001a0: 3c77 e5bc 41db d6bc 3e8a e2bc 6775 f3bc
000001b0: 3605 25bd e819 983d e364 debd 8bf7 103d
000001c0: e736 85bd 621a 303d 51f9 b4bd b78b c4bc
000001d0: 2cda 3bbd 196d 22be 56ff 9dbc 88af 633d
000001e0: f9c8 7dbc b542 d53d 63d2 2e3d e994 d83d
000001f0: 29e4 6e3d 311b 92bc 0db7 1b3d 5b1a c6bc
00000200: 3147 a23d bf8a 2bbd 2e37 a4bc 05f8 433d
00000210: 5fd9 ca3d 73ab b23d 8014 32be 31ec 1d3d
00000220: 1dd9 65bd 287a e9bd 8cdc 133d 79db d3bd
00000230: afd6 a43a 53e3 69bc fa4d 27bb 03a3 9f3d
00000240: 6bb0 a93c 0e2c a13d b6e4 69bd b06c 893d
00000250: d42f d9bd abc8 443c 8459 1abc 51bf 4a3e
00000260: 5353 9f3d 0e10 6c3c d16f 2ebd cd35 41bd
00000270: cc0b 973d af16 81bc 6043 38bd 828a 1abc
00000280: d1c0 bf3b 7622 893c ec58 3bba 1cfc 723d
00000290: 5045 84bd 62dc 91bb 2c7e 833d e699 0c3e
000002a0: 182e ddbc 5964 39be 68d5 ca3d 22e4 19bd
000002b0: a90e cc3d 1667 ca3d 1c20 4fbc 9e7b 85bd
000002c0: 6981 c23d fc50 2dbd 110d b1bd 91cc a13d
000002d0: 2841 c1bd d813 243e 2873 a4bd 4faf 273e
000002e0: 37f7 22be 923f 3f3d 40d6 f93b 6b59 cdbc
000002f0: dacf bbbd 58b2 9fbd 5e57 1ebb 0ba9 393d
00000300: 3c97 a1bd 11b7 babb afd0 86bd a9b4 ef3d
00000310: 747c 353d 0486 09be baca 3d3d 6bac e0bd
00000320: f2cc 0dbd 9fa4 003e 2837 09bd 3902 e33d
00000330: c757 00bd 8605 25be b97d e33d 4dfe d2bc
00000340: a932 afbc ba61 093d 8261 7cbd 7350 0bbe
00000350: 4fd0 20bc b73a 17be c76c 62bd 6b64 8c3e
00000360: 3ce0 c7bc 85ce ad3c 8f64 70bd 0af1 1dbd
00000370: 68c3 a63d 39ad 7b3d 1f7f b93c 015d 36bc
00000380: 2701 bfbc 745e 0e3d 99b2 363a d3c5 dc39
00000390: 6912 4abc 4604 6bbd a367 3cbd 17d4 0b3d
000003a0: 5d74 16be d070 38bd 975c 0abd 3ea5 363d
000003b0: 6382 fdbd a3ed 07be 7b56 16bd b2b7 b7bc
000003c0: 04f3 cbbd 9d9f d9bc 1db9 e23d 4fcf 10be
000003d0: 62c5 a13d 8ad2 033d a54c 4c3d d0ed 55bc
000003e0: 54e6 59bd 004b 1fbd f91a 693d 5c17 873d
000003f0: b7e9 9ebd 6b94 c03d c63a c9bc ad3d fdbc

a2c_network.actor_mlp.4.bias f4 [64]
-0.088093966 -0.031952098 -0.06619868 -0.276232 -0.5022566 -0.16976625 -0.08657332 -0.09264721
-0.13466968 -0.046407666 -0.28238285 -0.10921608 0.17206007 0.15546237 -0.65019614 -0.07718237
-0.097626396 -0.1788493 -0.05447254 0.14463712 -0.009128284 -0.22023992 -0.1511959 -0.12256859
-0.06984078 -0.11853759 -0.060018692 -0.23626752 -0.2448309 -0.12116595 -0.14556696 -0.13020724
-0.024878604 -0.56148463 -0.080686815 -0.72925735 -0.24513942 0.0064708935 -0.086405985 -0.09634195
-0.20380606 -0.20484944 -0.09689491 -0.1676775 -0.1372472 -0.07992132 -0.18866324 -0.05371907
-0.008755279 -0.16587833 -0.1738213 -0.19947617 -0.7378518 -0.17668502 -0.3314017 -0.03160703
-0.08334007 -0.17854896 -0.41963917 -0.5260948 -0.14347067 -0.16150813 -0.19697875 -0.038070302
00000000: 9c6a b4bd 34e0 02bd 2c93 87bd 486e 8dbe
00000010: e393 00bf 34d7 2dbe 5a4d b1bd d2bd bdbd
00000020: d9e6 09be f715 3ebd 7c94 90be aeac dfbd
00000030: 8430 303e 8731 1f3e 4173 26bf ca11 9ebd
00000040: 59f0 c7bd 4524 37be 991e 5fbd c11b 143e
00000050: cc8e 15bc 9386 61be 19d3 1abe 3e05 fbbd
00000060: af08 8fbd d6c3 f2bd 29d6 75bd 1df0 71be
00000070: f4b4 7abe db25 f8bd 810f 15be 0c55 05be
00000080: 37ce cbbc 75bd 0fbf 213f a5bd 9cb0 3abf
00000090: d405 7bbe ca09 d43b 9ff5 b0bd ee4e c5bd
000000a0: 89b2 50be 0dc4 51be d770 c6bd a7b3 2bbe
000000b0: 888a 0cbe caad a3bd f030 41be 8708 5cbd
000000c0: 4d72 0fbc 02dc 29be 36fe 31be 7b43 4cbe
000000d0: dbe3 3cbf ebec 34be 7cad a9be 6076 01bd
000000e0: 33ae aabd 8ad5 36be f2da d6be 26ae 06bf
000000f0: fae9 12be 6362 25be ccb4 49be 9bef 1bbd

a2c_network.value.weight f4 [1, 64]
0.04377925 0.00963953 -0.007700949 0.0007657281 -0.005662817 0.07391103 -0.0056349165 0.015478048
0.0048256833 -0.004624811 0.008499441 -0.0989593 -0.0026219217 0.26606753 -0.17435125 0.0040231715
-0.001295459 -0.004221534 -0.03007552 0.0053591304 0.031106375 0.1509071 0.03037276 0.19186595
0.19783895 -0.001530581 -0.0036260888 -0.026250273 -0.013023192 0.024180964 0.15961576 -0.00999671
0.0010527022 0.009415318 0.008782059 -0.0070728115 0.0047208956 -0.14023583 -0.00453974 -0.18999858
-0.15248227 0.11155293 -0.013701868 0.32296094 -0.0012215319 0.00765771 -0.0018672128 -0.017586986
0.18169805 0.039689813 0.002895567 0.12731166 0.01783707 0.0029140315 0.0047712214 -0.010350586
-0.0018377827 0.032427948 -0.0149963135 0.003482851 0.32213625 0.012458866 0.031964783 -0.0024559207
00000000: df51 333d 1fef 1d3c 3e58 fcbb 25bb 483a
00000010: 278f b9bb ab5e 973d 1ba5 b8bb a397 7d3c
00000020: c420 9e3b ba8b 97bb 3d41 0b3c 2cab cabd
00000030: 8cd4 2bbb 013a 883e 2289 32be cfd4 833b
00000040: 64cc a9ba cb54 8abb f060 f6bc a59b af3b
00000050: ccd2 fe3c 6487 1a3e 4bd0 f83c 8278 443e
00000060: 4b96 4a3e c79d c8ba ada3 6dbb d00a d7bc
00000070: 3a5f 55bc 2817 c63c 5072 233e 3ec9 23bc
00000080: d3fa 893a b542 1a3c a0e2 0f3c 0bc3 e7bb
00000090: beb1 9a3b fb99 0fbe 19c2 94bb fd8e 42be
000000a0: 5024 1cbe dd75 e43d cd7d 60bc 235b a53e
000000b0: cf1b a0ba 87ed fa3b 44bd f4ba 9512 90bc
000000c0: 0e0f 3a3e c991 223d 8ec3 3d3b fd5d 023e
000000d0: 0c1f 923c 56f9 3e3b e857 9c3b 8195 29bc
000000e0: c1e1 f0ba 2bd3 043d 19b3 75bc 8b40 643b
000000f0: 0bef a43e 4620 4c3c 81ed 023d 83f3 20bb

a2c_network.mu.weight f4 [18, 64]
0.23641811 0.03650661 0.14406936 0.08958259 -0.06209897 -0.10767032 -0.027984919 0.026700405
-0.10090758 0.037001166 0.08679618 0.04807687 -0.058592573 0.022690414 -0.04768138 -0.034084838
0.032568138 -0.23275174 -0.071148165 -0.007851947 0.11027044 -0.04782005 -0.04268331 -0.07160823
0.073624834 0.004714847 -0.11566097 -0.011213356 -0.06276091 -0.052638736 -0.051967718 -0.08583057
0.0035087096 -0.017335303 -0.028922277 -0.011799079 -0.014786392 -0.03565421 0.12958509 0.09241049
0.007347757 -0.05653639 0.09042843 0.020845504 -0.017644165 -0.114539035 0.0801827 0.0004963443
-0.012918681 -0.05394082 -0.005538034 -0.06178119 0.021843133 -0.0035913584 -0.048970424 0.09336309
-0.079471216 0.033618294 -0.30291772 -0.010061344 0.024744859 -0.05898834 -0.088363245 -0.0073632826
0.07861588 -0.072632015 -0.021658063 -0.056306925 -0.12305637 0.021406665 -0.016843414 0.14816964
-0.02915562 -0.030082654 -0.040022623 -0.034012165 0.012695229 -0.044054564 0.05281469 -0.01910485
-0.008587692 -0.051536553 0.078502804 0.06885998 -0.012283512 -0.040011536 -0.06465071 0.06686591
0.01890549 -0.055714607 0.020607665 0.028545117 -0.048970886 -0.0059468504 0.0032378112 -0.10431224
0.023710893 -0.07482482 -0.038098972 -0.036896642 0.12922181 0.00062513456 -0.0026112061 -0.016370388
-0.0017287383 0.022216622 0.059393656 0.023313057 0.016323058 0.056339305 -0.010547352 0.07324364
-0.010944404 0.023821782 0.010804343 -0.09319699 -0.00631535 0.027825585 -0.17670022 -0.004600077
0.12038745 -0.01599277 -0.113187574 0.03880711 -0.038479928 0.00745853 0.047323443 0.03571471
0.0439493 -0.0077928025 -0.044046424 -0.0047739856 0.13658653 0.013701702 0.06768199 -0.0058818334
-0.112420745 -0.07258882 -0.13018537 0.03583129 0.09001799 0.016501423 0.031896714 -0.0065947645
-0.021237655 0.03466679 -0.014265494 0.041422933 0.061782226 -0.01880365 -0.003011391 -0.10626264
0.014647495 -0.0026610543 0.027228596 0.14563368 0.022229398 -0.06807511 -0.066335894 0.00352996
0.10120955 0.08864624 0.0047900034 0.022915266 -0.0031946665 -0.031470083 0.063883394 0.068711735
0.05573574 0.078684784 0.069639675 0.07057247 -0.076097205 -0.0060477485 -0.15803084 -0.058568884
0.057876807 0.01775047 -0.037453014 -0.04366206 -0.050186887 -0.06147207 0.011237454 -0.07771725
-0.088730246 0.047538817 -0.27589175 0.083347686 -0.012810495 -0.049845003 -0.12196548 0.024396181
0.03100461 0.037515163 0.11166731 -0.046644423 -0.06943874 -0.010948638 0.027025012 0.033730645
-0.08400597 0.033664208 0.021927537 0.019963343 0.0049847052 -0.015931567 0.017868146 0.05626901
0.0114582265 0.005886928 0.08306515 0.09834549 0.023601279 0.0029017744 -0.028742347 0.0020623498
0.010945424 -0.009843751 0.019987077 0.03237654 -0.06687988 -0.03503582 0.026199358 -0.11805645
0.0106714545 -0.08420968 -0.011041865 0.0538323 -0.21118778 0.007105564 -0.01896705 0.04854177
0.06672185 0.025690626 0.012650535 -0.009238768 0.12045716 -0.015340327 -0.048596833 0.06398019
-0.04540321 0.09154287 -0.008274653 -0.09139429 -0.1450193 0.0014954779 0.21010233 0.05186095
0.11446805 -0.0013243438 -0.046569884 0.01760269 -0.033510532 -0.0063509466 -0.013824344 -0.022058498
00000000: 9717 723e f587 153d eb86 133e 1477 b73d
00000010: 7d5b 7ebd 4282 dcbd a140 e5bc cfba da3c
00000020: a2a8 cebd 898e 173d 32c2 b13d 41ec 443d
00000030: c4fe 6fbd 3fe1 b93c 8d4d 43bd 8b9c 0bbd
00000040: 2b66 053d 7956 6ebe 21b6 91bd 74a5 00bc
00000050: 78d5 e13d f5de 43bd b2d4 2ebd 56a7 92bd
00000060: 9ec8 963d 017f 9a3b a9df ecbd 39b8 37bc
00000070: cb88 80bd b79b 57bd 1adc 54bd f0c7 afbd
00000080: 61f2 653b c402 8ebc 69ee ecbc ed50 41bc
00000090: a042 72bc 260a 12bd f4b1 043e b641 bd3d
000000a0: 74c5 f03b b492 67bd 8a32 b93d 31c4 aa3c
000000b0: 7f8a 90bc 7193 eabd d436 a43d 1a1d 023a
000000c0: e0a8 53bc 0df1 5cbd 6578 b5bb 460e 7dbd
000000d0: 5ff0 b23c ff5c 6bbb 3695 48bd 2635 bf3d
000000e0: cec1 a2bd 56b3 093d 0818 9bbe 56d8 24bc
000000f0: bbb5 ca3c c29d 71bd caf7 b4bd b147 f1bb
00000100: 5d01 a13d 18c0 94bd 406c b1bc 17a2 66bd
00000110: fa04 fcbd 085d af3c 33fb 89bc c8b9 173e
00000120: c4d7 eebc e66f f6bc c3ee 23bd 5750 0bbd
00000130: a6ff 4f3c 8f72 34bd 3754 583d c681 9cbc
00000140: 64b3 0cbc fe17 53bd 14c6 a03d 7606 8d3d
00000150: c940 49bc 23e3 23bd 9767 84bd fff0 883d
00000160: b0df 9a3c 0035 64bd 68d1 a83c 73d7 e93c
00000170: b295 48bd ccdd c2bb 7531 543b a8a1 d5bd
00000180: 593d c23c c13d 99bd ab0d 1cbd ef20 17bd
00000190: b952 043e 12e0 233a c520 2bbb 311b 86bc
000001a0: d596 e2ba a2ff b53c c346 733d 06fb be3c
000001b0: efb7 853c 0bc4 663d cdce 2cbc c300 963d
000001c0: 2850 33bc e625 c33c b304 313c 10de bebd
000001d0: fff0 cebb 7bf2 e33c e7f0 34be 3ebc 96bb
000001e0: b28d f63d 4503 83bc e3ce e7bd 34f4 1e3d
000001f0: 219d 1dbd af66 f43b 3ad6 413d 9649 123d
00000200: 2e04 343d c45a ffbb 066a 34bd 186f 9cbb
00000210: 57dd 0b3e 1a7d 603c db9c 8a3d 65bc c0bb
00000220: d93c e6bd 72a9 94bd 504f 05be d5c3 123d
00000230: 5a5b b83d fe2d 873c 21a6 023d e518 d8bb
00000240: 97fa adbc c4fe 0d3d d2b9 69bc 18ab 293d
00000250: 5c0f 7d3d 1d0a 9abc c25a 45bb 3aa0 d9bd
00000260: 0cfc 6f3c 1565 2ebb 810e df3c ff20 153e
00000270: 6d1a b63c f76a 8bbd 1ddb 87bd e756 673b
00000280: f446 cf3d 298c b53d 76f5 9c3b ccb8 bb3c
00000290: 9c5d 51bb c6e6 00bd 4cd5 823d bdb8 8c3d
000002a0: 294b 643d 7d25 a13d 3f9f 8e3d 4d88 903d
000002b0: dad8 9bbd 312c c6bb d6d2 21be ede5 6fbd
000002c0: 3b10 6d3d 6f69 913c 5568 19bd fdd6 32bd
000002d0: c490 4dbd 23ca 7bbd 4c1d 383c 392a 9fbd
000002e0: 34b8 b5bd 10b8 423d af41 8dbe 31b2 aa3d
000002f0: 1ce3 51bc 462a 4cbd 0ac9 f9bd 80da c73c
00000300: 61fd fd3c 80a9 193d d5b1 e43d 390e 3fbd
00000310: e635 8ebd eb61 33bc 8f63 dd3c 2529 0a3d
00000320: 520b acbd 7be3 093d 61a1 b33c 2a8a a33c
00000330: bd56 a33b eb82 82bc 3860 923c 557a 663d
00000340: 49bb 3b3c 22e7 c03b 101e aa3d 5c69 c93d
00000350: 7857 c13c b22b 3e3b 1275 ebbc 7d28 073b
00000360: 7054 333c af47 21bc f0bb a33c 439d 043d
00000370: 52f8 88bd b881 0fbd 09a0 d63c 94c7 f1bd
00000380: 53d7 2e3c 2076 acbd f0e8 34bc 427f 5c3d
00000390: 9c41 58be cad5 e83b c960 9bbc bcd3 463d
000003a0: 77a5 883d 2675 d23c 3144 4f3c 345e 17bc
000003b0: 3eb2 f63d ff55 7bbc 790d 47bd 0c08 833d
000003c0: b7f8 39bd d47a bb3d 6992 07bc ee2c bbbd
000003d0: f07f 14be e903 c43a 1125 573e 266c 543d
000003e0: 3a6e ea3d 9b95 adba 10c0 3ebd 8433 903c
000003f0: 5742 09bd 9a1b d0bb 807f 62bc 06b4 b4bc

a2c_network.mu.bias f4 [18]
0.063904494 0.1349308 -0.061822206 -0.0342279 -0.10662508 -0.0038445003 0.056161802 0.08557557
0.062431846 0.001146611 0.27871802 -0.085077286 0.03102837 0.050888132 -0.013541575 -0.012987164
0.24222855 0.4034086
00000000: 5ce0 823d 4d2b 0a3e 4839 7dbd 8e32 0cbd
00000010: 405e dabd 03f4 7bbb eb09 663d 3f42 af3d
00000020: 89b8 7f3d e149 963a 21b4 8e3e 003d aebd
00000030: 352f fe3c 1370 503d 7bdd 5dbc 1dc8 54bc
00000040: c30a 783e 928b ce3e

exp_avg f4 [18]
0.0019003461 0.0006634926 -0.0014210024 -0.0047585154 -0.00320577 0.0017294647 -0.0059031057 -0.0036076286
0.00421403 -0.000555097 -0.0011300064 0.0025653818 -0.0015151866 0.0024262364 7.410886e-05 0.0024119334
-0.0010285947 0.0011596823
00000000: 0915 f93a 3cee 2d3a ee40 baba 52ed 9bbb
00000010: e517 52bb 35af e23a d76e c1bb f76d 6cbb
00000020: d915 8a3b ee83 11ba b91c 94ba f71f 283b
00000030: 3a99 c6ba 7e01 1f3b e46a 9b38 8711 1e3b
00000040: e9d1 86ba 7b00 983a

exp_avg_sq f4 [18]
0.00021058673 0.00018602947 0.00020733078 0.00022799494 0.00018536026 0.0001928469 0.00018541074 0.00019812993
0.00019724556 0.00019305244 0.00020424071 0.00021203735 0.00020515895 0.00017577202 0.00019349177 0.00020538269
0.00018985248 0.00019684943
00000000: f2d0 5c39 e810 4339 ef66 5939 ed11 6f39
00000010: 445d 4239 f236 4a39 d16a 4239 19c1 4f39
00000020: b4d3 4e39 1f6e 4a39 7329 5639 5856 5e39
00000030: f01f 5739 714f 3839 0de4 4a39 ff5b 5739
00000040: 2313 4739 5e69 4e39
