exp_log/single_spoon_w_finger_dist_rew/DualFrankaPPO_spoon2.pth (torch, 752816 bytes, 36 tensors)

value_mean_std.running_mean f8 [1]
00000000: 7180 17df 764d 4140
34.60519016883416

value_mean_std.running_var f8 [1]
00000000: 8e0f d757 7a8a 8640
721.3097378541586

value_mean_std.count f8 []
00000000: 0000 8000 c032 cc41
946176001.0

running_mean_std.running_mean f8 [74]
00000000: 16f2 90ee 39c3 bc3f 0e74 f018 058d c73f
00000010: e901 86b4 47cc b3bf ca4d c607 f8c5 a2bf
00000020: 5b75 ef63 384b ecbf 229e 1288 baf1 e03f
00000030: 5520 55d3 44b2 e13f 3bba 9050 d0be e1bf
00000040: 5145 b8a8 89f6 bfbf 6643 ae94 fad7 a73f
00000050: 2bd5 727d 43d7 e3bf f754 9a5e 3e0f e53f
00000060: 4d7d da1c 4a45 e53f 3c6a 87d8 13cb dc3f
00000070: 47c8 30a1 0885 ed3f 2664 4b01 76cb 7b3f
00000080: af19 a4d8 4d5e cbbf d3a9 ce13 d6e9 e1bf
00000090: 64b3 d2ed 905e 81bf bd38 f17e 3ca0 61bf
000000a0: 0549 911c d238 7e3f 0fea 64b5 3d91 85bf
000000b0: 66d7 c2b5 6714 8ebf 8670 d54e 9135 733f
000000c0: 8619 92cc d8a7 8c3f 2a35 5998 23b8 373f
000000d0: c501 c851 5012 02bf e816 a749 dc15 8b3f
000000e0: ca51 9d5e 3c58 90bf 94db a1f9 87f0 803f
000000f0: 875a 4f23 564c 6a3f 3b93 b8c5 536a 7abf
00000100: bf04 3be4 cf3f 913f b7bf e273 e3c4 7d3f
00000110: 9d0d 7cbf e6c2 5d3f 2bcc 1640 6026 553f
00000120: 992f 17eb 8b0a 8a3f 16a1 5b52 1891 423f
00000130: ea8c b7e3 19dd 453f ee46 57e3 a099 e33f
00000140: d2ce 7444 b158 c03f 9a5f e77b 3056 ba3f
00000150: 9fa0 5016 a3a9 e0bf 566a 5440 84d5 dc3f
00000160: b374 40e4 b856 da3f 5258 0d89 3889 a0bf
00000170: 6e22 5ba3 e402 ddbf 7de5 dfc9 29df a83f
00000180: 2af4 c604 53b6 e03f 6518 f2bd 73f6 d2bf
00000190: 2e7e f0e8 0a52 dc3f 7a84 9174 b1a1 d2bf
000001a0: eacc 3edd 40ae 60bf 0fe1 e4fb 32d3 d1bf
000001b0: 6a68 4800 c380 5fbf 1dfd 90ed 962c ee3f
000001c0: 469c 9def 5ed5 d43f 6b3b bd63 fac1 d43f
000001d0: 8508 5c00 19ae ccbf 275d 8f32 6d03 fabf
000001e0: 9a55 cf20 727e 04c0 0fe2 4661 cbec 0640
000001f0: 4ae4 05af c0a2 f93f 6bd1 2b53 f53e 823f
00000200: 8408 dfe0 46ec 913f e9cb 51b4 4345 c13f
00000210: d79a bbe7 dc7c f1bf 1e11 9e12 0682 fe3f
00000220: 96f9 dc03 9d56 e2bf c98b f609 0edb f43f
00000230: 826b cf41 e4d9 0c40 7c8b 89c1 d921 943f
00000240: 2200 cc09 df19 903f 6620 90b5 e307 823f
0.11235391687746019 0.18399108617532572 -0.07733581692992399 -0.03666663260369381 -0.8841821624625185 0.5295078904791277 0.5530113341892596 -0.5545426915685491
-0.12485561722885065 0.04656966271352907 -0.620027298943261 0.6581107948028649 0.6647081912559912 0.44989486833006587 0.9224894665005728 0.006785832364323096
-0.21381543234038022 -0.5597944628582873 -0.008481151826652052 -0.0021516019401480444 0.007378407238393563 -0.010530931566440164 -0.014687357172401948 0.0046897579280448295
0.01399201750087965 0.00036192769070882375 -3.4468723445260935e-05 0.013225289342595883 -0.015961592936337067 0.008271276765510462 0.0032102281934201535 -0.006449057803853016
0.016844986252867452 0.007267845618272809 0.0018164876364047185 0.0012908878273776385 0.01271542845906719 0.0005666130789139547 0.0006672264493627043 0.6125034752132856
0.12770667879669034 0.10287764573092631 -0.5207076488341221 0.4505320194454375 0.41154310503209074 -0.032296911935802655 -0.45330158188566017 0.048577600376982645
0.5222563832572906 -0.2962922434748008 0.44250748394003636 -0.29111896880755916 -0.0020362154845884233 -0.27851557349232875 -0.0019227890308060277 0.9429430618255626
0.32552312278716433 0.32433948269038265 -0.22406303899339633 -1.6258365607262222 -2.5617411196969444 2.865622291541747 1.6022345387302885 0.008909145928080084
0.017502887225199007 0.13492628388084363 -1.092984109121678 1.9067440726512994 -0.5730729175045777 1.3034801854307594 3.606392397062735 0.019660379827097327
0.01572369096084015 0.008804110506403794

running_mean_std.running_var f8 [74]
00000000: 8b57 cfec d6cb a43f 47ca 095f 4707 b43f
00000010: 86dc 5a24 26c9 a33f fbd9 0821 43da b03f
00000020: ced7 be76 7806 b83f bda3 4b26 20b8 bd3f
00000030: 9009 4b83 fec6 b83f 53ca 214a 161f dd3f
00000040: 7fbb d942 d525 d73f 9225 d28e aadc de3f
00000050: b25c 3585 c6e5 d03f c2dd e8f4 9152 c83f
00000060: b90b 712c 794c cb3f 4bee 0304 73e3 df3f
00000070: e7c1 f930 b19c 9d3f 4e6f 7689 e091 e33f
00000080: 1f72 8ed5 5958 dd3f e5e6 bb68 3ea8 d43f
00000090: c0f2 52be 60bb 6e3f 193a 8859 a023 5b3f
000000a0: eaea d0bc 8f1f 733f 38d4 ec7f cd5b 6c3f
000000b0: 4a9d 071d 99af 7c3f 7b19 0216 1700 7d3f
000000c0: b5a6 0820 4cb8 903f 9283 4866 d3e5 4e3f
000000d0: 6893 2045 1dbe 553f d2bb 64c5 4662 843f
000000e0: dabd 7e5a 8ce8 723f d7ad e704 f7d3 833f
000000f0: 776a 28c3 3221 7b3f d75c ce2f 31f8 713f
00000100: 2923 9f17 a548 823f e060 be58 9498 793f
00000110: 994c ece1 9f29 873f c1f0 e00c e7dc 713f
00000120: 0025 fff7 3958 bd3f 0479 5e10 6043 573f
00000130: e514 bfcd 55c4 563f ba07 6a69 a5e6 ce3f
00000140: 9584 dc59 c817 c13f 948a f079 ebbb cf3f
00000150: 53ae d676 afc8 793f 3fdf 9f5e a9f4 a13f
00000160: f863 78a3 9ea1 8d3f dc81 c06f 49ef bc3f
00000170: 5655 6ba9 dd74 c23f 5c02 9636 c28c b83f
00000180: 2fc3 fbc2 652c c53f 6a98 11b2 16b2 2e3f
00000190: 6237 5b15 6eb3 1b3f 17ff abcd ee1a 413f
000001a0: acde f021 6d32 8b3f afc8 2017 2f97 723f
000001b0: 6f8d 4085 bdf7 6d3f 6c10 c292 f131 883f
000001c0: 1c86 bbd4 33d2 d53f a186 fd97 6a1e cf3f
000001d0: 8d4f 8d8a 0fc2 d43f d8fc 1bda 04fc c23f
000001e0: 8ea7 ebc9 2435 e93f 20bf 9874 5366 da3f
000001f0: bbf2 5dec d2fe e93f c059 ef27 47db 273f
00000200: e49f 6d5d 83f6 223f 031a bcfa 0e31 1040
00000210: 4a88 a560 1841 ea3f bf4a c2f2 7c85 f93f
00000220: 0eac 93e5 84c0 de3f d942 3880 ecba 1040
00000230: cd3f 7103 eb4d ba3f 7e04 843b be88 1440
00000240: 7f47 3442 300a 283f 3373 0734 33ec 203f
0.04061767235513888 0.07823606558103179 0.03864402002130256 0.06583041721828657 0.09384873293933468 0.11609078345249109 0.09678641038320834 0.45502240409328926
0.36168414619799444 0.4822183985457623 0.2640243817199447 0.1900198407981702 0.21327128095626138 0.49825740234493726 0.0289180456297248 0.6115572628800494
0.4585175118934632 0.3227687857430353 0.003751458122307788 0.0016564432063465083 0.004668771242956929 0.003461743704429778 0.007003400897225129 0.007080164126938344
0.016328038649737937 0.0009429247116409126 0.0013270650711174285 0.009953072451564102 0.0046163065489248315 0.00968163474768506 0.006623457231877176 0.004387085090363749
0.008927621634840914 0.006249026755448223 0.011309861261486186 0.004361059704077686 0.11462747864347378 0.0014198721050671667 0.0013895833899238371 0.24141376158882882
0.13353828799975945 0.2479223580749773 0.006294904143412677 0.035069744873850166 0.014468421329228306 0.11302622774429189 0.1441914632074865 0.09589780647912377
0.16541740437198757 0.00023418929143587407 0.00010567054172413778 0.0005220094711546355 0.013279774282735822 0.004538711496978972 0.003658170850046431 0.011814009944153457
0.34095474028262784 0.24311573430445768 0.3243445256277873 0.1483160080897281 0.7877372688064825 0.4124954832686729 0.8123564354460407 0.00018201106646982372
0.00014467576576326837 4.047908704500972 0.8204461944226378 1.595089863087807 0.4805004350625389 4.182542804178149 0.10275143465082621 5.133538179333412
0.00018340911001551646 0.00012910962142500537

running_mean_std.count f8 []
00000000: 0000 0001 c032 bc41
473088001.0

a2c_network.sigma f4 [18]
00000000: b0b2 6bbf 5efd babf f5d6 86bf 0dda c3bf
00000010: 8ac6 a6be f60b a6bf fb3a 46bf 8052 abbf
00000020: 61f4 1ec0 8332 44be b7f4 95be 5b22 5dbe
00000030: 41aa 08be 5b6e 1cbe bdf3 87be 888f dfbd
00000040: 6d2c 32be b1a3 a2be
-0.9206953 -1.4608572 -1.053435 -1.5300919 -0.32573348 -1.29724 -0.7743375 -1.3384552
-2.4836657 -0.19159894 -0.29288265 -0.21595137 -0.13346197 -0.15276472 -0.26553145 -0.10916048
-0.1739976 -0.31765512

a2c_network.actor_mlp.0.weight f4 [256, 74]
00000000: 9ab0 a5bb ce8e 0dbe c3b3 de3d 6203 823d
00000010: 89fe aa3d 8e55 09be e4a0 823d 6acc a23d
00000020: 6eba 153d d6f1 f3bb 4d37 973a 958d 3b3d
00000030: ef4d e73c 0ff4 94bc c9fc 843d 61ed e13c
00000040: edec 15bd cad4 a3bd 9a37 c93d 717e 2cbe
00000050: 0167 fc3d c098 483d 0b1a e43c 6b29 91be
00000060: 35ad 2e3e e3c9 ed3d d99b 963d 08c2 463f
00000070: eb0d 00be a561 fbbe 3777 d2bc ed64 b1bc
00000080: a6c9 563d 8bfe d63c b3e1 9ebb 7c4d a1bc
00000090: a78e 0abe d58e b63c 6bb6 d53b cefe 17bd
000000a0: 168d 3ebc 2234 55bc da48 45be f774 e83d
000000b0: bc38 343e 171e ed3d b00a a53d c43b d43c
000000c0: f66c 223e 48c0 70bb c93f d23c c2ce 24bd
000000d0: d1d3 0c3d 7c20 2dbd 0861 ecbc 4d12 743c
000000e0: eb27 583e eee6 34bc f998 b43d 845c c63d
000000f0: 21b6 2d3c 40f5 8cbe 3516 d73c 62b8 303d
00000100: 5729 053c c097 673c 9fd2 c5bc 4025 bbbc
00000110: ceca 443d 45cb 57bc b232 d43d 3dd7 873c
00000120: 165c a1ba 1e37 323d d452 d83d e415 d2bd
00000130: 4bf0 013e 66cd 973d 4922 383e a5f4 6abe
00000140: 0abf a03e b0ba 93bc 4c8d 0cbe 0053 aebb
00000150: 453a a43d 929a 55bd 1ca9 563d 0773 f7bc
00000160: d6e0 61bc ccb4 31bd 9620 1d3d 90e9 7bbd
00000170: 1ba3 44bc 8361 193e 3c2f d43c 1ef5 b7bd
00000180: 537b 1abc 98a9 b4bd 12ef a6bd 924b 0f3e
00000190: a359 22be c811 10bf ca98 2ebc 4278 c63e
000001a0: 0078 24bd d971 62bb 0e57 febc d2f7 ce3c
000001b0: ffe5 a6bc b50f 15bd c049 c1bc eb01 0a3c
000001c0: 9b3e 423d 6cea 103d c5af 343d e118 9d3c
000001d0: ccd8 b33e 9dd6 bebd 87f0 1a3f 5304 00be
000001e0: 9bdb 3ebe 04c4 163e 24a9 1dbe 91fe cc3b
000001f0: 5465 313d 8e45 8fbd e600 3f3d 91a9 eb3c
00000200: cf80 153d 1f3f b3bd 2591 bfbb 8fdb a4bd
00000210: 3ff2 cc3c debf a33c 3a8d 1e3e 866a d3bd
00000220: c9bd 903e e38c f73d e0ad 9abe 3db8 edbd
00000230: cd19 c53c 8317 fc3d b054 15bd 51a8 afbd
00000240: 8095 a23c 272f 723c ab41 afbd f932 273d
00000250: 4ad1 27be 30fa 57be f1d2 05bd e874 673d
00000260: cb96 123e d924 19be 16b2 f63d 855c 2abd
00000270: a714 ca3c 2459 d03c dbd0 88bb 9615 5c3b
00000280: 9fc1 793d 5d59 4d3d f48a 703c 6230 443d
00000290: f228 87bd 2ce8 50bc ec81 d93d 64b0 87bd
000002a0: 0bd3 543e f1cb a23e 4182 d2bc d302 18bd
000002b0: ef5b 4fbd 100d 87bc a82f 92bd 4be0 b83e
000002c0: 96aa 3abf 3320 04bf 86bd 713d fc0c 23bd
000002d0: d0d1 193d a6b4 6ebc a982 7a3b 1893 643c
000002e0: b2eb 2e3c 16d1 95bc 7f15 bbbb 1988 c4bb
000002f0: 2901 27bb fe30 953b e6da 57be 12e5 523f
00000300: 8f03 76bd 87af 8abb 41a2 42be 45d5 373c
00000310: a714 f3bd dc79 a93c 6fa4 00bd 987b da3a
00000320: 7fd9 1b3e 9250 d53c 7a90 353c ca93 0f3e
00000330: 36d0 3fbd 8149 9bbe e250 613d 4f47 babd
00000340: 8edb 363d 0611 7fbe f26d 1d3e 9a5e 143d
00000350: a39f 0d3c e9c8 0b3d 8b78 193d 0c9f e6bd
00000360: 0197 57bc 0a43 dbbc 33fd b4bd 269e bd3c
00000370: 1431 9d3d 750a 043d 2c2d 12be 4f11 01be
00000380: 3c5b 3a3c 3d78 21be 9454 11be 5aa8 c83e
00000390: a31a 04bd 815f 02be ef01 98bd 7dbd ab3d
000003a0: 09b9 4fba 702d 6a3d d562 ddbc 134a 63bc
000003b0: d3f6 ad3d 902a fa3c d532 4d3c 86cd 2c3c
000003c0: 4df8 f23c 2fe0 a3bc 151e 1c3d 9a2b cb3d
000003d0: 5e1d 6ebc cb59 93bd 026a 5dbd 1416 98bd
000003e0: 2616 0cbd 5bf5 623e de03 a23d b257 efbf
000003f0: 7246 7ebd 754b 803d d588 4ebd 8356 27bc
-0.005056453 -0.13824007 0.108741306 0.063483015 0.0834933 -0.13411543 0.06378344 0.07949145
0.036554746 -0.0074446006 0.0011536867 0.04578932 0.028235404 -0.018182782 0.064935274 0.027579011
-0.036602903 -0.07999571 0.09825058 -0.16845109 0.12324334 0.0489738 0.02784445 -0.28351912
0.1705826 0.116107725 0.07353944 0.7763982 -0.1250531 -0.49097934 -0.025691612 -0.02165457
0.0524384 0.026244422 -0.004848683 -0.019690268 -0.1353098 0.022284904 0.00652199 -0.037108235
-0.011630317 -0.013012918 -0.19266072 0.11350434 0.17599767 0.11578005 0.08058679 0.025907405
0.15861878 -0.0036735702 0.02566518 -0.040236242 0.03438169 -0.042267308 -0.028854862 0.014896941
0.21108977 -0.011041386 0.0881824 0.09685615 0.010602505 -0.2753086 0.026255706 0.04314459
0.008127532 0.014135301 -0.024148284 -0.02284491 0.048044972 -0.013171022 0.10361232 0.016582126
-0.0012310769 0.043509595 0.10562673 -0.102580816 0.1268932 0.074122235 0.17981829 -0.22944887
0.3139575 -0.018033355 -0.13725775 -0.005319953 0.080189265 -0.052149363 0.05240737 -0.030206216
-0.013786515 -0.043385312 0.038361154 -0.06150204 -0.012001778 0.14978604 0.02590143 -0.08982299
-0.009428817 -0.0882141 -0.08151068 0.13993672 -0.15854506 -0.5627713 -0.010656545 0.38763624
-0.040153503 -0.0034552722 -0.03104737 0.025264654 -0.020373343 -0.036391933 -0.023594737 0.008423309
0.047422986 0.035379812 0.04411294 0.019176902 0.3512634 -0.09318278 0.60523266 -0.1250165
-0.1863846 0.14723212 -0.15396553 0.0062559326 0.043309525 -0.069956884 0.046631716 0.028767379
0.036499795 -0.08752274 -0.00584616 -0.0804969 0.025017856 0.01998895 0.15483561 -0.10323052
0.28269795 0.12087419 -0.3021078 -0.11607406 0.024060154 0.12309172 -0.036457717 -0.08577026
0.019846678 0.01478175 -0.08557447 0.040820096 -0.16388431 -0.21091533 -0.032671873 0.056507975
0.14315335 -0.14955463 0.12045686 -0.04159214 0.02466805 0.02543313 -0.004175288 0.0033582202
0.060975667 0.05013405 0.0146815665 0.047897704 -0.065996066 -0.012750667 0.10620484 -0.06625441
0.20783632 0.3179622 -0.025696876 -0.03711207 -0.050624784 -0.01648572 -0.07137996 0.36108622
-0.72916543 -0.5161163 0.059018634 -0.039807305 0.03755361 -0.014569437 0.0038224852 0.0139510855
0.010676311 -0.018288177 -0.0057093496 -0.0059976694 -0.002548287 0.0045529595 -0.21079597 0.82380784
-0.060061987 -0.0042323503 -0.19007207 0.011220281 -0.118691735 0.02068799 -0.031406816 0.0016668914
0.15219687 0.026039395 0.011081809 0.14021221 -0.046829425 -0.30329517 0.055008776 -0.09095632
0.044642977 -0.24908838 0.15373972 0.03622303 0.008644017 0.03412715 0.037468474 -0.112608045
-0.013158561 -0.026765365 -0.088373564 0.0231467 0.076753765 0.032236535 -0.14275044 -0.12604259
0.011374291 -0.15768524 -0.1419242 0.39190942 -0.032251965 -0.12731744 -0.07422244 0.083857514
-0.0007923996 0.05717224 -0.027024666 -0.013872641 0.084943436 0.030537874 0.012524326 0.0105470475
0.029659415 -0.02000436 0.038114626 0.09920426 -0.014533369 -0.07194861 -0.054056175 -0.07426086
-0.03420081 0.22163908 0.07910894 -1.8698637 -0.0620789 0.06264392 -0.050423462 -0.010213497

a2c_network.actor_mlp.0.bias f4 [256]
00000000: 65be e63c 45a2 abbe a891 3bbf 4fe0 1bbf
00000010: 389f 9bbd f7dd b2be 3212 a83c 8d5d b6be
00000020: 516a 013f aca8 3dbe 4c56 b2be 9d4b 21be
00000030: 12ac 39be df98 5b3e c789 42be e971 4dbe
00000040: 44a8 8dbd 0d6c 9abe 0edb 4b3e 5a05 5ebe
00000050: 6a52 2a3d 2d11 7abe e683 133c 3df3 96be
00000060: ebeb 26bf 897c 16bf 11a9 27bf d595 89be
00000070: 12c9 2dbe 461b 87be 329e 583d 9991 8d3d
00000080: 7204 5cbf a1e3 72bf 219b 3dbd 7b80 02bf
00000090: 9569 acbe dba1 bfbe a0f0 babe b0f0 14bf
000000a0: 54d3 e73d bf47 c2be f20f fbbe fb16 39be
000000b0: 44c9 05bf f51c 1cbe 91b0 fb3d 7fac 563e
000000c0: e801 90be 7d78 c0be 9bcb b1bd b06c 25bf
000000d0: 7ec8 dfbd eb9e a4be b5e7 993b acb5 0dbf
000000e0: 97a5 a93c afb2 aabe ad5a be3d 1105 51be
000000f0: a0b3 8cbe 7bb6 00bf a344 81bf 7cc7 333d
00000100: 0ccb 133e 64fa e53e 7803 94be eb04 d5be
00000110: 8d99 24be f150 4dbe 4486 bcbd 20da 31be
00000120: 828c ffbe 7d41 51be 566c 9a3d 2b91 d6be
00000130: 646a 0ebe bfc8 90be 7c4d 41be af30 cebd
00000140: 9e33 0fbf bbe7 15be bd72 bbbe f4fc 01bf
00000150: 88c7 1abf d953 fcbe f5b7 713d 96ab af3e
00000160: a007 423e ecfa 66be 6e55 0cbf dd16 48be
00000170: fa82 8bbe f812 cb3b 246a ecbe b7ea 63be
00000180: 915b a5be cfd4 05be 214f 17bf c4c0 67be
00000190: de2c 89bc cf67 15bf 6a9f 9ebe b0d6 363c
000001a0: 2ee9 22bf ef2b afbe 2b4e 00be e08b 0e3e
000001b0: 4ce5 6f3e 0129 48bd d0fd d5bd 837e 30bf
000001c0: eee9 8abe 23a6 d9be fe44 1bbe 774b 093f
000001d0: f7b4 17be 67a2 0dbe 2089 1ebe 78e7 f93d
000001e0: 8f90 0a3d 6c45 4dbe 5491 e4be cf24 3abe
000001f0: 46b6 ffbe 1323 c5be 76a1 f4be 4f5b 96be
00000200: 5954 703e 5fc2 cdbe d2a9 a4be 63e0 12bf
00000210: f742 703d 351d 25bf 861c cbbe 27d2 a8be
00000220: ff6f a0be f1bb 08bf 8ac8 37bf 1f74 a9be
00000230: bdc0 f5bd 6e3c 42bd bf58 e8be 9430 bfbd
00000240: e168 45bf 1a19 afbe ca25 d8be 5616 94be
00000250: 3496 d7be 9868 7dbd 5425 ffbe 8318 e2bd
00000260: d348 953d dfeb 44be 09ff bc3d 483b 19bf
00000270: b23d 023e a6fb 343d 322e 88be 7d9b 9fbe
00000280: a215 bcbe 76a8 75bd 3bf5 d0be 00f9 39be
00000290: 1623 9bbe ee2d 77bd 0071 fabe 9c22 e0bd
000002a0: 70a0 e3bd eedd 7a3d 9ff7 85be 3fb7 9fbe
000002b0: 5b6c 663d d140 55be 948a ef3d 093b 31bf
000002c0: a511 23be 00b2 44be ca68 4abf 4b1b 753d
000002d0: 1690 e0be e5fa e1bd c340 4dbe 0c77 a6be
000002e0: dc19 44bf 572f d93d 278b 2cbf c97f 8fbe
000002f0: 8191 1ebf 8593 edbe 1a99 30be 7e75 86be
00000300: e45e fcbe 5d61 a8be 910d 04bf 5ad8 05bd
00000310: 805b 8bbe 9176 02be f95e 24bf 6a11 41bf
00000320: b92b a0be c733 97be a2e3 8ebe 1c62 4cbf
00000330: 25bf 97bc 42de 1a3e 8081 f2be 029d a9bd
00000340: a117 0d3f d5eb f8be e1fc 09be f6e2 4ebc
00000350: 4389 0ebf 5cd8 64be ce02 d4be 0a2d d6be
00000360: 1254 27be 6245 c3be 6412 cf3d 7f45 79bc
00000370: 92bc 74be 63d9 18be e29a adbe 44f9 3b3e
00000380: c487 bcbe a2c2 16be 6509 a33d 112d 10bf
00000390: e15d f0bb 6e43 963e 6ee1 07bf be09 2cbf
000003a0: 272c 2cbd 7c01 6dbe 1496 d8be 68dc 54bd
000003b0: 6ec1 62be c8ef aabe 0cc5 d0bd 8180 73be
000003c0: 8ef6 33be fe2c 87be cfbc fabd 45f9 c9bd
000003d0: b6b5 1dbf a106 eabd b458 b9be ca9f e9be
000003e0: 506c 3c3d 55fb e2be a871 e7be 930b 87be
000003f0: 5ed7 23bf 87cf 20bf b41a 0b3c 707c 00be
0.028166959 -0.3352224 -0.7326913 -0.6088914 -0.07598728 -0.3493497 0.020516489 -0.3561825
0.5055285 -0.18521374 -0.34831464 -0.157515 -0.18132046 0.21445034 -0.1899787 -0.20062985
-0.0691686 -0.3016056 0.19907781 -0.21681729 0.041582502 -0.24420615 0.009003615 -0.2948245
-0.6520373 -0.58783776 -0.6549235 -0.26872125 -0.16971233 -0.26387995 0.05288524 0.06912536
-0.85944283 -0.94878584 -0.04629052 -0.50977296 -0.33674303 -0.37428173 -0.36511707 -0.5817976
0.113196045 -0.37945363 -0.49035603 -0.18075173 -0.5226023 -0.15245421 0.12289537 0.2096424
-0.28126454 -0.37591925 -0.08681413 -0.6461897 -0.10926913 -0.32152495 0.004696811 -0.55355334
0.020708842 -0.3333945 0.09294639 -0.20412089 -0.27480793 -0.50278443 -1.0099071 0.043891415
0.14432925 0.44917595 -0.28908896 -0.41605315 -0.160742 -0.20050408 -0.09205297 -0.17368364
-0.49911886 -0.20435138 0.07540195 -0.4190763 -0.13907772 -0.28278157 -0.18877214 -0.100678794
-0.55938137 -0.1463918 -0.36610976 -0.507766 -0.6046071 -0.4928272 0.059013326 0.34310597
0.18948221 -0.22556657 -0.54817855 -0.19539972 -0.27248365 0.0061973296 -0.4617473 -0.22257505
-0.32296422 -0.13069461 -0.59105116 -0.22632128 -0.016745027 -0.58361524 -0.30980998 0.011159584
-0.63637054 -0.34213206 -0.12529819 0.13920546 0.23427314 -0.04886723 -0.104488015 -0.6894304
-0.271316 -0.42509565 -0.15163037 0.53630775 -0.14815126 -0.13831483 -0.15481997 0.12202352
0.033829268 -0.20046014 -0.44642127 -0.18178104 -0.4994375 -0.38503322 -0.47779435 -0.29366538
0.23469676 -0.40187356 -0.32160813 -0.57373637 0.058657613 -0.6449769 -0.396702 -0.32972834
-0.31335446 -0.53411776 -0.71790373 -0.33096406 -0.119996525 -0.04742091 -0.45380208 -0.093354374
-0.7711316 -0.34198838 -0.4221633 -0.2892329 -0.42106783 -0.061867326 -0.49833167 -0.110398315
0.07289281 -0.19230603 0.092283316 -0.5985608 0.12718847 0.044185303 -0.26597744 -0.31173316
-0.36735255 -0.05997511 -0.40812096 -0.18161392 -0.30300206 -0.060346536 -0.48914337 -0.10944101
-0.111145854 0.061246805 -0.26165482 -0.31194493 0.05625568 -0.20825507 0.116963536 -0.69230705
-0.159247 -0.19208527 -0.79066145 0.05984048 -0.4385993 -0.110341825 -0.20044236 -0.325127
-0.7660196 0.106047325 -0.6739983 -0.2802718 -0.6194077 -0.4640161 -0.17245904 -0.26261514
-0.49291146 -0.32886782 -0.515832 -0.032677032 -0.27218246 -0.12740542 -0.64207417 -0.75417197
-0.31283358 -0.2953169 -0.27908045 -0.79837203 -0.018523762 0.15123847 -0.47364426 -0.082819
0.5511418 -0.48617426 -0.13475372 -0.012627354 -0.55678195 -0.2234816 -0.4140839 -0.41831237
-0.16340664 -0.38138872 0.101109296 -0.015214323 -0.23900059 -0.14926676 -0.3390723 0.18356806
-0.3682233 -0.14722684 0.07960776 -0.56318766 -0.00733541 0.2934832 -0.53078353 -0.67202365
-0.042034294 -0.23145097 -0.42302 -0.05196801 -0.221441 -0.33386064 -0.10193834 -0.23779489
-0.17574522 -0.26401514 -0.12243044 -0.098619975 -0.61605394 -0.114270456 -0.36200488 -0.45629722
0.046001732 -0.44332376 -0.452039 -0.26376018 -0.640005 -0.6281666 0.008490253 -0.12547469

a2c_network.actor_mlp.2.weight f4 [128, 256]
00000000: 8395 a03d dcfc c03e 3e1e 9a3d 8769 b63c
00000010: 1b9f 1d3d 5c06 7fbd b300 b43c 41dd ce3d
00000020: 8a58 8fbe 02ae 603c 4bc1 233d 4ac0 c43d
00000030: 1511 463e ae20 c4be eda8 36be 880f 603d
00000040: f485 2b3d 8d1e 2fbe e4bb 9ebe 7a93 253e
00000050: 4a0f 21be 0628 143e d11d 23bd 1973 d93d
00000060: d80c 453e 6eec 5c3e a9f9 b13c 1599 783e
00000070: 9d34 41bd 9281 a33e 4d09 36bd ad06 3b3e
00000080: 69ae 4b3e e645 143e ee5a bbbe 9d95 a33d
00000090: ed47 e23d e329 2a3d 1a26 933e 2c81 903d
000000a0: 4e33 463e 9020 253e 3a07 3a3e 4f49 93bc
000000b0: 6042 b23e ef07 2abe def8 00be a009 4ebe
000000c0: 4fda 383e fb2c f7bd 84d7 f0bd 3606 4c3d
000000d0: 1892 f2bc fef5 dc3d 55b6 55be 1025 173e
000000e0: afbe 913d 3579 063e 9c4c 1e3e d913 0cbe
000000f0: a208 243b c487 cbbc 1f0b 6b3e 0d72 c9bd
00000100: 0c46 bcbd 04ae 4e3d c728 433d d1bf 6e3e
00000110: 0f45 083e b357 b23d e8c4 3e3e baf5 283e
00000120: 50ff 133e 9125 303e 6eb6 06bd 65e2 d23e
00000130: 1586 323e e9c2 d43d f8a9 423e 8914 2c3e
00000140: abf2 323e d525 7d3e 1503 453e 1b5d cf3d
00000150: c7a8 ce3e a49d 3b3e 28dd 983d b248 7bbd
00000160: c542 9b3c f1ce 40be 4f1f d43c 06b5 0abd
00000170: 5d40 013e b2f6 6abe 90e9 26be 174e 02bc
00000180: f344 b23d b64b b03d 157f 2b3c 0f6b c13c
00000190: 6455 da3d dc42 78bd a638 0f3d b4e7 40be
000001a0: 568a 593e 75a0 de3d 27aa ebba 910d 8c3d
000001b0: d358 0d3e 0af3 8fbb aaa9 b23d 1598 bf3b
000001c0: ef3e 8ebd 3488 613d 3618 913e 071a 0c3e
000001d0: bca2 4f3e 4c7a ccbd 559b 3ebe 9186 493d
000001e0: 7820 29bd 50af 503d 1570 a03d db67 43bd
000001f0: 24e3 ae3d b8b7 a83c 3bde fdbc 242f 073c
00000200: b6c3 ad3a 2751 1b3e 2d23 2539 ac21 b33e
00000210: 1e97 e4bd b562 8dbd 20d5 ed3d 5aa1 b73e
00000220: cc01 8a3e 60bf ce3d e4f5 b43d 6540 27bd
00000230: 286c 06be 8db7 da3d 5b4c b23c f561 4a3e
00000240: 66d8 e53c 1af5 6ebd e6eb acbd 7fff 4e3d
00000250: 0369 273e 1b3f ff3d 0772 763e eacf f63d
00000260: 96df 733e 6773 82bd f180 90bd 18e4 7a3e
00000270: 337e 9a3e df8b 593e 989a 91bd 9b4b 9bbd
00000280: 7461 db3d b564 9abe 1f6f 3a3e b97b 8b3d
00000290: 0378 993e 7f8e aebe 13db 103e 092e cabd
000002a0: a618 cd3c 74e4 a73e 58af ad3d 0a9e c03c
000002b0: 7fe3 6d3d d473 2bbe 2bdd abbd 4d8e 723e
000002c0: 46df 3f3d 4463 ae3d 44d7 b43e d60c 3dbd
000002d0: 516b 843e afe3 ee3d 284a d1bc 3b40 e4bd
000002e0: 0610 5a3e 35d6 c0bd abb2 f03c 1914 3a3b
000002f0: 4650 03bd 5285 7c3d 7a36 c7bd 9d27 f6bd
00000300: b37e 5a3e de79 1bbe 6cb4 11bc 7abb bdbd
00000310: 79b3 453e 9a54 a23e 48d6 a9bc ac90 4d3d
00000320: 23ea 2e3d aa83 033f 1c84 673e 0487 b43d
00000330: b712 243e 7803 67bc df5d 62bd 7ce1 8dbb
00000340: f1d1 b2bc 237b 373e 9ee1 30bd 4f36 1a3e
00000350: 0f4f 01be d2c7 903d 831a 433e 6890 e23d
00000360: d649 0bbe 05b2 04be e132 a23d b7a9 64bd
00000370: c9f9 ca3d bea7 283d 12a5 f1bc 92c3 8fbe
00000380: 7fb5 a53e 6989 773e 31d2 c1bd 2c07 4a3e
00000390: 21c6 853c 0a9a 2f3d 277d 0abb 7f31 053d
000003a0: a310 09bd dfec 11be 8c04 a53d 36a5 0fbe
000003b0: fd83 c53d 7c83 1f3f 123f a53c 2802 8cbc
000003c0: 432f bdbd 6b82 223d ce19 cd3d c8e9 8dbd
000003d0: abf1 233d fece 8abd 0451 0b3e 1ce0 9a3c
000003e0: 8e9e adbd 5fe3 443e b57c 873e b1ad 3cbd
000003f0: e5ee 333e f148 a23d 5a83 d33a 5871 c83d
0.07841017 0.37692916 0.075252995 0.022267116 0.038481813 -0.062261924 0.02197299 0.101007946
-0.27997237 0.013713362 0.03997926 0.09606989 0.19342454 -0.38306183 -0.17837878 0.05470231
0.041875795 -0.17101498 -0.31002724 0.16169539 -0.15728489 0.14468393 -0.039823357 0.10617656
0.19243181 0.21574566 0.021725493 0.24277146 -0.047169317 0.31934792 -0.044442464 0.18264265
0.19890751 0.14479789 -0.3659281 0.07987521 0.11048875 0.041543853 0.28740007 0.070558876
0.19355509 0.16125703 0.18166819 -0.017979292 0.34816265 -0.16604589 -0.12594935 -0.20120859
0.18052028 -0.12069126 -0.11759856 0.04981061 -0.029610679 0.10789107 -0.20870335 0.14760232
0.07116448 0.13132174 0.15458912 -0.13679446 0.002502956 -0.024845012 0.22953461 -0.098362066
-0.09193048 0.050458923 0.04764631 0.2331536 0.13307594 0.087081335 0.18629801 0.16499987
0.14452863 0.1720183 -0.032888822 0.4118835 0.1743396 0.10388739 0.1901015 0.16804709
0.17475383 0.24721463 0.19239457 0.1012518 0.40363142 0.18321854 0.07464057 -0.061348625
0.018952737 -0.18828942 0.025893835 -0.033864044 0.12622209 -0.2294567 -0.16300035 -0.007953188
0.08704557 0.08608191 0.01046731 0.02361062 0.10660818 -0.060610637 0.034966134 -0.18838388
0.21244177 0.108704485 -0.0017979786 0.06838525 0.13803415 -0.004392986 0.08723767 0.005846987
-0.069455974 0.055061534 0.28338784 0.13681804 0.20276922 -0.09984264 -0.18613942 0.0492006
-0.04129073 0.05094844 0.07833878 -0.047706466 0.085394174 0.020595416 -0.030989757 0.008250985
0.0013257179 0.15167676 0.0001574873 0.34986627 -0.11161636 -0.069035925 0.11612916 0.3586529
0.26954496 0.10095096 0.088359624 -0.040832896 -0.13127196 0.10679541 0.021764925 0.1976393
0.028057288 -0.058339216 -0.084434316 0.05053663 0.16348653 0.12463208 0.24066935 0.12051375
0.2381576 -0.063696675 -0.070558436 0.24501073 0.30174407 0.21244763 -0.071095645 -0.0758278
0.10711947 -0.30154958 0.18206452 0.068107076 0.29974374 -0.3409309 0.1414607 -0.09872062
0.025036167 0.32791483 0.0848071 0.023512859 0.058078285 -0.16743404 -0.08391794 0.23687096
0.04684379 0.08515027 0.35320485 -0.04615482 0.25863126 0.11664521 -0.025548056 -0.111450635
0.21295175 -0.09415857 0.02938207 0.0028393327 -0.032058977 0.06165058 -0.097271875 -0.120192744
0.21337394 -0.15183207 -0.008893114 -0.09264274 0.19306745 0.3170517 -0.02073206 0.050186798
0.04270376 0.5137278 0.2260899 0.08814815 0.16022764 -0.014099948 -0.055265304 -0.0043298583
-0.021828623 0.17918067 -0.043183915 0.1505978 -0.12627815 0.07069363 0.19053082 0.110626996
-0.13602385 -0.12958534 0.07919861 -0.055825915 0.09910924 0.041175596 -0.029497657 -0.28078896
0.32365033 0.24173512 -0.09463919 0.19729298 0.016329827 0.042871512 -0.0021131726 0.032517906
-0.03346313 -0.14250515 0.08057508 -0.14027867 0.096443154 0.62310004 0.020171676 -0.017090872
-0.0923753 0.039675158 0.100146875 -0.06929356 0.040025394 -0.06777762 0.13605124 0.018905692
-0.084775075 0.1922736 0.2646233 -0.046064083 0.175716 0.07924069 0.0016137168 0.097872436

a2c_network.actor_mlp.2.bias f4 [128]
00000000: 73a1 9cbe 34e3 f2bd df5d ddbe 5153 41bf
00000010: b64e f1bd e46f 77bf 338b e2bd 9704 27bf
00000020: de2d 73bd 6400 71be 1d5e 10bf d3dc 43be
00000030: 5482 05be c925 7fbe 2bb2 f3be 73bf f0be
00000040: c289 94bc 1a7b d2bd d7a9 09be cf7b 2fbe
00000050: 95d5 a1be 00a0 a9be a3b0 17be b818 94be
00000060: 4112 c1bd d74a 903c 333e 79be 20d5 14bf
00000070: 92df 90be c7f8 013e 0c99 71bd 56d5 02bf
00000080: bbc0 4bbe ed06 33bf f14e a6be 2ab1 01bf
00000090: ee7d eebe 1d1b f0bd c194 52be f8be 5cbe
000000a0: aa05 f1be 60e7 22be 8313 59be 0e4b 44be
000000b0: c677 83bd 4ade afbe b558 353d aa0e f5ba
000000c0: 2082 79be 03f3 513d db62 afbe bbf6 8abe
000000d0: fea3 9ebe 9818 f5bd 0d3b 7bbd 4baa afbe
000000e0: 1628 8a3c d0dd 4ebe 24b8 45be cca3 4f3d
000000f0: 8101 f0bd eb25 eebd b111 78be f10a 86bd
00000100: dc87 7cbe 2bf0 8bbe 99f0 cbbe c329 68bd
00000110: 15c3 0cbe 7d78 c8be f7a4 0f3e 4d9c 29bf
00000120: 6edf a8bc 0f69 443d 4ca1 be3c 478a 0ebe
00000130: 1987 3dbe 75a8 f2be a746 93be 6cc8 40be
00000140: c010 7cbe 1518 3ebe 24d9 54be cd5d 8fbe
00000150: 3052 37be f761 23bd 7be3 a3be 89f2 60bf
00000160: 6cf0 2fbf 0deb eabe 4836 f3be 02c8 f9bd
00000170: cd88 90be c47b 2bbe bd4a 3ebe b2f5 85be
00000180: 6fe9 95be dde4 a4be eee4 76be fb27 e1bd
00000190: 04b6 92be 3578 6abe 052e 9f3d e081 a3bc
000001a0: c2c9 15bf be3d 81be c06b 86be e966 7bbe
000001b0: 3fed a8be 2870 6fbe 69ee 06bf 69a4 903e
000001c0: a123 c2bd b341 69be 7ef9 6abe ccb4 7ebe
000001d0: 3543 d1be 015d 67bd fb59 143e f239 9dbd
000001e0: 296a 8d3e a4c7 153d 6b62 a5bd 53af 5abc
000001f0: c501 2a3e c33f 6abe c1b7 acbd 6ea7 18be
-0.30591926 -0.11859742 -0.4323568 -0.75517756 -0.11782591 -0.96655107 -0.110617064 -0.6524138
-0.059369914 -0.23535305 -0.56393605 -0.19127207 -0.13037997 -0.24916758 -0.4759687 -0.47021064
-0.018132094 -0.10277386 -0.13443695 -0.17137073 -0.31608263 -0.33129883 -0.14813475 -0.2892511
-0.0942731 0.017613811 -0.24340133 -0.581377 -0.2829557 0.12692557 -0.058983847 -0.51106775
-0.1989774 -0.6993244 -0.32482103 -0.50660956 -0.46580452 -0.117239214 -0.20564558 -0.21557224
-0.47074634 -0.15908575 -0.2119885 -0.19169256 -0.06419329 -0.3434928 0.04427405 -0.0018696387
-0.24366045 0.051257145 -0.34255108 -0.27141365 -0.3098449 -0.119675815 -0.061335612 -0.3430961
0.016864818 -0.20201802 -0.19308525 0.05069332 -0.11719037 -0.11628326 -0.24225499 -0.06545056
-0.24661201 -0.2733167 -0.39832 -0.056680452 -0.13746293 -0.39154425 0.14027773 -0.6625412
-0.020614352 0.047951754 0.023270272 -0.13919936 -0.18508567 -0.47394148 -0.2876484 -0.18826455
-0.24615765 -0.18563874 -0.20785958 -0.28001252 -0.17902446 -0.03988835 -0.3200949 -0.8787008
-0.6872623 -0.45882455 -0.4750235 -0.121963516 -0.2822937 -0.16746432 -0.18583198 -0.26164013
-0.29279658 -0.3220586 -0.24110767 -0.10993954 -0.28654492 -0.22897418 0.077724494 -0.01995939
-0.58510983 -0.25242418 -0.26254082 -0.24550976 -0.32993504 -0.23382628 -0.52707535 0.28250435
-0.09479452 -0.22778969 -0.22946736 -0.24873656 -0.40871587 -0.05648518 0.1448745 -0.07677068
0.27620056 0.036567345 -0.08075412 -0.013347465 0.16602238 -0.22875886 -0.08433486 -0.1490762

a2c_network.actor_mlp.4.weight f4 [64, 128]
00000000: 583d eb3d ee93 093d 8d3a 31bd 7677 89be
00000010: 1ed1 babb 9564 90bd f005 25bc 7867 113d
00000020: d4e7 113e 5629 e1bd 3944 d9bc cc59 313a
00000030: e3b7 a03d d767 b2bd f730 edbd d94e 153e
00000040: a2df f4ba 1d8c 94bc 418b 98bc de07 403c
00000050: 0024 c4bc 3b28 f63c 01d5 26be a7d4 503d
00000060: e433 383d 86c9 233c 79e8 263d 7892 743d
00000070: 69d6 e23d 1d76 81be c7b9 6e3d 0f62 6dbe
00000080: 1599 263e 789c 5cbd 8238 ccbc a856 63be
00000090: aff9 0abd e23e 153d 277f 1f3e 82cd d9bc
000000a0: 7566 023d a1ec b63d 6369 16be e8aa 8ebc
000000b0: 65cf 803c 9110 883b c7bf 01bc 1018 3cbd
000000c0: 7c45 2e3d 072d 39bd 4cb0 5ebd 002c 13bc
000000d0: 3c12 113b 0df1 d23d 7af8 053e f86b 2f3d
000000e0: c60b 95bd 2561 4cbb a058 84bd a0f4 b6bd
000000f0: 4304 58bd da4c 14bd be9a 023e 04f0 00be
00000100: 812a 2f3c 8f3a 193e 8eff 563d 04e2 e53c
00000110: 3c1b 76be ace8 d3bd ac0d 99bc 407e 333d
00000120: 3228 e13c f6e5 1bbe e8d2 f0bd 137b 1fbd
00000130: 01c0 43be f1ed 163d b0eb c03d 2a76 6db5
00000140: 6c55 843d a8f9 26bd 4f4c 923d e71f 86bc
00000150: d1a9 403d 3e2f d8bd 5be1 b6bd 2768 eabc
00000160: cfd7 343e 44e9 17be f70a b53d 9237 80bd
00000170: 6edd fbbd 2f53 09bd c3c0 f8bc 9887 7ebe
00000180: 40d2 bb3c c87e 00be 5eeb a13d 1173 9d3d
00000190: 4f60 8cbd 4674 d9bb c023 343d 1a93 c0bd
000001a0: cbf9 c63d 52dc 783c c51e e0bd 5f87 a5bd
000001b0: fb5b 83bc 71c9 f4ba ad89 87bb d2b2 02be
000001c0: 4533 c3bd e464 bcbd 411f e33b fce4 b7bd
000001d0: a827 36be 68df 55bd 10ec 59be 8c61 0e3c
000001e0: 483a 2dbe c421 103e 13a0 383e 6bd2 11be
000001f0: bf31 67bc 586a 843c 7d46 4cbd aabb 923b
00000200: bc68 fc3c 6747 da3c d90c c03c ed39 8a3c
00000210: a0fa a4bd b394 cebd 0ab4 133c 083d 8fbc
00000220: 1bbe 87bd 543c 233d 1c59 e2bc 3421 95bd
00000230: ee48 4d3e a706 ddbc 3c51 15bd 2fd4 023e
00000240: 32c5 993c 352e 743d 9a87 493d 8c89 e1bd
00000250: 59bf ca3b e7d4 76bc e0b5 0cbc 7ab4 3d3e
00000260: 2dbc ccbc 2221 51bc 1dd1 273e 37b1 70bd
00000270: 1646 83bd 84fa aeb9 3f0e ad3e 1694 b3bd
00000280: 1036 be3c 7433 07b9 0275 dfbc 3468 28bd
00000290: e1ab 17bd bd4b 073c b901 e3bd b13a 5dbd
000002a0: 6b77 2abd 6736 e7bd 4416 53be a0d9 0b3e
000002b0: 0b9a 7dbc d6db 29bd c86a 8fbd e3b0 44be
000002c0: 0250 56ba 441f 793d b2e3 bc3d e943 19be
000002d0: 879e e03d c764 15be 9e75 bf3d dc45 b53d
000002e0: 5515 143c dd15 da3c 4efc 24be 47a9 1b3d
000002f0: 1a0e 723d 538a 04be d624 edba 703a 55bd
00000300: 81ef 603c a473 3e3d dca8 5fbd f299 773d
00000310: c48a a2bd ec80 dabd 0593 bdbc 5eb2 463d
00000320: 4b3b 9abc 4db2 e5bd 1a5d d3bd d550 16bd
00000330: 9a2a 603d 6078 26bd b0ed 0b3c e2c0 513c
00000340: b6ca 663d 885c aa3d 10a5 5bbd af0a febd
00000350: d5b5 943d 326a 27bd f809 ccbc 37c6 bf3c
00000360: 20c6 733d 218c aabc a81c 07bd 2e4b 00be
00000370: ccdd 9e3d 2bbb 2ebb b559 f7bd f1c6 2fbd
00000380: 7deb ad3c d730 20bd 730b 57bd e28b 52bc
00000390: 5f9f 1dbe 1948 7fbd 7aee ebb9 c3bc 83bd
000003a0: d2df 18bc 4f4f 8b3d f153 f9bc c435 d3bb
000003b0: 573e 96bc 4229 b2bd 695e f3bd d576 3cbe
000003c0: c16c ec3c 1405 03be 62db 013e fb03 ecbc
000003d0: a2c4 583d 59f0 e73d e91f 1c3d c978 b2bd
000003e0: 5b46 65bd 7977 3fbd ca47 c53d 0fda 0bbd
000003f0: 1b79 56be 4c8a 973c e252 babd 625b 07bd
0.1148631 0.033588342 -0.04326873 -0.26848954 -0.0057011982 -0.070504345 -0.010072216 0.035499066
0.14248592 -0.10994212 -0.026521789 0.0006765395 0.078475736 -0.08711212 -0.11581605 0.14580859
-0.001868237 -0.018133217 -0.018621089 0.011720626 -0.023942947 0.03004848 -0.16292192 0.05098405
0.04497136 0.009996777 0.040749047 0.059709996 0.11076052 -0.25285426 0.05828264 -0.23181938
0.16269334 -0.053860158 -0.024929289 -0.22201025 -0.033929523 0.036436923 0.15575849 -0.026587252
0.031835992 0.08931852 -0.1468864 -0.017415479 0.015723893 0.0041523655 -0.007919258 -0.045921385
0.042546734 -0.045208957 -0.05436735 -0.008982658 0.0022136113 0.10299883 0.13083068 0.042827576
-0.07277636 -0.0031185832 -0.064622164 -0.08933377 -0.05273844 -0.036206104 0.12754342 -0.12591559
0.010691286 0.14963745 0.05248981 0.028061874 -0.24033827 -0.10347113 -0.018683277 0.043821573
0.027484987 -0.15224442 -0.11758977 -0.038935732 -0.19116212 0.036848012 0.09419954 -8.846133e-07
0.064616054 -0.040765435 0.07143461 -0.016372634 0.04703695 -0.10555886 -0.08929702 -0.028614117
0.1766045 -0.14835078 0.08839982 -0.06260599 -0.12298094 -0.033526596 -0.030365353 -0.24856412
0.022927403 -0.12548363 0.07906221 0.07687963 -0.06854307 -0.0066361753 0.043979406 -0.094030574
0.09715613 0.015189247 -0.10943369 -0.080824606 -0.01603507 -0.0018675757 -0.0041362853 -0.12763527
-0.09531263 -0.09198931 0.006931216 -0.08979222 -0.17788565 -0.05221501 -0.21281457 0.008690249
-0.16916764 0.1407538 0.18029813 -0.14240424 -0.0141109815 0.01616399 -0.04987191 0.0044779377
0.03081166 0.026645375 0.023443626 0.016873324 -0.080556154 -0.10086956 0.009015093 -0.017485157
-0.066280566 0.039852455 -0.027630381 -0.072817236 0.20047352 -0.026980711 -0.036454424 0.12776254
0.018770788 0.05961438 0.049201585 -0.11012563 0.006187361 -0.015065408 -0.008588284 0.18525878
-0.024992073 -0.012764247 0.16388364 -0.058762755 -0.06409852 -0.00033374515 0.3379993 -0.087684795
0.023219138 -0.00012893771 -0.027277473 -0.041115 -0.03702915 0.0082578035 -0.11084313 -0.05401105
-0.041617792 -0.11289673 -0.20613962 0.13657236 -0.015478621 -0.041469418 -0.07002789 -0.19208102
-0.0008175374 0.060820833 0.09223117 -0.14967312 0.10967737 -0.14589225 0.093486056 0.08851215
0.009038289 0.026621753 -0.16111872 0.038003232 0.05909548 -0.12943392 -0.0018092643 -0.052057683
0.013728977 0.046497002 -0.054604396 0.060449548 -0.07936624 -0.10669121 -0.023141393 0.048509948
-0.018827101 -0.11215649 -0.10320492 -0.03669818 0.054728128 -0.040642142 0.008540556 0.0128023345
0.056345664 0.0831843 -0.053624213 -0.124043815 0.07261244 -0.04087276 -0.024907097 0.023409946
0.05951512 -0.020818772 -0.032986313 -0.12528679 0.07757148 -0.0026661854 -0.12077657 -0.042914335
0.021230454 -0.039109077 -0.052501153 -0.0128507335 -0.15392826 -0.062324617 -0.00045000372 -0.06432488
-0.009330707 0.06802236 -0.030435534 -0.0064456183 -0.018340273 -0.086992756 -0.11883242 -0.18404706
0.028860452 -0.12794906 0.12681344 -0.028810492 0.0529219 0.113251396 0.03811637 -0.08714444
-0.0559753 -0.046744797 0.09632833 -0.034143504 -0.20944636 0.018498562 -0.0909784 -0.033046134

a2c_network.actor_mlp.4.bias f4 [64]
00000000: f750 6fbd c073 e3bd 7a84 98bd d9f5 92be
00000010: 3740 2bbf f3b2 55be ad94 42be 5894 e1bd
00000020: ff30 b6bd 4957 01be 7d5d 65be 6499 8bbd
00000030: ea00 e7bd 30ae 773e aca8 adbe edb7 42bd
00000040: ed6b 84bd f20f b3bd 0d0c c6bc d17f 33bd
00000050: d7e5 a9bd 5447 14be c171 03be d73d 403e
00000060: 7d83 fbbd abf9 18bd c49d adbd 5731 6cbd
00000070: 3ce6 2bbe 192c 3dbe 47bf 83bd 0b59 90bd
00000080: 70e0 86bd 205f 1ebf 79fb 1ebd 4483 b1be
00000090: 9f17 1ebe ca70 5bbd 025b 67be 969c 183d
000000a0: 15d1 49bd eada 92bc 15a9 34bd 15e0 c2bd
000000b0: 63a2 21be 867e 81bd 295a bebd 1cee 5ebe
000000c0: 1d5f 2f3d 892e 86bd b66f 1dbe 57aa 15be
000000d0: a8ea f3be 7b07 86bd e4a8 8cbe 14ef 69bd
000000e0: 1c5b 2cbd 4177 4fbe 2f2f 8cbe edd9 0bbf
000000f0: 083f 413c 3cdc 08be 61e2 333c 793b 3cbe
-0.058426823 -0.11106062 -0.07447143 -0.28703192 -0.6689486 -0.20869045 -0.19002028 -0.110146224
-0.08896064 -0.12630953 -0.22398944 -0.06816366 -0.11279471 0.24187541 -0.3391775 -0.047538687
-0.06465898 -0.08743276 -0.024175668 -0.043823067 -0.082957916 -0.14480335 -0.12836362 0.1877359
-0.12280939 -0.037347477 -0.08477357 -0.05766424 -0.16787046 -0.18473853 -0.06432968 -0.070482336
-0.06585777 -0.618639 -0.03881404 -0.3467046 -0.15438698 -0.05357436 -0.2259331 0.037258707
-0.04927166 -0.017926652 -0.04410656 -0.095153965 -0.15784602 -0.063229606 -0.092945404 -0.21770519
0.042815316 -0.065518446 -0.15374646 -0.1461576 -0.47639966 -0.065443955 -0.27472603 -0.05711277
-0.042079076 -0.20260336 -0.27379748 -0.54629403 0.011794813 -0.13365263 0.010979266 -0.18382062

a2c_network.value.weight f4 [1, 64]
00000000: 2aeb a5bb c832 d43a 5d29 833b 4595 973e
00000010: 91e1 ae3a 4737 233d 375b 613d ca40 c2bb
00000020: ca1b 3e3c d7fc 87bb add5 96bc b812 b33b
00000030: 74a2 a6bd dc45 863e 3c3a a43c 7a68 b63c
00000040: 723e 4b3c 8880 14ba 4eb8 333c 48fa cdbb
00000050: 0abb 623c 6008 4a3e 7d04 853c 518b c83c
00000060: 1312 1e3b 2c07 a9bc adf3 01bd 6832 b13b
00000070: 0907 14bc a75d 4dbc 8e17 693b 335c 2c3e
00000080: 7065 b33a 9e03 abbb 92fa 953c d381 87bd
00000090: 651a 793d 5c75 f33b ef61 55bb f1e8 d13b
000000a0: f54c b23b 8950 033c d10e c43b cf87 a03a
000000b0: fa28 153e 4c35 7d3c 5bba 96bb 18d1 f23d
000000c0: 8202 9a3e 29dd 5d3a 6267 783d 797f 69bc
000000d0: d490 d6bd 6917 6e3c 178b b53c 4958 7cbb
000000e0: 649b e63b d4e0 05bc 7e38 b9bb 5f58 25bb
000000f0: cf2d 133e 1fb1 a8bb 5d05 003c 4402 eb3a
-0.005063434 0.001618945 0.0040027336 0.2960607 0.001334237 0.03984764 0.05501863 -0.0059281336
0.011603305 -0.004150014 -0.018412435 0.005464878 -0.08136454 0.26225173 0.0200473 0.022266615
0.012405025 -0.00056649046 0.010969235 -0.0062859394 0.013838539 0.19729757 0.016237492 0.024480494
0.002411966 -0.020633303 -0.031726528 0.00540762 -0.00903488 -0.0125345355 0.0035567018 0.16832046
0.0013686847 -0.005218937 0.018307958 -0.06616559 0.060816187 0.007429762 -0.0032559594 0.0064059426
0.005441303 0.008014807 0.0059832116 0.0012247505 0.14566413 0.0154546015 -0.004599852 0.11856288
0.30080038 0.00084634364 0.06064547 -0.014251583 -0.104768425 0.014531949 0.02216105 -0.003850477
0.007037567 -0.008171279 -0.0056524863 -0.0025229675 0.14372943 -0.0051480676 0.007813779 0.0017929752

a2c_network.mu.weight f4 [18, 64]
00000000: f704 2b3c 615a 18be ad60 bfbd 1285 c7bc
00000010: 1acf 5bbd a51b 373d cb60 77bd 6d0d 533d
00000020: 5f44 36bc b206 4e3b a8c0 8bba 9a7f 6ebd
00000030: 228b babd 415d 2bbd b3fa 05be 6185 c63c
00000040: 70d5 043c cc43 45bb cb35 d9bd 727e 163d
00000050: 0365 5b3d ac74 4ebd 2c01 ebbc 29be d73d
00000060: 6c74 91bd 0b9e 34bc cc7b 4f3d 8e08 c8bc
00000070: 2bc8 333d d0e9 40bc 1679 c5bb 3255 d3bc
00000080: 5833 39be 2566 dc3d 1992 1cbc 1cb1 02bd
00000090: 5a76 443d 2802 e5bb d946 03be d94b c13b
000000a0: 6424 2f3c 0d16 b7ba bec7 d9b8 ab24 923d
000000b0: ca56 ad3b 93e1 d03a cf7f 9abe 3446 08ba
000000c0: af94 b63c 432e 093e e765 a8bb 5eca 6dbd
000000d0: 6e53 bd3d 6c5e 3e3d 7864 243c 65ec d53d
000000e0: af44 a03d c4e9 ce3d 22b0 dd3b 6930 8a3d
000000f0: 7380 cabc f5e4 0ebb 63f6 4abd ac4a 093d
00000100: 7645 15be df25 40bd dfb8 b3bd f1a8 0bbd
00000110: e7b8 7c3a 6c0f 12be ef87 81bc d113 3fbc
00000120: 15bb be3c 6de6 383d 82b8 9b3d 8e29 72bd
00000130: 96f6 18bd f5fd 4dbc e703 203e 39c1 e53d
00000140: ba55 293c 7e54 183d f29c c6bc d161 b33c
00000150: fa3c 6cbd 83aa 633c 6988 04bd ab27 7c3c
00000160: a4fa 3dbb a157 2dbd 1100 3b3d 9307 1439
00000170: 277e 1fbd 96b2 fbbc ffeb e23b 2fdd 793b
00000180: bcc9 78bd 7446 34bd 41d6 8e3d 4e43 153e
00000190: 67ac cdbd 6b40 07bd e78b 52ba 8265 b63c
000001a0: 506f 51bd 2569 15be eded cc3d f484 cbbc
000001b0: 70ed c73b 810a f3bc cb5d e73d 21c6 363c
000001c0: 6dd6 29bc e518 9d3d 2c96 123d 1c2d 25bc
000001d0: cb3e 73bd eb94 343d 041c f43d 7bdd b0bc
000001e0: 59e7 6dbc 4c72 8abd c03c 48bc 87ec cdbb
000001f0: 0e94 9bbc 1a0d b3bd 9b45 78bd d797 dabd
00000200: 30b1 1cbe b82c c3bd 0d93 c43d 123e a9bc
00000210: 6178 23bd 6ab1 d4bc 8675 383d 24a8 843d
00000220: 884f 14bd a7f9 74bb 4f5c be3c 6f98 873c
00000230: 0677 cdbc 7b08 8ebd 99a7 973c 7a92 a6bc
00000240: bb1d 07bd 7022 333c 7c1d 77bd f5d1 e1bd
00000250: a634 e8bc ad5a fabc bba9 a43d 9a1c 6d3d
00000260: d77e 083c 6b8a 11bd c2c0 873d 9472 8ebb
00000270: 93e3 b23d 488b 8a3d 7e0a 593c 407c 3b3d
00000280: 3f98 8cbe 3910 dd3d 29b2 013d 0978 36bd
00000290: 59c6 f0bc 57f9 803d 610f 503d 9d3b 083d
000002a0: 5fd8 d73d a9f8 17bd b7a6 33bd 63c5 3dbc
000002b0: de8a fbbc 864c f13c 7fc6 913c 5769 aa3b
000002c0: 68b0 b9bd ea39 e33d 9b0a 7bbd f44c a0bd
000002d0: e1f1 bcbd 5712 d33d 0c77 48bd 5d45 f33d
000002e0: 7eb5 12bd a6b8 803e 1887 babd ab36 aa3d
000002f0: aae0 b43c e03e 22bc 81eb db3c c90d 313d
00000300: 05ba a23d ee5c 373d 3c2f 1dbe bc22 583d
00000310: 3bd2 1bbd c154 bcbd 9dd9 d3bc 9089 e9bc
00000320: c341 c9bb f77e b1bd 7174 a0bc 445e 793d
00000330: 2cec 0c3d 6b41 4ebc 0282 953d b9d5 af3c
00000340: 42c8 4f3d cdb7 8abd 6638 09bc f26a 49be
00000350: 8df0 04bd d117 0ebb 8159 a0bd 630a ae3c
00000360: 9e06 6d3a 4e48 2cbd cf8d c73b 6665 193c
00000370: 4f47 cb3d 2392 753d 2a65 a63d 8b6e 0c3d
00000380: d28e 52bd f89d 83bd f1e9 5f3d 2679 f3bc
00000390: c49a 4dbe f2ff 883c e121 d73d 7073 0dbd
000003a0: 321e 043e 9a22 85bc dc21 12bc 6e1a e4bd
000003b0: 9105 7a3c df0b 503d 0254 1dbe fa0b 06bd
000003c0: ff1a e237 d4d8 1ebc 3d43 dbbd 34b4 2fbd
000003d0: b72b e33c 18d6 17bd 62dc cf3d 5fd3 dc3c
000003e0: 4b85 4ebc 400b 8cbc c3f3 9b3d 0232 81bd
000003f0: a404 1a3b a125 03bd 645f bb3c fc07 483d
0.010438195 -0.14878227 -0.09344611 -0.024355445 -0.053664304 0.0447041 -0.060395043 0.051526476
-0.011124699 0.0031437096 -0.0010662274 -0.05822716 -0.09108569 -0.04183698 -0.13083915 0.024233522
0.008107528 -0.0030100225 -0.10605963 0.03674168 0.05356313 -0.050404236 -0.028687082 0.10534317
-0.07102284 -0.0110240085 0.05065517 -0.024418142 0.043892067 -0.011774495 -0.0060263975 -0.02579746
-0.18085992 0.1076167 -0.009556317 -0.031907186 0.04796443 -0.0069887824 -0.12819995 0.0058989343
0.010689829 -0.0013968364 -0.00010384571 0.071359 0.005289887 0.0015936367 -0.30175635 -0.00051984494
0.022287695 0.13396554 -0.005139101 -0.05805432 0.092444286 0.046476766 0.010033719 0.10445479
0.078256 0.10103181 0.0067653814 0.06747515 -0.024719452 -0.002180395 -0.04955138 0.03351848
-0.14577278 -0.046911117 -0.08775496 -0.034096662 0.00096405897 -0.14263695 -0.015811889 -0.011662439
0.023282567 0.045141626 0.076035514 -0.05912166 -0.037344538 -0.012572755 0.15626489 0.11218495
0.01033538 0.037189953 -0.02424476 0.021897228 -0.05767534 0.013895634 -0.032356653 0.015390317
-0.0028988505 -0.042319898 0.04565436 0.00014117201 -0.038938668 -0.030724805 0.0069251056 0.003812622
-0.060739264 -0.0440125 0.069744594 0.14576456 -0.10042649 -0.033020418 -0.00080317113 0.0222652
-0.051131546 -0.1459089 0.10006318 -0.02484367 0.006101303 -0.029668095 0.112971865 0.011155636
-0.0103660645 0.07670764 0.035787746 -0.010081556 -0.059386056 0.04408733 0.11919406 -0.021589985
-0.01452049 -0.06760082 -0.012221515 -0.0062843 -0.018991496 -0.08742733 -0.060613256 -0.106734924
-0.15301967 -0.09530014 0.0959836 -0.02065948 -0.039909724 -0.025963504 0.045033954 0.06477383
-0.03620866 -0.003738025 0.023237376 0.016552178 -0.025081169 -0.06935211 0.018512534 -0.020333517
-0.032987338 0.0109335035 -0.060330853 -0.11026374 -0.028345417 -0.030560816 0.08040186 0.057888605
0.008331022 -0.035532396 0.066285625 -0.004347155 0.087348126 0.06764847 0.01324713 0.04577279
-0.27459905 0.1079411 0.031664047 -0.04454807 -0.029391455 0.06297558 0.050795916 0.033259977
0.105393164 -0.037102375 -0.043860164 -0.011582705 -0.030705865 0.029455435 0.017794846 0.005200546
-0.0906685 0.110950306 -0.06128941 -0.07827178 -0.09225822 0.103062324 -0.048941657 0.11878464
-0.035817616 0.25140876 -0.09107798 0.08311208 0.022079784 -0.009902686 0.026845695 0.043226037
0.07945637 0.04476636 -0.1535005 0.0527675 -0.03804229 -0.09195853 -0.025860602 -0.028507978
-0.0061418726 -0.08666795 -0.019586774 0.060880914 0.03440492 -0.012588839 0.07300188 0.021464216
0.05072809 -0.067733385 -0.008375263 -0.19669703 -0.03245597 -0.0021681676 -0.078295715 0.021245187
0.00090418186 -0.042061143 0.006089903 0.009362554 0.099257104 0.05995382 0.08124764 0.03428511
-0.051405735 -0.064266145 0.054666463 -0.029720854 -0.2007857 0.016723607 0.10504509 -0.034533918
0.12902144 -0.01625185 -0.0089192055 -0.111378536 0.015260116 0.05079257 -0.15364078 -0.032726265
2.695387e-05 -0.009695251 -0.10706184 -0.042896464 0.027730806 -0.03706941 0.101494566 0.026956258
-0.012605022 -0.017095208 0.07614853 -0.06308366 0.0023501301 -0.032018308 0.022872634 0.04883574

a2c_network.mu.bias f4 [18]
00000000: 04b4 803d 9881 013e eeb2 3dbc 8074 4dbc
00000010: 1012 66be 70ae 473d 54cd e03b 8800 07bc
00000020: f05e 3f3e 2557 5a3d 0b92 f6bc fa98 473d
00000030: a683 743d 1d98 6dba 0f9c 5a3e 8258 22bd
00000040: 9b07 2bbd 131d d4bd
0.06284335 0.12647092 -0.011578305 -0.012539983 -0.22467828 0.04875034 0.0068604145 -0.008239873
0.1868856 0.053305764 -0.030098936 0.048729874 0.059695862 -0.0009063499 0.21348594 -0.03963519
-0.0417553 -0.10357108

exp_avg f4 [18]
00000000: 58cd 1d3a 0fe4 26bb 5b91 9739 c3bb 73bb
00000010: 8dcc fcba 1b9d 3fba d61e 54ba 9124 47ba
00000020: ba39 38ba 456b c239 03b1 393a 47e7 92ba
00000030: 7c90 6fba a01e 283a c959 423b 18c8 09bb
00000040: 37d7 7eb9 b9b9 a6b9
0.00060196733 -0.0025465523 0.00028909263 -0.0037190772 -0.0019287035 -0.00073094823 -0.0008091753 -0.00075966964
-0.0007027645 0.00037082486 0.0007083567 -0.0011207842 -0.00091386563 0.0006413255 0.0029655567 -0.0021023806
-0.00024303501 -0.00031800361

exp_avg_sq f4 [18]
00000000: 348d 7138 d570 6438 6b4d 5f38 0e2c 5f38
00000010: f984 5a38 ed12 5d38 c080 7638 3f8a 7738
00000020: 15a3 5a38 e1bb 6e38 9f8d 6938 669b 4d38
00000030: b51e 6538 5e7a 6b38 e30e 6f38 e163 7238
00000040: 4e45 8038 bc48 7238
5.7590383e-05 5.446452e-05 5.3239444e-05 5.3208372e-05 5.209909e-05 5.2708132e-05 5.877088e-05 5.901814e-05
5.2127132e-05 5.6918598e-05 5.5683424e-05 4.9020535e-05 5.4626453e-05 5.614233e-05 5.6995905e-05 5.7790316e-05
6.1164246e-05 5.7765035e-05
