exp_log/cabinet_sac_ppo_comparsion/FrankaCabinetPPO_0613/FrankaCabinetPPO_0613.pth (torch, 587952 bytes, 36 tensors)

value_mean_std.running_mean f8 [1]
00000000: e59c a668 e8a1 1a40
6.658113131684535

value_mean_std.running_var f8 [1]
00000000: 8ebd aa5e 5e50 1d40
7.328484992190523

value_mean_std.count f8 []
00000000: 0000 4000 4018 d641
1482752001.0

running_mean_std.running_mean f8 [23]
00000000: 70b4 f51a 70b8 e43f a5fc 7f09 d8ee e9bf
00000010: a058 734e 2f43 c8bf d9d4 c770 83ab e4bf
00000020: 37a8 64ca 9cb4 eabf 2f69 457b 9ff3 cbbf
00000030: a476 f24d 4b77 b33f d31f 41ca 0297 e33f
00000040: 1099 e586 3395 eabf 99bc a864 a06c 6a3f
00000050: 1ae9 b8e4 9b9a 60bf 2a30 1543 1b3e 793f
00000060: 6407 e0b6 2c03 37bf 57f4 6378 750d af3f
00000070: 22ef 7e9f 5a4c a7bf 1d66 9610 ab03 74bf
00000080: 31ee 0a37 81c1 35bf 8544 8420 72b6 55bf
00000090: 0716 f0f5 201b adbf 740e c761 4d82 90bf
000000a0: ec18 12a2 2368 953f 3d24 74a2 ce8b d03f
000000b0: 1616 535d b168 903f
0.6475143934782306 -0.8104057488962054 -0.1895503171023778 -0.6459366991754464 -0.8345474198333765 -0.21837228316400956 0.07603903439527443 0.6121839475899783
-0.830713046522563 0.0032256252937013616 -0.002026848296535222 0.006162744991637973 -0.0003511413732440931 0.06064955801591825 -0.045504409761149014 -0.004886310788970086
-0.00033196835196822304 -0.0013252367517149488 -0.056847600957592496 -0.016122063725346483 0.020905071990022714 0.25853315224282253 0.016024371453360407

running_mean_std.running_var f8 [23]
00000000: 06af 7746 d711 983f e8a2 49e6 47de c03f
00000010: a707 51ab 0258 ab3f 3cb0 6080 1c0f b63f
00000020: 7cab ca2a cbd9 9d3f 0688 7d46 f32d c13f
00000030: 3109 03e6 d808 b03f b5a0 ce32 2287 ce3f
00000040: 1101 04bb e00b c03f a184 52b2 c456 763f
00000050: 5c04 35e8 7dee 663f 6a68 76a1 1d76 703f
00000060: 6960 56c1 c705 6e3f c916 8f2e 67ea 903f
00000070: 9a5f 057d 6996 913f d9f7 eace 049d 813f
00000080: 79e6 ca98 2459 363f cdb3 8f70 6380 283f
00000090: 6364 0c67 6e31 893f 5b1b 0d13 c504 743f
000000a0: 173e 770e 10a6 7b3f 67bb 9069 0eb9 963f
000000b0: b8e2 0eb2 f067 873f
0.023505557704921486 0.13178347343934793 0.053405841267262937 0.0861680806562512 0.029151129233166526 0.13421479169761613 0.06263499846958066 0.2384989498216378
0.12536248332617864 0.0054538424930409566 0.0027992686388249987 0.004018893952343653 0.003664865633890503 0.01651917668984629 0.017175338988948498 0.00860027080977581
0.0003410066936272226 0.0001869317423194558 0.012301313895976834 0.00488736135668585 0.00675016662667318 0.02219030875510999 0.01142871898069707

running_mean_std.count f8 []
00000000: 0000 8000 4018 c641
741376001.0

a2c_network.sigma f4 [9]
00000000: c5bf 0ebf 703c 04bf 8f61 3dbf 7d7c 21bf
00000010: 6d75 96be 2d70 0cbf 8191 01bf 7042 9cbe
00000020: ebd5 04bf
-0.5576137 -0.5165472 -0.7397699 -0.6308058 -0.29386464 -0.54858667 -0.50612646 -0.30519438
-0.5188891

a2c_network.actor_mlp.0.weight f4 [256, 23]
00000000: 1f73 633c 1237 fabb 4461 c13c 4d86 fb3a
00000010: 7640 d93b 2829 373c f33e 32b6 af44 4438
00000020: 167e 8b3b 3d37 c53b 8709 443c dd18 323b
00000030: 6f05 a23b e6ef a93b c5ac c0bb e4c3 69bb
00000040: 362d d03b d2ac 1a3b 3d29 6abc ae41 9a3b
00000050: 7804 1b3d f7f7 1ebc da45 5fba 7599 973b
00000060: 791e 423d 311f 443d 5d0a b6bd ff7b 72bc
00000070: 2bde 883c 6f6e aabc 45e8 66bb 833f 243c
00000080: b38c 073b 481b 0d3c e89b 22bb 5f5c cb3a
00000090: 33e8 f93b 072b 9a3b 4472 04bb 021c 2e3b
000000a0: 47d2 43b9 654f 4b3d 0da3 393c af67 483b
000000b0: c292 a4bd 9baf 8fbb 99b3 c1be dbd3 773e
000000c0: d875 bc3e 9519 8e3f f8f3 1a40 375b 9dbf
000000d0: 3763 9cbf c696 12be 2099 08be 4e3f 4bbe
000000e0: 32ca b3bd 8e27 0d3f 285b fa3e 1aee 173d
000000f0: 7c83 db3d 654f 12bf f3be 5b3d 93be f0bd
00000100: 45c2 d8be 83bc 94be ea0a 9d3f 5e26 90be
00000110: bff0 fc3e 7883 e8bc a6ab e6bc 8808 433d
00000120: 4c53 193d 53e0 c9bc 52b6 9fbc 2b0a 353c
00000130: e621 9a3a d14d cdbb 2ab4 bfbb c7e4 2dbc
00000140: e889 ce3b 8fbe eeb9 d8dc c3bb 4362 d23b
00000150: 1e4e ceba 3a2c 32bc 5499 043c 7827 a7bb
00000160: 8ea5 ec3c 174e 07bc ba3b 153c 9493 22bb
00000170: dbf5 49bf ce38 a4be 74bb 78bf e4fe c1bf
00000180: db43 d7bf a147 fd3e 7f7e 293f 237b 3f3e
00000190: eba0 52bf 404e 60bd 6c61 323c 0d6b 94be
000001a0: 0ce2 74bf 4f62 803e ae15 243e 5f98 20be
000001b0: d0b3 e8bc 51f4 f43e c7d2 ad3f 6e04 933f
000001c0: 40eb 69bf 5468 78bd 2030 813d 4b8a bcbb
000001d0: a12e aabc b729 b0bc 86d9 6c3d df2c f23b
000001e0: 4d56 8cbc dd2f f03b e3b6 cbbb db2f 4ebb
000001f0: 52ca aa3b c485 3fbb e525 003b e6ad 5ebb
00000200: d8ff ae3a 6708 11b9 b49b ccbb e20d 0b3b
00000210: c323 d93b 28cb dbbc 2cbd 59bc 850b d03c
00000220: f39d 1c3d 410c 9c39 5f30 553e 3fef 2bbd
00000230: e2a2 3cbf d7ad 153f 778b f43e bd1d e53f
00000240: c004 80be 89eb 92be e416 98be 9c0f bfbf
00000250: 30b4 79be 488b 2b40 68c6 2b3f 0e05 4b3f
00000260: 0230 b93d a69c 6fbe 517e 833d d1fc fb3e
00000270: 1d4e f6bf a48f 9cbf 49c7 6b3f 786b 193d
00000280: e6db 7ebf 0b04 6fb9 bafc 023d b733 30bf
00000290: 2e7a 66bf 60e9 36bf bf04 ae3f c58c 46bf
000002a0: 76ae f4bd c6d1 5dbe 1681 98bc e891 a9be
000002b0: 0b2c 73bd 595e 44be 440d 44be a63a 96bd
000002c0: 7697 e0be 60ac 543d 8adf 1b3d fa80 8e40
000002d0: 2657 f83f 77b2 0dc0 045b c33e 90db 17be
000002e0: 9b52 bbbe 42f1 a4bc 5287 4ebe fc96 f93f
000002f0: b7bb 3ebe fd10 02bf 2827 b9bf c74d 10be
00000300: e41b 1dbf a35e 8e3d bc73 ea3c f4d9 6fbd
00000310: 65c9 4a3c 99d3 0d3e 190e 4cbe 4fe3 6d3d
00000320: 58b1 26bd 3a3f ae3d 1d5d 9440 9485 6a3e
00000330: ef5a 33c0 431d e03e 6ea5 2ebe bd32 0ebd
00000340: d816 30bd 9857 593d 0091 903c eabd 99bc
00000350: 24ab babc 6a0b b4bb 6bbd 4a3b e4f2 6dbb
00000360: f22f 83bb 8ce3 0abc 2cdd 71bb 6b0e 8dba
00000370: 54bf a5bb 1917 173b 8080 da3b b85f 86b9
00000380: 6db2 17bb b80a e33c f98b 8d3b 0a4c 0cbd
00000390: f3ad 16bc 53ba 84b7 152f 2dbe ffc2 f6be
000003a0: 15d8 2dbf 9d17 28bf 37d6 a4bf 863e 4c3f
000003b0: 963b 903f 6651 d7be 2ac8 51bf 372c 19bf
000003c0: 7f96 54bf 8e7b 183f 5cce 2a3f b3c3 97be
000003d0: 7bf9 c8bf 971b 0abf e3be aebe 6bed 093e
000003e0: 5252 3bbf 743a 12bd 5642 ddbf a2ca 6f3e
000003f0: dd56 0a3f 39bc 78be da76 9d3e 5dba 343f
0.0138824275 -0.0076359594 0.02360595 0.0019189805 0.006629999 0.011179246 -2.6560708e-06 4.6794008e-05
0.004256974 0.006018548 0.011965162 0.0027175464 0.0049444954 0.005186069 -0.0058799707 -0.0035669738
0.006353046 0.0023601544 -0.014292059 0.0047075367 0.03784606 -0.009702674 -0.00085171836 0.004626448
0.047392342 0.04788131 -0.088886954 -0.014800071 0.0167075 -0.020804612 -0.0035233658 0.010024908
0.0020683229 0.008612461 -0.0024812166 0.00155152 0.0076265573 0.0047048363 -0.002020971 0.0026566987
-0.00018674984 0.049636263 0.011330378 0.0030579378 -0.08035804 -0.0043849475 -0.37832335 0.2420191
0.36808658 1.1101557 2.4211407 -1.2293462 -1.2217778 -0.14315328 -0.13339663 -0.19848368
-0.087788 0.5513848 0.48897672 0.037092306 0.10718438 -0.57152396 0.0536489 -0.11755099
-0.42335716 -0.29050073 1.2268956 -0.28154272 0.49402425 -0.028383002 -0.02815802 0.047615558
0.037432954 -0.024643099 -0.019496117 0.0110497875 0.001175937 -0.00626538 -0.0058503347 -0.010613627
0.006303061 -0.00045536875 -0.0059772544 0.006420405 -0.0015739833 -0.010874802 0.008093197 -0.0051011406
0.028887536 -0.008258364 0.009108478 -0.0024807202 -0.7889077 -0.3207459 -0.9716103 -1.5155911
-1.6817583 0.4946871 0.6620864 0.18699317 -0.8227679 -0.054762125 0.010887485 -0.28987923
-0.9565742 0.25075004 0.16023895 -0.15683125 -0.028406054 0.4784265 1.3579949 1.1485727
-0.9137459 -0.06064637 0.06308007 -0.0057537905 -0.020774188 -0.021504266 0.057824634 0.007390603
-0.017130995 0.0073299245 -0.00621687 -0.003146163 0.0052121067 -0.0029224018 0.0019553837 -0.0033978163
0.0013351394 -0.00013831408 -0.006244147 0.0021217992 0.0066265776 -0.02683027 -0.013289731 0.025396118
0.03823657 0.00029763769 0.20819233 -0.04197621 -0.7368604 0.58468384 0.47762653 1.78997
-0.25003624 -0.28695324 -0.29704964 -1.4926639 -0.24385142 2.680376 0.6709962 0.7930459
0.0904236 -0.233996 0.06420577 0.4921632 -1.9242588 -1.2231336 0.9210096 0.037456006
-0.9955429 -0.00022794322 0.0319793 -0.6882891 -0.9003018 -0.7144985 1.3595198 -0.7755855
-0.11947338 -0.21662053 -0.01861624 -0.3311913 -0.059368175 -0.19176616 -0.19145685 -0.07335405
-0.43865556 0.051922202 0.03805498 4.453244 1.9401596 -2.2140176 0.38155377 -0.1482985
-0.3658646 -0.020134572 -0.20168808 1.9499202 -0.18626295 -0.5080717 -1.4465075 -0.1409217
-0.6137068 0.06951644 0.02861964 -0.058557466 0.012377118 0.1385025 -0.19927253 0.058078106
-0.040696472 0.08508153 4.6363664 0.22902519 -2.8024251 0.43772325 -0.17055294 -0.034716357
-0.042990535 0.05306205 0.017647266 -0.018767316 -0.022786684 -0.0054945247 0.0030935656 -0.0036308104
-0.0040035183 -0.008477103 -0.003690551 -0.0010761743 -0.0050582085 0.0023054539 0.0066681504 -0.00025629788
-0.0023147122 0.027715072 0.0043196646 -0.034252204 -0.009196746 -1.582239e-05 -0.16912492 -0.48195645
-0.6790784 -0.6566103 -1.2877873 0.79782903 1.1268184 -0.4205429 -0.8194605 -0.5983309
-0.8304214 0.5956353 0.6672113 -0.29641494 -1.5701135 -0.5394835 -0.3413001 0.13469474
-0.73172486 -0.035700276 -1.7285869 0.23417142 0.5403879 -0.24290551 0.3075474 0.7059687

a2c_network.actor_mlp.0.bias f4 [256]
00000000: 5074 60bc b25c 24bd 29ca 87bf cd78 ffbb
00000010: e503 5ebf b3bb 7a3b 24f2 b8bf 92f0 50c0
00000020: 819f 64c0 06ef d3bc 9b07 6cbf a470 b0bf
00000030: 0b8c 12bd 580c 3cc0 ceb5 64bc d5eb 8fc0
00000040: 9be7 4e3c 7332 00c0 5406 5abb 90e7 acbf
00000050: 612d bfbc 620b 3c3e 70d1 80c0 d75b 7fbc
00000060: 88b6 dcbf 671d e0bf 10a7 4bbb 44b8 75bd
00000070: bb57 47c0 104e 46bb d340 5ec0 b4d4 b2bc
00000080: 0e5e ccbc aa81 00bc 5446 6dbc 0a7b 1c3d
00000090: 24d5 4cbd d628 20bc 29d6 68bc 1875 14bd
000000a0: 2605 203d afdb 81bf 3c97 2ebd 5f04 c4bc
000000b0: c5c8 4dbd 1a1b 81bc a978 f83a 18f3 b1c0
000000c0: 2207 06c0 30d6 86bd 9184 8cc0 c92b a73b
000000d0: d063 6ec0 25de 793c 2edf 8ec0 613c c9bc
000000e0: 85f5 b4bc b6bf 10bc 8bb8 40c0 2140 22c0
000000f0: a361 44c0 9166 823e 2fc9 7ec0 b171 133d
00000100: d9d4 cf3b d405 b0bc 3101 07bc 67d8 5a3d
00000110: 78d3 0c3c 48f1 9dc0 5435 87c0 2dd4 3ebc
00000120: f615 cbbd 33bf 853b 6657 e3c0 e7da 22c0
00000130: a985 95bf 9fe8 34c0 503c 54bd 6dd2 adc0
00000140: 75ec 81c0 9a13 20c0 c76f 703f c6e2 57c0
00000150: 5528 babf 14f2 1cbf 4636 96bc ab90 64bf
00000160: 4321 14bd 921e 4bc0 cf38 f7bf 51c1 9e3b
00000170: 3f0a fa3a 738f 973b b587 fc3c ef3b 3bbc
00000180: 990a 25c0 cb6c bcc0 b5e3 993c 6be8 f9bc
00000190: e4f4 a4bc 0402 0fc0 5159 f0c0 540e fe3f
000001a0: 9132 55c0 4eea 32c0 ef72 febf a6ad 1bbc
000001b0: afe9 0dba 7ec0 1ac0 820b 843a 1b1a 943b
000001c0: 0bf3 ebbc ac5c af3b 7eda 02bf b4e8 80bf
000001d0: 2fb0 66c0 a8af b3bc 1d30 06bd 82ab 27c0
000001e0: 7ca5 b5bf 7e17 00bd 0967 0ebd fd14 d2bc
000001f0: c0c4 bb3c 57c6 94bb deea 42c0 f81f 42c0
00000200: 1436 13bd 2b23 69bd b8be ccbb 9534 65bd
00000210: 0d95 2dbc 4dd0 053d 7402 90bf 45ec acc0
00000220: 2733 96bc b8a2 bdc0 21e4 a4bc 1461 c6c0
00000230: 20e7 9ebf c429 34bd 34a1 15bc 7f37 b1bf
00000240: 0d75 38be 4e76 31c0 cecd e2bb cc71 4ac0
00000250: fee7 29c0 c066 6fbf e94a 05c1 4498 bcbc
00000260: 9514 223c 5dbb 29c0 f3ad babf 02d5 fbbf
00000270: 114c e93c a40a a3c0 69ef a4bf 9a31 72bb
00000280: e87a 9f3c 4a8e 72c0 bdef c2c0 bfc3 a4c0
00000290: acdd 88bc 52bf 9ec0 f7eb d83b 67f2 8c3c
000002a0: 8f58 efbb 2a12 97bf ebd4 f6bf 26c8 40bf
000002b0: 53c2 0abd 6d95 f2bc 62e3 c03b 8eeb 36c0
000002c0: 4d9d 92c0 ed27 67bc e00e 41bd 8a2f d53c
000002d0: 6fe0 d93c 7374 82bf 5b62 9abc 868a cebc
000002e0: f327 d7bf 0f9c ccbf cd6d b0bf 8036 0ebd
000002f0: 55cb ee3b 325d a5bc 0946 4ebc 3f9e 2bbf
00000300: 6272 afbf 79c3 5cc0 0567 fbbc 7d03 31bc
00000310: 673e f7bf ca0f 2cbf 103d 8c3e 9f5e 49bc
00000320: e103 52c0 2f16 b1bc f98b 11c0 8686 913c
00000330: 4295 a53c a9c0 9c3c a57c c7bb 9441 b53f
00000340: 5400 25bc 232a 54b9 67a3 1fbd b115 5139
00000350: 688d a4bf 4272 72bf 0d04 babc 5d51 07c0
00000360: 4b8c 0ebf 41a9 59bc 373b 6cc0 9e5d 09c0
00000370: 0911 13bd 2aa3 e9bf 84d8 03bc 0676 3ec0
00000380: f1a0 1fbc 1574 e33b 3c1a 9ec0 9ee6 95bf
00000390: 2bd2 67c0 cf4a d53b 71da 82c0 f746 a0bf
000003a0: 9c98 3bc0 7d08 91bc c2b6 86bf 0b5f 4839
000003b0: b86e 98bf eee3 d9bc b642 9dbc c873 e2bf
000003c0: 4733 c23c dc5a 10bd b5e0 ec3e 82cc 8abd
000003d0: c0d5 7cc0 dc4f 9fbf 9b8f e5bf 7ffd 40bc
000003e0: 0ea3 89bd 09ef cdbc d402 e8bb fba3 98c0
000003f0: 280a 8fbf b378 49bf ef47 7bc0 92f6 22bd
-0.013699606 -0.040127464 -1.0608569 -0.007796383 -0.8672469 0.003825885 -1.4448895 -3.2646832
-3.5722353 -0.025870811 -0.92199105 -1.3784375 -0.035778087 -2.9382534 -0.013959361 -4.497538
0.012628461 -2.0030792 -0.0033267932 -1.3508167 -0.023337068 0.18363717 -4.025566 -0.015585861
-1.7243204 -1.7508973 -0.0031074919 -0.059990183 -3.1147296 -0.0030258931 -3.4727066 -0.02182994
-0.024947193 -0.007843414 -0.0144821 0.038203277 -0.050007954 -0.009775361 -0.014211216 -0.03624448
0.03906741 -1.0145167 -0.042624697 -0.023927866 -0.050240297 -0.015759993 0.0018956858 -5.5609245
-2.0941854 -0.06583822 -4.3911824 0.005101655 -3.724842 0.015250717 -4.4647436 -0.024564924
-0.02208973 -0.00883477 -3.0112636 -2.535164 -3.0684593 0.25468877 -3.9810293 0.035997096
0.006342512 -0.021487154 -0.00824003 0.053429034 0.00859534 -4.9357033 -4.22526 -0.011647266
-0.09916298 0.0040816306 -7.1044188 -2.5446107 -1.1681415 -2.826698 -0.05181533 -5.4319367
-4.0601144 -2.5011964 0.9392056 -3.3732162 -1.4543558 -0.6130688 -0.018336426 -0.89283246
-0.036164533 -3.1737409 -1.9314212 0.0048448225 0.001907654 0.004625255 0.030826429 -0.0114278635
-2.5787718 -5.8882804 0.018785337 -0.030506333 -0.020136304 -2.234498 -7.510903 1.9848123
-3.3312113 -2.7955508 -1.9878825 -0.00950185 -0.0005413545 -2.4179988 0.001007423 0.0045197136
-0.028802415 0.0053516235 -0.5111464 -1.0071015 -3.6045034 -0.021934345 -0.03276073 -2.619843
-1.4191127 -0.031272404 -0.03476623 -0.025644774 0.022920966 -0.0045402455 -3.0455852 -3.0332012
-0.035940245 -0.056918304 -0.0062483214 -0.05595835 -0.0105946185 0.032669354 -1.1250749 -5.4038415
-0.018334938 -5.926113 -0.020128312 -6.1993504 -1.2414284 -0.043985143 -0.009132672 -1.3845061
-0.18013401 -2.7728457 -0.0069215065 -3.1631956 -2.6547847 -0.9351616 -8.330789 -0.023021825
0.009892602 -2.6520607 -1.4584335 -1.967438 0.028478654 -5.095049 -1.2885562 -0.0036955834
0.019467786 -3.7899346 -6.091765 -5.148895 -0.016707264 -4.9608545 0.006619926 0.01720543
-0.007304258 -1.1802418 -1.9283727 -0.753054 -0.03387673 -0.029612267 0.005886481 -2.858127
-4.5817018 -0.01410864 -0.047133327 0.026023645 0.026596276 -1.0191787 -0.018845728 -0.025212537
-1.6809067 -1.5985125 -1.3783509 -0.034719944 0.0072874227 -0.02018604 -0.01258994 -0.6703834
-1.3706782 -3.4494307 -0.030688772 -0.010804054 -1.9315919 -0.6721159 0.27390337 -0.012290626
-3.2814867 -0.021617023 -2.2741683 0.017764341 0.020212773 0.019134836 -0.006087857 1.4160638
-0.010070879 -0.00020233593 -0.038974192 0.00019939874 -1.2855654 -0.94705594 -0.02270701 -2.114341
-0.5568282 -0.013284982 -3.6911142 -2.146339 -0.035904918 -1.8252919 -0.008047227 -2.9759536
-0.009742961 0.0069413283 -4.9407024 -1.1711004 -3.6222026 0.006509162 -4.089165 -1.2521657
-2.9311895 -0.017704243 -1.0524523 0.00019108893 -1.1908789 -0.026597943 -0.01919685 -1.7691584
0.023706092 -0.0352429 0.46265188 -0.06777288 -3.9505463 -1.2446246 -1.793445 -0.011779188
-0.06720553 -0.025138395 -0.0070804153 -4.770017 -1.1174974 -0.786998 -3.9262655 -0.03978593

a2c_network.actor_mlp.2.weight f4 [128, 256]
00000000: 3a3b e3bd 88aa 11bd b6dd 4a3e bc64 c6be
00000010: 6382 043e b9b8 81be bd97 3fbf d216 b63f
00000020: 6ee1 d53e 4596 a13c eb48 b13f cef2 963f
00000030: 6106 213d 49d3 b53e 462b 373f efa0 f53e
00000040: 4788 2e3f a670 1a3f 85a1 793b 61d0 ea3e
00000050: 91de 623e 5f65 0fbf c3fb 693f 4f78 6dbe
00000060: ce48 0b3f 749d 963f 81cd b1be 08b5 2f3f
00000070: 2987 fc3e 7ae3 743f c290 2b3f ced1 973f
00000080: 2e0f 70be 3fa1 e8bd e3a7 da3e 7966 d8bd
00000090: c713 2e3e b405 a43e b571 7ebe 6c40 733d
000000a0: 3dcb a53e 39be 1a3f ff5e 803e fc15 e8bd
000000b0: 3ac2 5cbd 535b 173e c268 eb3e 77e7 fd3f
000000c0: 178e f5be e5ef 4c3d b7c1 a73f 0e47 303e
000000d0: 7442 00c0 0a12 663e fb92 0a40 5e2b ee3e
000000e0: 8d2e 0f3f f1f6 c73f 153c fe3e 305c 093e
000000f0: 79d2 e83f 6b48 00bf ecb8 a13f 5ba8 26be
00000100: c53f fa3d 0831 33bf ae40 56bd a965 993e
00000110: f8e7 dbbe 4b8c 033f d64b d83e 35c1 f9bd
00000120: 0d3b 56be f3ee d53e 6dff 2440 14f7 ba3f
00000130: 08db 103f eb55 a93f 5b46 5dbd 3a46 1b40
00000140: adff 883f 9f99 4ebe 98f4 c3bf de2b ac3e
00000150: 0fb4 cdbe cf2d 42bf 6c3d 63be b885 88bf
00000160: 8d3c d73d 75f2 9c3f 703a 793f 2da6 eabe
00000170: 60e3 6abe f4df 2bbf 3d55 99be b5c9 c3bd
00000180: 23bb 853e 1e87 a73f beb1 3f3e 0de6 503f
00000190: 5355 a3be 83c5 203f 84ab 3440 1400 58bf
000001a0: 23b2 ad3f 5b69 123f 5326 353f d845 ac3e
000001b0: 97c9 263d cfc2 f2bd f551 8b3e 5e6e 503f
000001c0: 6581 4e3e 866c 6abe 4d43 d6bf 6969 173f
000001d0: a95a 44bf ccb2 043f b78a 793f 52ac 533e
000001e0: 8e1d 783f 8a91 113f da81 d33e a38d 24be
000001f0: f9f8 a4be 5166 573d 090d 7a3e 0100 fabd
00000200: 8d4a 663f 8513 fa3d aa7c 6a3e 33f5 273e
00000210: c4c6 a63e db65 b0be 28c0 38bf cad8 f53e
00000220: c999 cb3d 6656 1740 545a 343f 15f5 3e40
00000230: 507f af3d f9b1 0f3f 090b 35be 5566 aa3f
00000240: d687 2c3f 24be d53c 05ef d7bd b569 3abe
00000250: 2496 e0be 906f adbf 7132 3840 9a82 9d3e
00000260: 62df 89bf ff98 e3be d3ce f0be 960f 12be
00000270: 71aa 5c3e f62e d03f 80e4 50bf 79e8 7e3e
00000280: 5f03 54bf 3c6c dabe 05e5 e33f 73be 1540
00000290: e5ba 343d 5ebb 0a40 c1f0 2e3f e14a bdbe
000002a0: 27ea 063f d27d 833f 4875 89be a7e9 9e3d
000002b0: c941 1e3e 0d5f cfba afcc 9d3e aa2a 873e
000002c0: daaf d73f 14dc 163f 34ad 603e 0f3b fbbd
000002d0: eff0 013e 3659 10bf eae0 623e f350 873d
000002e0: f454 963f 3bd2 893f a573 7d3f 7be5 ef3e
000002f0: 00b0 3c3d 1d22 bcbe 6ddc 863e 9177 80be
00000300: 239e e6be 1b1d 0c40 4ec9 743e bbf5 bf3d
00000310: a9aa 5d3f 352e 1dbf 05db 4dbf 0aa5 c3bd
00000320: 8d5c 533f 7bba 9abe c136 9d3f 6253 bcbc
00000330: f099 483f 4fe0 403d d217 f1be 151f a8bf
00000340: f9db 973d b42e 32bd 281c ba3d 9468 e73e
00000350: ec88 d13e 9cdd 943f 9d44 573e 4a65 213e
00000360: d5ba cabf 7a49 123e 1cbf 153e 46dc 4fbf
00000370: 1e51 6d3f 38e9 84bd b84c 9f3c a510 403f
00000380: 7958 ac3e 51ba ae3d aa2c 7f3f c218 47bf
00000390: 73e0 c23f 8bd5 43bf 6e37 3d3e d51a 73be
000003a0: eed9 0440 72cb 0a3e 6f79 bebf 649e 083f
000003b0: e73f a33e a529 813d a54f 0f3f c7b1 d5be
000003c0: f896 a5bd 117f 513f d300 87bf ee0f 99be
000003d0: 9f39 be3f 8aeb a3be d33b 40bf 31ec 6e3f
000003e0: ecde 903e 7bdb 913e c3a8 6fbe 11f8 a23f
000003f0: 6eac 9bbe fc8e 483d 067f ab3f b724 053f
-0.11095281 -0.035563022 0.19811139 -0.3874873 0.12940364 -0.25336245 -0.7484091 1.4225714
0.41773552 0.019724974 1.3850378 1.1792848 0.039312724 0.3551276 0.71550405 0.47974345
0.6817669 0.6032814 0.0038090658 0.45862105 0.22155215 -0.56014055 0.9139978 -0.23190425
0.54407966 1.1766801 -0.347271 0.68635607 0.4932187 0.956596 0.6701776 1.1860902
-0.2344329 -0.1135888 0.42706212 -0.1056642 0.16999732 0.320356 -0.24848063 0.05938761
0.3238162 0.60446507 0.25072476 -0.11332318 -0.053896166 0.14780931 0.4597836 1.9836262
-0.47959968 0.05003347 1.3105992 0.17214605 -2.004056 0.22467819 2.165221 0.46517462
0.55930406 1.5622236 0.49655214 0.13414073 1.8189231 -0.501105 1.2634559 -0.1627516
0.12219194 -0.6999669 -0.052307777 0.29960373 -0.42950416 0.51385945 0.42245358 -0.121950544
-0.20920964 0.41783866 2.57809 1.4606652 0.56584215 1.3229345 -0.054022174 2.4261613
1.0703026 -0.2017579 -1.5309019 0.33627218 -0.40176436 -0.7585115 -0.221914 -1.0665808
0.10509596 1.2261492 0.97354794 -0.45829907 -0.22938299 -0.671386 -0.29947844 -0.09559957
0.26119336 1.308811 0.18720147 0.8160103 -0.31901035 0.6280138 2.8229685 -0.8437512
1.3569988 0.5719201 0.70761603 0.33647037 0.040719595 -0.11853563 0.27210966 0.81418407
0.20166548 -0.22892961 -1.6739289 0.5914522 -0.76700836 0.5183532 0.9747729 0.20671204
0.96920097 0.568627 0.41310006 -0.16069655 -0.322212 0.05258781 0.24419035 -0.12207032
0.89957505 0.12210754 0.22899118 0.1640213 0.3257352 -0.3445271 -0.7216821 0.4801696
0.099414416 2.3646483 0.7045033 2.9837086 0.08569205 0.5613094 -0.17679991 1.3312479
0.6739477 0.026091643 -0.10543636 -0.18204387 -0.43864548 -1.3549671 2.8780787 0.30763704
-1.0771296 -0.44452664 -0.47032794 -0.14263758 0.21549393 1.6264331 -0.81598663 0.24893369
-0.82817644 -0.426607 1.7804266 2.339749 0.04412355 2.167686 0.6833611 -0.3697119
0.5270104 1.0272772 -0.2684729 0.077594094 0.15454783 -0.0015821174 0.30820224 0.26399738
1.6850541 0.5892956 0.21941072 -0.12267124 0.12689565 -0.56386125 0.2215611 0.06607237
1.1744676 1.0767282 0.99004585 0.46854767 0.046066284 -0.36744776 0.26340047 -0.25091222
-0.45042524 2.1892765 0.23904917 0.09373041 0.8658853 -0.6139863 -0.8041232 -0.09552963
0.82563096 -0.30220398 1.2282335 -0.022988979 0.7835989 0.047088917 -0.47088486 -1.3134485
0.07415003 -0.04350157 0.09087402 0.45196974 0.40924776 1.163013 0.21022268 0.15761295
-1.5838267 0.14285842 0.14623684 -0.81195486 0.927019 -0.064897954 0.019445762 0.750254
0.3366125 0.08531631 0.99677527 -0.7777215 1.5224746 -0.76497716 0.18478176 -0.23740704
2.0758014 0.1355417 -1.4880809 0.53366685 0.3188469 0.06306771 0.559809 -0.41737196
-0.08085436 0.8183451 -1.0547127 -0.29894966 1.4861335 -0.3201564 -0.75091285 0.9332915
0.28295076 0.28487763 -0.23404221 1.2731954 -0.3040499 0.048964486 1.339814 0.5200915

a2c_network.actor_mlp.2.bias f4 [128]
00000000: 1f07 4ec0 9333 03c0 d042 c0bf 563b 7dc0
00000010: a527 1fc0 dd59 91be 5cf7 86bf f366 56c0
00000020: 2589 dfbf 33dc 51c0 4037 81c0 4bee 3bc0
00000030: 178b 7ebf 3dfa a4c0 7fc5 56c0 a4b4 8abf
00000040: eaa6 08c0 3831 babf 4994 45c0 2557 eabf
00000050: 3f26 16c0 a0e3 82c0 a5ec bcbf 9a72 b7bf
00000060: 840c 26c0 9a43 a6bf 266e 4cc0 0eed 44c0
00000070: ad13 d5bf 44f1 f6bf fe36 62c0 e251 8dbf
00000080: 1349 9fc0 e56a 07c0 c8ad 1ec0 b867 6cbf
00000090: 23cc 42c0 fe31 9bbf 15d4 bcc0 ea14 d1bf
000000a0: cf2c 07c0 4f93 2bc0 b386 99c0 6a3f 1ac0
000000b0: 53d2 edbf e7c6 77c0 2631 fbbf 98f8 72bf
000000c0: d08a 73c0 29e0 21c0 3cce 07c0 0101 86c0
000000d0: 877b 4ec0 265f 85bf 22aa eabf 35e8 cdbf
000000e0: b83b 69c0 fc56 92bf c45c 17c0 4274 3dc0
000000f0: 4985 bcbf 4af5 20c0 cc73 86c0 b10d 46c0
00000100: 0abd 86bf d3e6 edbf 2a68 47c0 4b0a b5bf
00000110: 85f9 d0bf f128 0dc0 ebd6 f5bf 5f5b 9ebf
00000120: 77df 55c0 29cc 17c0 03c0 88c0 dc2f bfbf
00000130: bfce afbf 74d4 02c0 6c20 20c0 4fb9 81c0
00000140: 0ceb bac0 f240 f3bf 4428 4fc0 5b9c 74c0
00000150: 36e1 f5bf d396 99bf 8d1b a7c0 2121 8bc0
00000160: 3e4e d5bf a28f 65c0 049f f8bf 4be8 c6c0
00000170: 7c72 d3bf dd0d 0cc0 291d bbbf d6e0 17c0
00000180: 1fa3 7dbf 5397 33c0 d4dc 27bf cc34 65bf
00000190: ea89 20c0 ba05 80c0 84a4 25c0 ea1c 0bc0
000001a0: bef1 95c0 fcbf 3ac0 85dc 4dc0 0f4b 8dc0
000001b0: db1c 2dc0 4dd5 cebf c3fb 6ac0 ec2e 82c0
000001c0: c100 83bf 8d55 3cc0 b0c7 eabf ef60 84c0
000001d0: 530d c1bf 46aa 20c0 da16 febf 128d 80bf
000001e0: 73e0 84c0 d587 52bf 1ec4 ffbf c5f0 bdbf
000001f0: 4d1d b1bf 5685 80c0 8c17 fabf 1696 30c0
-3.2191846 -2.0500228 -1.502039 -3.9567466 -2.4867947 -0.28388873 -1.0544238 -3.3500335
-1.7463728 -3.279065 -4.0379944 -2.9364192 -0.99430984 -5.1555467 -3.3558042 -1.0836377
-2.1351876 -1.454627 -3.0871756 -1.8307844 -2.3460844 -4.0902863 -1.4759718 -1.4331849
-2.594514 -1.298938 -3.194223 -3.0769687 -1.664663 -1.9292378 -3.5346065 -1.1040614
-4.97767 -2.1158993 -2.4793568 -0.9234576 -3.0437095 -1.2124631 -5.900889 -1.6334507
-2.11211 -2.680866 -4.797693 -2.4101205 -1.8579811 -3.871515 -1.9624374 -0.94910574
-3.8053474 -2.5293067 -2.1219625 -4.1876225 -3.2262895 -1.0419662 -1.833317 -1.6086489
-3.64427 -1.1432796 -2.365037 -2.9602208 -1.4728175 -2.5149713 -4.2016354 -3.0945857
-1.052644 -1.8586067 -3.1157327 -1.4143766 -1.6326147 -2.2056239 -1.9206213 -1.2371634
-3.3417642 -2.371836 -4.273439 -1.493648 -1.3734969 -2.044217 -2.5019789 -4.0538707
-5.8411922 -1.9004195 -3.2368326 -3.8220432 -1.9209354 -1.1999153 -5.222113 -4.347794
-1.6664503 -3.5868917 -1.9423528 -6.215856 -1.6519313 -2.1883461 -1.4618274 -2.373098
-0.9907703 -2.806111 -0.6557133 -0.89533687 -2.5084176 -4.000699 -2.5881662 -2.1736398
-4.6857595 -2.9179678 -3.2165844 -4.4154124 -2.7048862 -1.6158844 -3.6716163 -4.068228
-1.0234605 -2.9427216 -1.834219 -4.1368327 -1.5082191 -2.5103927 -1.9850724 -1.0043051
-4.1523986 -0.82238513 -1.9981725 -1.4839102 -1.3837067 -4.0162764 -1.9538436 -2.7591605

a2c_network.actor_mlp.4.weight f4 [64, 128]
00000000: 2436 2abe 0a11 48be 899a 42be 4406 40be
00000010: 6668 643c 9f82 8fbd f399 b9bf dd02 843d
00000020: c788 5fbe 4d27 3dbe 203f a93e 7861 233e
00000030: cc40 82bd 2a95 603e 193c 2b3e 7bcf 28be
00000040: beb3 0b3e 0566 843e d159 7c3d 0458 1fbe
00000050: 5a17 013f d7ce debd 19ff 9dbd 2133 e53d
00000060: efdc d3be c2d6 f43e 6231 683e 0092 62be
00000070: 4dd6 893e 72e4 8cbe 057d c9be fd9b 90be
00000080: 3412 ffbd 888e 86be 3de3 bfbd 92f8 993d
00000090: a8e2 953e b71f 8cbe 4a8a c7bd 480a 643c
000000a0: 7300 843e 1cad eebd b1c1 793e 1eb2 15bf
000000b0: 1643 5b3e fe2a 42bd 9486 b3bc e0ee 36be
000000c0: 5089 a23e 773e 7f3d 5ac7 4fbd b53e 71be
000000d0: ec7c 11be 3b3d c9bd 08ab 243e 847f 403e
000000e0: c690 7d3d 68f0 87bd 0136 c038 e7bb bcbc
000000f0: 112a d2be be2f b13c d974 913d ba3c 3f3c
00000100: 2e51 a03d da83 dc3d 4152 cb3e 5409 993d
00000110: 3f87 66bf b67b e23e 5295 52be 9061 40bd
00000120: 6ebe dc3e b8a5 933c ba06 b83d 3287 883c
00000130: e13e a83e 1818 043e 4884 57be a3ba ba3e
00000140: feb7 173d e946 173d d865 7dbe 42c7 313e
00000150: e481 233e d52c 5ebe e56d 853d 1dfd e93d
00000160: ad31 54bf e610 f83e 1b9e 57be 756a 213e
00000170: 6ed0 b13c f525 edbd 7ac9 49be 6a5f 8d3e
00000180: e875 173e 0e3a db3e 45ef f9bd 84b5 be3d
00000190: 2723 5d3e 18a0 1d3e 2db1 9e3e d909 92bd
000001a0: 9f9b ab3e d06e 33bd ea2c 5fbc 991b 313e
000001b0: 58c9 f6bc f563 883c 7051 133e 16d6 86be
000001c0: 6244 583d fb19 cc3c 1a69 a53d 79d9 ae3e
000001d0: 06a1 3abe 0193 973e 57d0 3ebe 3915 c13c
000001e0: f6ad e33d 977f 373e 9042 343c 3b04 df3e
000001f0: e9ec e13d 28e4 923e 9288 b5be a7fd 8dbf
00000200: 9322 edbd c536 9ebd 16a9 ce3d 688e 05bd
00000210: abd5 89be 487a 18bb a9b1 543c eafd 93be
00000220: 64e2 223e 269c 50be 3459 a03e 4d9b 013e
00000230: eeb2 953c a1dd dd3d af6e 3a3e 7261 32be
00000240: 9c80 913d cd57 883d 2ec5 6a3e 1ecf 1fbe
00000250: 5afb 963e dc30 a13d 7b3b b3bd ff94 0b3c
00000260: b356 57be 7bc0 52be b3bc 8c3e f14e cabd
00000270: 59b6 353d c453 bfbe 4e20 0b3e 54ef cdbe
00000280: c25f 01be d312 d7bd b18b e4bd b75f fdbc
00000290: 5267 743e b8f1 aebd 050c 1b3b b444 2e3c
000002a0: f398 263e f46d 82bd b094 c1bd 7e0c d2bd
000002b0: 7aaf 93bd fcdb d2be 0c27 92bd 4360 003c
000002c0: 2320 893e e0f1 c2bd e4b4 c43c 3eb7 69be
000002d0: 166f acbe 9101 1dbe 7290 343e 59a8 82be
000002e0: 987e c23d 1c5b 983e b457 cfbd 84a7 363e
000002f0: b4dd 403e 2f33 a43d d479 323e 9957 3ebe
00000300: 6a84 983e bf7c fc3c e14e b53e 64b2 d4bd
00000310: 6374 51be fd8f f5bd cfb7 0dbe 1826 fc3d
00000320: 1f6c 83be b825 2b3d d5bd 013b 19f2 c9be
00000330: 0cc6 fc3b 5d57 45bd d755 e93d 8697 e73e
00000340: f695 0d3e f6d8 3e3d 138b a23d f9ea 21bd
00000350: b288 38be ac88 c3bd 4a1f 623e f880 893d
00000360: 2384 0f3e 1d1f 943e 0490 cdbd b8a3 243e
00000370: d8d6 9abe 5b5f b7be c9fb f5bd 042d 4e3e
00000380: a7c0 0abe af75 103e e453 eabc 20ed ad3d
00000390: aff2 863c 4644 2a3e 9766 c5bd c8cf a63c
000003a0: 6df6 2f3e a408 113e 2676 50bd aaa9 553e
000003b0: 7471 8cbe e1c8 02be d98c 94be 72b0 a53e
000003c0: e2bb 293e fe96 1abe bc40 4abc 473f cabe
000003d0: 4bf7 e7bd a992 a93e 9581 6dbe 4f7a 083e
000003e0: cf07 8abc 5265 8bbe dc6c 623d 6024 2f3d
000003f0: f35a ee3d f49a b7bd 13d7 0cbe 625c 293c
-0.16622216 -0.1953775 -0.19004263 -0.1875239 0.013940906 -0.07007336 -1.4500107 0.06445859
-0.2182952 -0.18472023 0.33055973 0.1595515 -0.06360015 0.21931902 0.16722144 -0.16485398
0.13642785 0.25859085 0.061609093 -0.15560919 0.50426257 -0.10879295 -0.07714672 0.11191393
-0.41379496 0.47820097 0.22675088 -0.22126007 0.2692131 -0.2751804 -0.39353195 -0.2824401
-0.12454644 -0.26280618 -0.09369514 0.07518114 0.29274487 -0.27367947 -0.097431734 0.013918467
0.25781593 -0.11654112 0.24390294 -0.5847491 0.2141231 -0.04740428 -0.021914758 -0.17864561
0.31745386 0.06231543 -0.050727226 -0.23559077 -0.1420781 -0.09826132 0.16080868 0.18798643
0.061905645 -0.06637651 9.1653324e-05 -0.023038818 -0.4104772 0.02162921 0.07102365 0.011672193
0.07827984 0.10767336 0.39711192 0.07472482 -0.9005012 0.4423501 -0.20564774 -0.046968043
0.43114036 0.018023357 0.08985658 0.016666029 0.32860473 0.12899816 -0.21046555 0.36470518
0.037040703 0.03693286 -0.24745882 0.17361167 0.15967518 -0.2169679 0.06515101 0.11425231
-0.828883 0.48450392 -0.21056406 0.15763266 0.021705832 -0.11579505 -0.19705763 0.27611858
0.14791071 0.4281773 -0.1220384 0.09311965 0.21595441 0.15393102 0.3099455 -0.071307845
0.33517167 -0.04380685 -0.013621548 0.17295684 -0.030125305 0.016649226 0.14386535 -0.2633521
0.05279959 0.024914732 0.08076687 0.34150293 -0.18225488 0.29604343 -0.18634163 0.02356969
0.11117165 0.17919765 0.011002198 0.43557915 0.11031515 0.28689694 -0.35455757 -1.1093034
-0.1157886 -0.0772529 0.10090844 -0.032606512 -0.26920828 -0.0023266245 0.012981811 -0.2890466
0.15906674 -0.20372066 0.31318057 0.12656899 0.018273797 0.10833288 0.18206285 -0.17419985
0.071046084 0.06657372 0.2292678 -0.15606353 0.2948864 0.07870647 -0.087515794 0.00851941
-0.21029167 -0.20581238 0.27487716 -0.09878338 0.044363353 -0.37368596 0.13586542 -0.40221655
-0.12634185 -0.10501637 -0.111594565 -0.03092943 0.23867539 -0.08542198 0.0023658287 0.010636497
0.16269283 -0.06368628 -0.09452188 -0.10256289 -0.07211204 -0.4118346 -0.07136354 0.007835451
0.2678233 -0.0951879 0.024012037 -0.22823808 -0.33678502 -0.15332629 0.17633227 -0.25519064
0.09496802 0.2975701 -0.1012415 0.1783734 0.18834573 0.08017575 0.17429286 -0.18588103
0.29788524 0.030821202 0.35411742 -0.10385588 -0.20454554 -0.11990354 -0.13839649 0.12311953
-0.25668427 0.04178402 0.0019796987 -0.39442518 0.0077140387 -0.04817902 0.11393326 0.4523279
0.13826737 0.04659363 0.079366826 -0.039530728 -0.18020895 -0.095475525 0.22082248 0.06714052
0.1401525 0.28929988 -0.100372344 0.16078079 -0.30242038 -0.35814938 -0.12010915 0.2013436
-0.13550054 0.14107393 -0.028604455 0.08492494 0.016473142 0.16627607 -0.09638708 0.02036275
0.17183848 0.14163452 -0.050893925 0.20865503 -0.27430308 -0.12771942 -0.29013708 0.3236118
0.16575578 -0.15096661 -0.012344535 -0.39501402 -0.11326464 0.33119705 -0.23193963 0.13327907
-0.016849427 -0.2722574 0.055279598 0.0427593 0.11638441 -0.08965102 -0.1375392 0.010336967

a2c_network.actor_mlp.4.bias f4 [64]
00000000: 399e 8bbe 89b9 17be 37eb 7bc1 10c2 e0bd
00000010: 3ca7 4cbe cdad 67bd 82a3 1fbe ebd4 36bc
00000020: ab02 a9be 2163 6bbe af19 13bf f7ab 7fbe
00000030: 0913 17be 33e4 34be 4a7d a83c dccc 0bbe
00000040: 4f55 24bd feff a9bd 94ee 66bf 72db 55be
00000050: 8f79 90bf 1a1f 09bf 9621 19be 3187 54bf
00000060: 1af9 b7be a167 633d 90a0 09bd 5685 953d
00000070: bcae e7bd 4e9b e5bc 89d1 97be ba03 2cbe
00000080: 00d2 aabd b972 75be 0272 eabc c335 8dc0
00000090: 9bc0 65bd 554c c9be e5a0 86be 8460 0a3c
000000a0: b42a 31bd 7bc2 04be 1b03 0ebd aedd b3be
000000b0: 05fd 1bbe e803 87bf 859a 0ac0 c98f c6be
000000c0: 6c54 38be c4aa 8cc1 6c4e 9dbc 6ad3 19bc
000000d0: 2cc7 86bd 2ae0 bebc 2ac1 96be c629 5dbe
000000e0: 7858 9ebe 4dd6 b3bd 0bfa 95be 64d4 2dbe
000000f0: 32d2 97be aabf 76be 4cbe 70bd 9f68 45bf
-0.27269152 -0.1481687 -15.7449255 -0.109745145 -0.1998567 -0.056562234 -0.15589717 -0.011159162
-0.33009848 -0.22987033 -0.57461065 -0.24967943 -0.14753355 -0.17665176 0.020567555 -0.13652366
-0.04012042 -0.0830078 -0.9020779 -0.20884493 -1.1287097 -0.5356308 -0.14954218 -0.83018786
-0.35932237 0.05551875 -0.03360039 0.073008224 -0.11312625 -0.028028157 -0.2965205 -0.16798297
-0.083408356 -0.23969544 -0.028618816 -4.4128127 -0.056091886 -0.3931605 -0.26294628 0.008445863
-0.043253615 -0.12964813 -0.03467093 -0.35130066 -0.15233238 -1.0548067 -2.1656811 -0.38781574
-0.18000954 -17.583382 -0.019202434 -0.009388784 -0.06580958 -0.02330025 -0.29444247 -0.21597967
-0.3092687 -0.08781109 -0.2929233 -0.16975552 -0.29652554 -0.24096552 -0.05877523 -0.77112764

a2c_network.value.weight f4 [1, 64]
00000000: 3f51 2c3b f71b 383a 4bd9 7d3b 23ed 803a
00000010: 1430 8eba 0100 2038 f24a 8ab9 3208 443b
00000020: f066 d3ba c3a6 1bbb c730 83ba 11e0 353b
00000030: 71a7 73b9 4ae8 1f3a 680d 2a3a aee0 303b
00000040: 0aa5 2739 7e8e 733a 3e55 013a 1d68 023d
00000050: e2cc 2d3c e263 8f3a 98e6 873b 5c12 6a3a
00000060: fdad f3ba c00c 1abd dd39 23bb c437 473a
00000070: 2cf1 4ebb dc08 afbc fe1f 933a a869 a3b8
00000080: 7477 a0ba 5ea2 45b9 5d18 0cbb a07b bd3c
00000090: aae9 033b 736a 983a 34f7 86ba 10c0 63ba
000000a0: eb67 c13a cd38 a63b 078f e3ba f900 e1b9
000000b0: fdb0 423b 42c1 40bb 8a94 61bc 4bda 5a38
000000c0: b99f 323b 4956 5cbc 4bb0 7aba 6714 583b
000000d0: ae6a 003d b9dc 34bb cc6c 383a 1fdc 6c38
000000e0: 6607 dfb9 367d 93b9 1a4c 903a 89b4 f139
000000f0: 2e5c 3f3b 013d 89bb ad05 12ba a935 2ebb
0.0026293544 0.000702321 0.0038734253 0.0009836297 -0.0010848069 3.8146976e-05 -0.0002637725 0.0029912111
-0.00161287 -0.002375052 -0.0010009044 0.0027751962 -0.00023236663 0.00060999824 0.0006486983 0.0026989388
0.00015987843 0.00092909473 0.00049336615 0.03183757 0.01060793 0.0010939802 0.004147362 0.00089291274
-0.0018591281 -0.037609816 -0.0024906315 0.0007599557 -0.0031576855 -0.02136653 0.0011224744 -7.792126e-05
-0.0012242631 -0.0001884787 -0.0021376826 0.023130238 0.0020128288 0.0011628404 -0.0010297061 -0.00086879823
0.0014755701 0.005072689 -0.0017361351 -0.0004291607 0.0029707544 -0.0029412066 -0.013768325 5.217855e-05
0.0027255847 -0.013448306 -0.0009563013 0.0032971145 0.031351738 -0.0027597381 0.0007035255 5.647179e-05
-0.00042539387 -0.00028131314 0.0011009008 0.0004610161 0.002919923 -0.0041881804 -0.0005570304 -0.0026582277

a2c_network.mu.weight f4 [9, 64]
00000000: 8569 b13d dd3a 1f3d 8bc5 afbc cae6 0739
00000010: b188 103a e559 e63a 15f9 c937 0866 6e3b
00000020: e8f6 60bc 9383 51bc e305 0abe 86af 813a
00000030: 6bc3 c6ba 0108 cbba e4c8 b738 cfa7 24bb
00000040: 81ef beba 4bbe 9bb9 7429 f3bc 65a2 eebb
00000050: 9864 463c 24e2 913d 5ba5 b83b 575e 82bd
00000060: c065 8dba 9b9c 56b9 036a 8dba 45d5 e13a
00000070: c20c 81bd b9d2 95bc 8d0e ebbb 5f07 de3a
00000080: bade cabb 4351 ac3c e657 84ba e614 c73c
00000090: 705e ebb9 9c03 f7bc 7e27 f1ba bf51 22ba
000000a0: ac31 eaba 2d02 a1b9 f6de 7fb8 d23c c03b
000000b0: e23f c53b d340 4abc 4d0b 65bd 51fa 34bc
000000c0: 6989 9a3a 4c98 99bb 5ade 7b3b c1aa aaba
000000d0: 72dc ce39 7be2 adbb 0d51 ccbc 2add c53b
000000e0: d840 6f3a ae7e 1e3b b4fa 2f3b 9836 cb3c
000000f0: 5b7b 24bd 64ea 7c3c 92fd d93a eb47 6cbc
00000100: 3f2e 253d d353 b73c 3571 853d a3fe 66ba
00000110: 393d cdba bb6c 87bb 2fc6 8e38 2b3b a7bb
00000120: 5477 963d c524 1f3b 7ab8 d0bd 251c 56bb
00000130: 9557 04bb ff12 043a b731 10bb 3b38 3bbb
00000140: 0d86 60ba a7ad 1bba e558 b13c f7e2 86ba
00000150: a247 3e3c 248f 7bbc 5359 59bb dc39 863d
00000160: c847 8c39 bb38 acbc 24ed ceb7 50aa 7e3a
00000170: 8d49 1b3d e995 0f3c 77c4 ecbc 822e 44bb
00000180: 1d10 853a f5bf d5bc feda 43ba 907a 18bd
00000190: 0a2a b0b8 8c2b cc3c 9c2d 19bb d955 9fba
000001a0: 926c 673a d9c6 f939 c57b b63a ea58 9fb9
000001b0: c5ad 6abb cecb 6c3c d6b9 383d 9a14 643c
000001c0: c29f c93a e499 a23d 3dce 5bbb e4e7 063b
000001d0: 1d91 7cbc b942 403a bd87 e2bc 17a6 48bc
000001e0: 8614 87bb 831b 87bb ec14 81ba 36a2 e4bb
000001f0: 8bbc b8bc 99e3 5fbc 2eff 27ba 04c3 313d
00000200: e5e2 fd3c 0e32 a9bc 2e2f 5c3d 0ef0 3e3a
00000210: 23f7 01bb 4f8a a13a 0572 9d3a 9f71 2abb
00000220: 5e3a 45bd 0a2d c2bc 49fe d6bc 4deb 01bb
00000230: ff06 46bb e752 35bb 4cc2 c83a aa6c 6cba
00000240: b770 e1ba 9ccc 563a 12ff 3ebd 4a2a b23a
00000250: a73a bbbb 8738 d5bd 40bf aaba 9707 303d
00000260: 668d 2d3b 5cb1 babc e900 693a 98f5 993b
00000270: b73e 353d 2b6c de3c 7a73 a4bc e120 8a3a
00000280: c3d6 56bb ac5a e33c f3ca 1ebb 15f8 15bc
00000290: 8267 4fb8 e25e d83c 26c7 0b3b 324d b73a
000002a0: af78 3cba b3d5 093a fe0d c639 4a85 a5b9
000002b0: 5a82 3e3b 152b 093b fff5 d13b c0c0 3fbd
000002c0: aef9 fbba df6e c53d f0d9 7f39 8b51 7c38
000002d0: 830f de3b da3c 32bb 089e 75bc 1ba0 993c
000002e0: 72b7 d138 f685 a53b c880 2339 6f47 d1bc
000002f0: e6e8 283e 13c3 70ba 8deb 883b 791f cabc
00000300: 22c8 96bc 77fe 153e b402 a6bb 5bb9 033b
00000310: e358 523b 49b3 fab9 61f2 aa3a 1250 95ba
00000320: b846 65bb 9170 2b3d 244c 8f3d f6f1 813a
00000330: 4959 823b ddc5 0b3b 3322 bd39 e5ad 113b
00000340: 642a 133b 36a6 22ba 96cf a5bc 37c2 933a
00000350: 8b45 88bc d780 f63c c524 3fbb deef 1abd
00000360: 18de 0bba 752a 34bb 204d a03b d40a eaba
00000370: 25b6 f9bd 95d4 d5bb df2d 9fbc 04db d4ba
00000380: ccd7 7b3b 0e46 efb9 8089 caba 1629 183e
00000390: ded4 8a3b c029 ce3d a2a7 f23a 5106 ed3a
000003a0: 3cb3 963a 7506 403b 32c7 7dba f2a2 23ba
000003b0: 4a32 9fbb d785 2a3d 14d0 223d 1514 47bd
000003c0: fbd7 023b e1e5 ccbb eb9b 8abb 8205 f439
000003d0: 30d5 c0b9 ff5a b73b 2550 2cbd 56e6 adbc
000003e0: 9e6c 26ba 6372 573a d6c6 96ba e3b5 673d
000003f0: a9dd 363d 61dd 7b3c 80af 4dbb c5c3 833d
0.086627044 0.038874496 -0.0214565 0.00012960579 0.00055135327 0.0017574398 2.4077055e-05 0.0036376733
-0.013730742 -0.012787717 -0.13478808 0.0009894229 -0.001516444 -0.0015490056 8.763539e-05 -0.0025124436
-0.0014567227 -0.00029705683 -0.029682852 -0.0072825425 0.012108944 0.07123211 0.0056349463 -0.0636565
-0.001078777 -0.0002046697 -0.001078904 0.0017229697 -0.063012615 -0.018288957 -0.0071733654 0.0016939453
-0.006191102 0.021034842 -0.0010096997 0.024301957 -0.00044893054 -0.030153088 -0.001839861 -0.00061919907
-0.0017867587 -0.00030709934 -6.1004386e-05 0.0058666253 0.0060195783 -0.012344557 -0.05591898 -0.011046008
0.0011790219 -0.0046873447 0.0038432092 -0.0013020859 0.00039455626 -0.0053065396 -0.024940992 0.0060383277
0.0009126789 0.0024184394 0.0026852312 0.024806306 -0.040156703 0.015436742 0.0016631356 -0.014421443
0.040327307 0.022378838 0.06515733 -0.00088117475 -0.0015658505 -0.0041328347 6.808002e-05 -0.005103489
0.07346979 0.002428339 -0.10191436 -0.0032670584 -0.0020193805 0.0005038231 -0.0022002289 -0.0028567452
-0.0008564897 -0.0005938657 0.021648834 -0.001029103 0.011613758 -0.015353952 -0.0033164814 0.065540045
0.00026756362 -0.021023145 -2.466754e-05 0.00097147096 0.03791194 0.008763769 -0.028902275 -0.0029934947
0.0010151897 -0.026092509 -0.0007471292 -0.03722626 -8.4001644e-05 0.024923109 -0.0023373133 -0.0012156322
0.0008828129 0.00047641134 0.0013922384 -0.0003039309 -0.003580914 0.014452888 0.045099102 0.013920927
0.0015382695 0.079395086 -0.0033539676 0.0020584995 -0.015415457 0.0007334161 -0.027652616 -0.01224663
-0.0041223196 -0.0041231527 -0.0009848154 -0.006977345 -0.022550842 -0.013665103 -0.0006408569 0.043398872
0.03099198 -0.02065375 0.05375593 0.0007283696 -0.0019831143 0.0012324544 0.001201213 -0.0026007665
-0.048151366 -0.023703117 -0.0262443 -0.0019824088 -0.0030216572 -0.0027667822 0.0015316694 -0.0009018878
-0.0017199729 0.00081939413 -0.046629973 0.0013592925 -0.005713779 -0.10411172 -0.0013026968 0.04297599
0.0026481985 -0.02278965 0.000888838 0.0046984665 0.044249263 0.027151188 -0.020074595 0.0010538363
-0.0032781817 0.027753197 -0.0024229854 -0.009153386 -4.9449045e-05 0.026412431 0.0021328419 0.0013984798
-0.0007189614 0.0005257979 0.00037775928 -0.0003157056 0.0029069395 0.002093022 0.006407499 -0.04681468
-0.0019224191 0.096402876 0.00024399883 6.0157425e-05 0.0067767515 -0.0027196915 -0.014991291 0.018753102
0.00010000066 0.00505137 0.00015592866 -0.025546758 0.16495094 -0.0009184342 0.0041784705 -0.02467321
-0.018405978 0.14647852 -0.00506624 0.0020099494 0.0032096438 -0.00047817294 0.0013042205 -0.0011391661
-0.0034984779 0.0418554 0.069969445 0.0009914029 0.003977929 0.0021327653 0.0003607437 0.0022228893
0.0022455687 -0.0006204577 -0.020240586 0.001127309 -0.016634723 0.030090732 -0.0029166203 -0.03782641
-0.0005335524 -0.0027491127 0.0048920065 -0.001785601 -0.121929444 -0.006525586 -0.019431053 -0.0016239588
0.0038428186 -0.00045637827 -0.0015452355 0.14859423 0.0042368015 0.10066557 0.0018513093 0.0018083547
0.0011497508 0.0029300724 -0.00096808665 -0.0006242237 -0.00485829 0.041631546 0.03974922 -0.048603136
0.001996516 -0.0062529896 -0.0042300127 0.0004654341 -0.0003677993 0.0055955644 -0.04206862 -0.021227997
-0.00063485827 0.0008218644 -0.001150335 0.056569945 0.044644985 0.015372605 -0.0031385124 0.064338244

a2c_network.mu.bias f4 [9]
00000000: b91d 043e 5f19 08be 586c 8ebd 3631 123d
00000010: 8594 8bbe 2d17 a93b 1595 c83d 9e17 3a3e
00000020: 434e e7be
0.12901963 -0.13290928 -0.06954259 0.035691462 -0.2726175 0.0051602335 0.0979406 0.18173072
-0.45176896

exp_avg f4 [9]
00000000: 3d13 c23a 94e6 f53a 2bde c0ba e2f1 39b8
00000010: c670 2fbc 00fd 253b d4ec 50bb 64fb 9ebb
00000020: cc72 073a
0.0014806759 0.0018760734 -0.0014714649 -4.4332708e-05 -0.01070804 0.0025327802 -0.0031879442 -0.0048517454
0.00051669474

exp_avg_sq f4 [9]
00000000: a9f5 8839 6ad8 8439 6a68 7439 0e17 7539
00000010: 4d59 7439 92bf 6a39 941f 7839 eff9 6d39
00000020: 3548 7839
0.00026122972 0.00025338243 0.0002330855 0.0002337361 0.0002330292 0.00022387345 0.00023662887 0.00022695189
0.00023678022

exp_avg f4 [256, 23]
00000000: a75c c936 f599 0ab6 5d91 c935 027d 30b6
00000010: 547d aeb6 0849 ceb6 b3dd 7eb6 5011 9db6
00000020: 9be0 78b6 1dc6 c6b6 201c 1d37 5533 7eb7
00000030: 8373 3136 c266 3bb7 adba b136 1aa3 0637
00000040: 65fb 96b5 3e3f 8634 e394 3d36 1179 0635
00000050: 38b5 c6b3 6288 9136 b557 6ab6 e3ed ca36
00000060: dbfa ebb5 a479 0a36 f20f d8b5 0d00 8cb6
00000070: fd73 d0b6 2f96 69b6 e2bc 25b5 0bbd db34
00000080: b7ed 21b7 5885 1637 338c d8b6 8149 3536
00000090: f8c1 2ab6 9915 20b5 ed23 1435 35d1 c9b6
000000a0: 300b c7b5 1882 1b36 bfda a3b4 b703 7eb5
000000b0: 10e2 6936 4294 dab4 2ae8 3138 0a53 04b8
000000c0: 4d09 4437 c647 80b7 849f 00b8 9775 09b8
000000d0: 79b9 28b8 5d30 f1b8 3a20 10b8 b679 c5b7
000000e0: 311b 9037 eafe b538 cdd0 0938 25ab d638
000000f0: 384d 03b8 cc1e 5eb8 2fa1 01b7 e9bd 2338
00000100: b780 ef37 b148 66b6 6457 a3b7 9bdf e137
00000110: b329 34b8 7650 87b7 79e3 bb36 9e84 b6b6
00000120: 8e60 b736 47ca 2a37 845e 6437 d1b6 1d37
00000130: 2671 34b5 aa7b b736 8676 c836 be4e 38b7
00000140: 8f36 5937 e02a 01b6 243a 5b37 0785 a1b5
00000150: 5f46 2ab7 0150 5ab6 c5f6 0e36 8a7d d9b6
00000160: 8a92 a9b5 3b4a af35 430b 21b7 7190 3536
00000170: a847 5739 a9a1 c5b8 c3d5 b738 edec 96b8
00000180: fb5f bfb8 48f2 14b9 f7b3 edb8 06f8 7cba
00000190: 2a58 8ab8 4241 ddb9 b1c4 5438 3716 fbb8
000001a0: 1648 6db8 1720 7039 071d b538 1d9f c139
000001b0: bb80 10ba b310 92b9 c550 b038 799a f137
000001c0: 99fa 5db8 d556 ed38 3d7b 3b39 84b0 14b5
000001d0: 01f7 e8b3 92e5 76b5 d706 79b5 6be5 cdb4
000001e0: 0a92 4235 f0c1 3235 3397 0bb6 0abd 83b6
000001f0: 1a95 8a36 9764 9e35 eb3c 03b7 02ad d5b6
00000200: 9642 0fb7 b932 a3b6 5ea3 5236 6080 9936
00000210: 6aaa 96b6 2413 2135 1005 0c35 36a7 9735
00000220: a8be 8435 54de 3735 1c70 10b9 d13e a538
00000230: 1ebf 8ab8 57f7 4a38 6c89 3a38 13b2 c538
00000240: 0438 9d38 2d7a 1db9 02fe d137 70ae 1639
00000250: 90fc b538 9311 e4b8 7459 0439 3cbd 60b9
00000260: 0612 8939 5828 20b8 107f 40b9 dcf0 fe37
00000270: 5ea7 a7b8 e85f 27b8 282c 1438 1d6c 9bb8
00000280: 605a bb38 74b6 f8b9 6e97 c438 056d 06b9
00000290: 29ac c938 f057 9e39 905d b139 0f8a 5639
000002a0: 4c24 87ba b2e4 f038 5227 0eba 274f eeb9
000002b0: 832d 673a 2e72 2bb8 1981 513a 1578 153a
000002c0: 3762 0639 7a1d 3cba 519b d7b8 5dce f5b8
000002d0: 2627 ab37 34c0 84b6 331c 52b9 d756 b1b8
000002e0: 18dd 26ba 893d c438 4309 e1b8 b27d 7138
000002f0: cafb df39 8d4c c639 b6ba 3639 0013 c039
00000300: c2c7 9439 3bf8 2f39 a8ef 3fba 5af6 253b
00000310: 87ea 4cb9 f867 033b 11d9 b6b9 6e3b 87b9
00000320: f64a 793a d886 eb39 d7dc f3b8 2dd3 24b8
00000330: 89c3 c8b7 a627 3fb9 3f48 d3b8 aab8 a636
00000340: 3387 00b6 0e9e f035 1a9d 96b5 1cee cdb5
00000350: 66b6 f1b5 5c0c 13b6 5418 e236 1dfe 91b5
00000360: 7687 db36 1e79 d9b6 afad 3f37 372f 1136
00000370: c5cd c136 a8c2 2d35 1b4c b1b6 ee6d 9e35
00000380: 7f4a b636 7ddd 2236 5b4c a535 425c 3eb5
00000390: 3494 2336 83a7 f0b5 bcdd af39 2ba0 03b9
000003a0: ba83 0239 d8fe cdb8 184f 21b9 6d83 81b9
000003b0: be74 04b9 3c56 86b9 08e3 32b9 25c8 1a39
000003c0: 4f59 f838 b4c0 4439 bffd d438 9740 1039
000003d0: 7ff9 31b9 b1e2 8db7 9f76 e3b9 1b83 3cb9
000003e0: 37de 1139 c93b 1f38 4ba5 3cb8 60ed 3839
000003f0: 6b85 4b38 8a06 1a3a d034 34b9 6e3a 4739
6.001053e-06 -2.0653217e-06 1.5017973e-06 -2.6298808e-06 -5.200194e-06 -6.1477804e-06 -3.7977995e-06 -4.68098e-06
-3.7085617e-06 -5.9239233e-06 9.364478e-06 -1.5151531e-05 2.6442292e-06 -1.1169994e-05 5.296743e-06 8.024997e-06
-1.1249036e-06 2.500546e-07 2.8249858e-06 5.0095065e-07 -9.253057e-08 4.337214e-06 -3.491977e-06 6.047763e-06
-1.7581873e-06 2.0634407e-06 -1.6097895e-06 -4.172331e-06 -6.212386e-06 -3.4807124e-06 -6.174215e-07 4.0929476e-07
-9.651695e-06 8.971743e-06 -6.453623e-06 2.7013887e-06 -2.5444879e-06 -5.9636074e-07 5.5186575e-07 -6.0146217e-06
-1.4829911e-06 2.3172524e-06 -3.0520275e-07 -9.462778e-07 3.4851291e-06 -4.0713536e-07 4.2416308e-05 -3.154859e-05
1.1684676e-05 -1.5292211e-05 -3.066614e-05 -3.277286e-05 -4.0227056e-05 -0.00011500784 -3.436229e-05 -2.3540906e-05
1.71788e-05 8.678234e-05 3.2857806e-05 0.00010236193 -3.130475e-05 -5.2957606e-05 -7.726528e-06 3.9039096e-05
2.8550958e-05 -3.4314983e-06 -1.9471809e-05 2.6926215e-05 -4.295418e-05 -1.6130722e-05 5.5995156e-06 -5.4394613e-06
5.4650654e-06 1.0179886e-05 1.3611865e-05 9.4004945e-06 -6.721988e-07 5.4682214e-06 5.9742624e-06 -1.0985588e-05
1.2946911e-05 -1.9247454e-06 1.3066954e-05 -1.2034151e-06 -1.0149174e-05 -3.25311e-06 2.1303288e-06 -6.4817186e-06
-1.263413e-06 1.306012e-06 -9.59897e-06 2.7055178e-06 0.00020530692 -9.4238036e-05 8.765936e-05 -7.196688e-05
-9.1254675e-05 -0.00014204637 -0.00011334562 -0.00096499955 -6.5967746e-05 -0.00042201026 5.0727922e-05 -0.000119727505
-5.657234e-05 0.00022900138 8.636159e-05 0.00036930377 -0.00055123464 -0.00027859732 8.4073785e-05 2.880137e-05
-5.2923893e-05 0.000113172144 0.0001787962 -5.539116e-07 -1.08482716e-07 -9.197621e-07 -9.276968e-07 -3.835115e-07
7.2483147e-07 6.6592384e-07 -2.0800624e-06 -3.9261113e-06 4.130078e-06 1.1801193e-06 -7.822392e-06 -6.3680354e-06
-8.538967e-06 -4.8636834e-06 3.138753e-06 4.5747e-06 -4.490187e-06 6.0005027e-07 5.216143e-07 1.1299041e-06
9.890255e-07 6.849634e-07 -0.00013774674 7.8795136e-05 -6.615951e-05 4.8390906e-05 4.447384e-05 9.426861e-05
7.496777e-05 -0.00015018201 2.5033023e-05 0.00014370098 8.677796e-05 -0.00010875161 0.00012621825 -0.000214328
0.00026144105 -3.8184546e-05 -0.00018357881 3.0391318e-05 -7.994355e-05 -3.9905222e-05 3.5327073e-05 -7.4111136e-05
8.9336885e-05 -0.00047438184 9.374214e-05 -0.00012819849 9.616494e-05 0.00030201627 0.0003382978 0.00020460061
-0.00103105 0.000114866896 -0.00054227293 -0.0004545387 0.00088187325 -4.0875915e-05 0.00079919543 0.00057017925
0.00012815824 -0.0007176023 -0.00010280929 -0.000117209485 2.0403018e-05 -3.956282e-06 -0.00020037666 -8.456193e-05
-0.0006365343 9.35747e-05 -0.00010730561 5.757594e-05 0.00042721472 0.00037822538 0.00017426428 0.0003663525
0.0002837759 0.00016781774 -0.00073217833 0.002532384 -0.00019542324 0.0020050984 -0.00034875472 -0.00025793485
0.0009509766 0.0004492316 -0.000116282776 -3.929732e-05 -2.3932911e-05 -0.0001822995 -0.00010074721 4.9686832e-06
-1.9152183e-06 1.7927393e-06 -1.1221593e-06 -1.5342989e-06 -1.8008984e-06 -2.19119e-06 6.738157e-06 -1.0877299e-06
6.5424783e-06 -6.481204e-06 1.1424926e-05 2.1634166e-06 5.775803e-06 6.4730784e-07 -5.283871e-06 1.1803911e-06
5.432695e-06 2.4268804e-06 1.231568e-06 -7.091477e-07 2.4375158e-06 -1.7930146e-06 0.00033543806 -0.00012552801
0.00012446838 -9.82263e-05 -0.00015383621 -0.00024702717 -0.00012631991 -0.0002562272 -0.00017059979 0.00014761144
0.000118421965 0.00018763804 0.00010156212 0.00013756972 -0.0001697298 -1.6914071e-05 -0.00043385194 -0.00017977918
0.00013911059 3.7964233e-05 -4.4976634e-05 0.00017636037 4.8523227e-05 0.0005875608 -0.00017185812 0.00018999886
