exp_log/cup_success_genuinely/DualFrankaPPO_cup.pth (torch, 752816 bytes, 36 tensors)

value_mean_std.running_mean f8 [1]
54.71781790468665
00000000: 638e 0475 e15b 4b40

value_mean_std.running_var f8 [1]
1847.4400749816352
00000000: a517 04a3 c2dd 9c40

value_mean_std.count f8 []
663552001.0
00000000: 0000 8000 80c6 c341

running_mean_std.running_mean f8 [74]
0.8353439890315102 0.735473171859239 -0.657834079814998 0.8240700733544937 -0.3606323983021585 -0.6845729754349541 0.44748848447133216 -0.37505452756318086
-0.3371527066207359 -0.28688950623200604 0.3706821172088147 0.22650749305719356 -0.023965077167577557 -0.17010421630311362 0.8490508575699178 0.65551261494189
-0.4301402656189353 0.48644911338554836 0.01308966531313685 0.0038943621714592988 -0.0069248124369803744 0.002674184037826803 -0.02013814565593207 -0.006464863658382049
-0.0998093386844464 -0.0013365681591327083 0.0002308750329203865 1.0389250524957923 0.12756446227223958 0.07039663288082651 0.010818548488167901 -0.01790565307865724
-0.029251259923417428 -0.0027448437231453893 0.03579872951725041 0.01464442301335622 0.008398969590759272 -0.0003694618919909871 -0.004217842175278708 0.026664757889642586
-0.007395593641279212 0.007832030470599176 -0.5311971024539682 0.49187661048415665 0.3903584089854366 0.008692996333297209 -0.6920456326968155 0.004166709116942704
0.693176323445236 -0.31606829783887336 0.5283176958366111 -0.3367209266972159 0.42731256128937906 -0.052769029729750706 0.06380546489323939 0.6626229741712617
2.4202421933108487 1.2964920912999278 -1.9059430665957569 -0.33387072353747976 -1.0448603837775206 0.5770799317459555 1.2965079284913845 0.012498909111675028
0.013256945510973464 -0.8312049164995605 0.6534384283507811 0.6562601660714575 -1.606771524030981 -0.4928418321276189 3.4679584113622184 1.899205557435389
0.011397194371607931 0.029728981546560257
00000000: da9d 3951 23bb ea3f f310 8708 ff88 e73f
00000010: 4cfd 5f0e fa0c e5bf 966f d533 c85e ea3f
00000020: 057e 25e9 9914 d7bf 46fe a695 05e8 e5bf
00000030: be05 89bd a6a3 dc3f 1b70 86b4 e400 d8bf
00000040: 9169 2cf2 e893 d5bf 6040 b5cd 655c d2bf
00000050: f2ed a77c 41b9 d73f 5163 7d91 32fe cc3f
00000060: de33 b91a 4d8a 98bf a67f f796 f9c5 c5bf
00000070: e4e9 3cb4 6c2b eb3f b64e 6997 f5f9 e43f
00000080: 4dab 6109 6b87 dbbf 1f2f 4a76 fb21 df3f
00000090: d0eb 7b23 c1ce 8a3f b54b 49c5 11e7 6f3f
000000a0: 640b 2a2f 315d 7cbf d6e9 8c9f 2be8 653f
000000b0: 1c2d fa13 189f 94bf 750a c69f e67a 7abf
000000c0: 872e 7cd5 1a8d b9bf 5705 1222 f9e5 55bf
000000d0: ebac 846e e142 2e3f a36e 37e0 6f9f f03f
000000e0: ffa8 cb44 0854 c03f 3ebf f883 8305 b23f
000000f0: 4d31 93ff 0828 863f 88a0 8b09 dc55 92bf
00000100: 1095 f3d2 0af4 9dbf a4d7 c0c0 5a7c 66bf
00000110: 44a6 0709 3654 a23f 7f0b 4a2f e5fd 8d3f
00000120: cb03 b39d 7a33 813f 54a3 43be 8a36 38bf
00000130: c07c 3d63 ba46 71bf b6f9 5d9c 014e 9b3f
00000140: ab48 2e8d d74a 7ebf 6928 dc55 3d0a 803f
00000150: d5a1 d810 91ff e0bf 1a98 ec08 e87a df3f
00000160: 20e8 13d6 a1fb d83f 3365 a537 a2cd 813f
00000170: ebb7 f8e1 3c25 e6bf 6938 3a76 1c11 713f
00000180: bfe1 f11c 802e e63f 644d a186 763a d4bf
00000190: b285 3083 fae7 e03f 57c6 02ee d58c d5bf
000001a0: af1a fac8 1659 db3f fda2 dcd1 8a04 abbf
000001b0: 23c5 0511 8e55 b03f 309a 7418 3534 e53f
000001c0: f15a 65f0 a75c 0340 4e7e ba7d 6ebe f43f
000001d0: 4f11 3128 be7e febf 7fdc ab4f 235e d5bf
000001e0: 0b5e 9385 bfb7 f0bf 79db 4055 7077 e23f
000001f0: d500 fe18 7fbe f43f ad6a f62e 0799 893f
00000200: 88dd 501b 7526 8b3f 127b 940d 3b99 eabf
00000210: 79eb f6b4 f7e8 e43f d838 de51 1500 e53f
00000220: dab6 bd0e 56b5 f9bf a4af c577 b88a dfbf
00000230: c082 c5fa 60be 0b40 2910 d95d 2563 fe3f
00000240: 4cd9 bc88 6957 873f 4886 f12d 4671 9e3f

running_mean_std.running_var f8 [74]
0.12728900890330352 0.183492607358475 0.25971210870992006 0.08125456431288114 0.4994810927843215 0.07522822690739517 0.17076025380207605 0.39741859268247626
0.46270839204027364 0.06861302892393888 0.09900207646638655 0.06734773518294573 0.08919512572333489 0.07650571097732836 0.10765013423903078 0.07541700936698192
0.2350124055163327 0.25471104052616667 0.003895195901308421 0.0035980415271859452 0.007680814383966004 0.0038412021320741122 0.009614501726919597 0.0066783792130575845
0.024620685833376503 0.000445380872282422 0.00039878586763735137 0.1308196792656403 0.06585756229155862 0.04067155501297836 0.003043774048198699 0.0024495658478160113
0.005887549369946856 0.0018405128365955017 0.010474707118500811 0.004568743895167295 0.013049129162489254 0.0006127784387244792 0.0005365491922217431 0.0196733793130956
0.0054133938162304945 0.008992949235081349 0.000502049277225468 0.0038039508333431657 0.0006322362297454879 0.005639125928365473 0.015280895293303596 0.005375195649866618
0.014204771760083317 0.020781011758907245 0.011383084884103351 0.022365612025142784 0.14402991010195754 0.06895205320752353 0.06972986270764653 0.08886976066637337
1.068507187857539 0.5701966217384957 2.1800855674381294 0.18306661802717042 4.192799354575469 0.26730280587410754 1.433417276761339 0.00015897044323669914
0.00018508636184068762 0.5759608983827076 0.3076453589178645 0.5653392026052043 0.20095672395113826 0.6421658441932298 0.38249663266559625 0.6329877739865626
9.400797107239717e-05 0.00010188742698220573
00000000: eca1 3099 014b c03f 26ca d48d af7c c73f
00000010: 0732 5289 1f9f d03f b8e2 5f60 19cd b43f
00000020: faa7 9e8b 7ff7 df3f 00a7 4d36 2842 b33f
00000030: 88ae c4d4 78db c53f 6c30 9964 4e6f d93f
00000040: 4774 d9a8 039d dd3f 43cd 4e9b 9f90 b13f
00000050: bdc2 a838 3358 b93f 1407 1280 b33d b13f
00000060: b9bf f1e3 7dd5 b63f aed7 9ad6 e095 b33f
00000070: 2e76 f78d f58e bb3f 9016 cb74 874e b33f
00000080: 7f68 ecf1 e214 ce3f 6e5c 3f89 2f4d d03f
00000090: 6087 3e60 d1e8 6f3f 6394 0bd6 a379 6d3f
000000a0: 3e5b 5fe9 ea75 7f3f 744f 1bb1 9577 6f3f
000000b0: 0b2a e093 c4b0 833f 0145 f7c4 c95a 7b3f
000000c0: 1e78 d641 2a36 993f ff10 dd47 4030 3d3f
000000d0: 21c3 7542 8422 3a3f cc3f 0f02 b3be c03f
000000e0: 0a8d 3c8c 0adc b03f 7f00 51ed e6d2 a43f
000000f0: 4b27 cabf 41ef 683f 5da7 95a6 1c11 643f
00000100: 0fca f5ff 8a1d 783f 7718 3a9c ab27 5e3f
00000110: abb7 1264 c373 853f a812 d1d9 acb6 723f
00000120: 0a10 f477 80b9 8a3f e961 50ad 5b14 443f
00000130: 435e dc9d e694 413f f195 0123 4225 943f
00000140: 67d1 6ad6 5a2c 763f 13c5 df36 e56a 823f
00000150: f551 039d 7e73 403f f0f7 978d 7629 6f3f
00000160: 419f 0df7 94b7 443f 0cb2 0b57 0d19 773f
00000170: d284 4e0c 974b 8f3f d096 6918 4d04 763f
00000180: 16ed 4031 6417 8d3f 2479 8717 9e47 953f
00000190: 4a43 70ca 0350 873f 88e2 cfd0 02e7 963f
000001a0: 3051 c474 926f c23f 99b3 847d d7a6 b13f
000001b0: 0c48 e2f7 d0d9 b13f 0459 aa2b 2bc0 b63f
000001c0: 9539 36fe 9a18 f13f 3a02 55fc 0c3f e23f
000001d0: e606 b5b3 d070 0140 2d40 b518 ba6e c73f
000001e0: bf5d aa31 6dc5 1040 dbee 563a 7d1b d13f
000001f0: 9d61 53f4 46ef f63f 1177 9fb5 29d6 243f
00000200: 9c22 f9bd 7742 283f 2483 ca8c 456e e23f
00000210: d460 d428 76b0 d33f 17c1 4a3d 4217 e23f
00000220: 2f06 a42e f3b8 c93f 8361 6d62 9f8c e43f
00000230: 433f 0828 d37a d83f b648 8193 6f41 e43f
00000240: 46e0 30a5 c4a4 183f 39b3 c3aa 8cb5 1a3f

running_mean_std.count f8 []
331776001.0
00000000: 0000 0001 80c6 b341

a2c_network.sigma f4 [18]
-0.049522433 -0.12914333 -0.119832374 -0.19439314 -0.119913824 -0.36517477 -0.13430975 -0.10706098
-0.123410836 -0.35227972 -0.3518297 -0.93312037 -0.35825673 -0.4434124 -0.5819007 -1.1766133
-1.382663 -1.1224078
00000000: 09d8 4abd 263e 04be ad6a f5bd ff0e 47be
00000010: 6195 f5bd 30f8 babe 7f88 09be c942 dbbd
00000020: d2be fcbd 025e b4be 0623 b4be fae0 6ebf
00000030: 6d6d b7be f306 e3be 72f7 14bf 449b 96bf
00000040: 1afb b0bf 0fab 8fbf

a2c_network.actor_mlp.0.weight f4 [256, 74]
-0.09065731 -0.010567618 0.03412084 0.03355954 0.029472327 0.044112377 -0.031885486 0.007376751
0.015690496 0.084199205 0.26273012 -0.16541837 0.090568855 -0.20413497 0.027751774 0.13216606
0.10427465 -0.1140042 0.124331474 0.04262778 -0.07688547 -0.0055308756 0.002701097 -0.04379907
0.013943941 0.00074343616 0.012350758 -0.08363627 -0.015171226 -0.055879075 0.051645484 -0.09693569
-0.03379377 -0.09203677 -0.22301506 -0.032195233 0.13137253 -0.010388911 -0.045009032 -0.7710156
-0.67947006 -0.684894 -0.022262214 -0.15067694 0.08879624 -0.087107725 0.009490153 -0.04734533
-0.10870338 0.05443988 -0.13629453 -0.27861038 -0.23008797 -0.22652715 -0.026981011 0.020156058
0.12470688 0.116594866 0.014936275 0.06691903 -0.043787993 -0.097038 -0.06834065 -0.02889764
-0.01265297 0.105775885 0.23743711 -0.2331647 0.11037709 -0.19971919 0.066288635 0.11967739
0.13974048 0.00944363 0.15348266 0.03337331 0.013745069 0.024058528 0.04078301 -0.07824976
0.08196212 -0.04257281 0.10395707 -0.061122093 0.04668984 0.011412104 -0.11496051 0.18859568
-0.082884766 0.046811726 0.13433847 -0.045610342 -0.0030832344 0.0011718955 -0.019316945 -0.0069570537
0.019680243 -0.0041033663 0.058952246 -0.011601692 0.018884076 -0.047444902 -0.0054128068 -0.042818375
-0.31437382 0.057419363 0.033209343 -0.24902867 0.24989626 0.13906673 0.07900991 -0.088112004
0.0778589 -0.48475716 0.089005604 0.6644108 0.13000353 0.014142441 -0.0109885605 -0.009852331
0.06622198 -0.051666457 0.057715755 -0.2250213 0.16058198 -0.0017804274 -0.095511645 0.009080727
0.014324495 -0.16645272 0.041720055 0.055463996 -0.08644359 -0.030052047 0.015129135 0.048042625
0.050206013 0.09641664 -0.060918007 -0.17186826 -0.009430952 0.18679461 -0.20380867 0.13376081
-0.049151566 0.10579106 0.01032097 0.056593325 -0.28394616 -0.040411584 -0.138316 -0.030068925
0.12213178 0.12473177 -0.113871366 -0.045528296 0.015007083 0.19372188 0.4932334 0.054781124
0.3411792 -0.08103753 -0.29165542 -0.1826536 0.037900586 0.08236363 0.052904613 -0.0131293675
0.011174642 0.012789698 0.014806314 -0.022323513 -0.003959245 0.05377405 -0.037585996 -0.09573037
0.049512032 -0.1835819 0.039188083 -0.044152148 0.20320372 0.020908922 0.09599638 -0.11087807
-0.093088225 0.07378787 -0.048554804 0.060301658 0.05781258 -0.13213868 -0.14840856 -0.12721026
0.15409231 -0.08327652 0.10507534 -0.03898604 -0.0810695 0.0507923 0.34939882 0.015538038
0.10855746 -0.14047152 -0.5815391 -0.087262966 -0.16683167 -0.13281035 -0.048649658 -0.17754975
0.023942556 0.025116162 -0.08032929 0.032263037 -0.0009906995 0.20240179 0.5348777 -0.06111997
0.26705515 -0.1579265 -0.39546826 -0.20760716 0.18076396 0.12738848 -0.05969115 -0.06405102
0.034822803 -0.028489353 -0.048979398 0.07406941 0.041955043 -0.00089401955 -0.03729324 0.18452622
-0.27234828 -0.029852951 -0.030284058 0.09776353 0.07307155 0.08764805 -0.14129114 0.029534016
0.0637514 0.0065369373 0.015716657 0.08293103 0.1000198 -0.0037794728 -0.11972092 0.04868629
0.08833592 0.06436428 -0.010283176 -0.06682849 -0.17986563 -0.12122404 -0.24846014 -0.012222432
00000000: 8aaa b9bd cd23 2dbc 4bc2 0b3d ba75 093d
00000010: f36f f13c 2eaf 343d 5b9a 02bd acb8 f13b
00000020: 5b89 803c a270 ac3d 9084 863e 6f63 29be
00000030: 2a7c b93d c208 51be b057 e33c 8a56 073e
00000040: f38d d53d 097b e9bd 80a1 fe3d 789a 2e3d
00000050: 2176 9dbd 593c b5bb e304 313b a766 33bd
00000060: 2175 643c 28e3 423a d55a 4a3c 7e49 abbd
00000070: bc90 78bc 75e1 64bd 378a 533d 3886 c6bd
00000080: 566b 0abd c67d bcbd 0f5e 64be 26df 03bd
00000090: 8586 063e 4036 2abc 645b 38bd 4761 45bf
000000a0: c0f1 2dbf 3755 2fbf 3f5f b6bc 0e4b 1abe
000000b0: ceda b53d 8965 b2bd 967c 1b3c 2ded 41bd
000000c0: e19f debd 5afc 5e3d cb90 0bbe 05a6 8ebe
000000d0: 2e9c 6bbe bcf6 67be 4807 ddbc 511e a53c
000000e0: 5266 ff3d 4ac9 ee3d 47b7 743c d80c 893d
000000f0: 0a5b 33bd dcbb c6bd 2ff6 8bbd beba ecbc
00000100: 674e 4fbc 07a1 d83d b722 733e bac2 6ebe
00000110: 620d e23d 3083 4cbe 56c2 873d 6b19 f53d
00000120: 2118 0f3e 75b9 1a3c 8f2a 1d3e 74b2 083d
00000130: ff32 613c 6416 c53c 160c 273d 6941 a0bd
00000140: c2db a73d d460 2ebd 72e7 d43d 295b 7abd
00000150: d83d 3f3d d5f9 3a3c 6a70 ebbd 3a1f 413e
00000160: 7dbf a9bd a7bd 3f3d 0690 093e e9d1 3abd
00000170: 1710 4abb 4a9a 993a 923e 9ebc fff7 e3bb
00000180: 7638 a13c 8875 86bb e977 713d 0615 3ebc
00000190: c7b2 9a3c 9655 42bd ea5d b1bb 5262 2fbd
000001a0: 9bf5 a0be 9130 6b3d 8506 083d 5f01 7fbe
000001b0: cee4 7f3e 8267 0e3e f3cf a13d 1174 b4bd
000001c0: 7d74 9f3d 1732 f8be 9248 b63d d416 2a3f
000001d0: a51f 053e b2b5 673c 5d09 34bc ac6b 21bc
000001e0: 649f 873d 35a0 53bd 5b67 6c3d fc6b 66be
000001f0: 9a6f 243e 3b5d e9ba 9c9b c3bd 54c7 143c
00000200: 49b1 6a3c 9572 2abe a6e2 2a3d 372e 633d
00000210: 5609 b1bd b62f f6bc 31e0 773c 58c8 443d
00000220: d2a4 4d3d 1676 c53d 2985 79bd 3cfe 2fbe
00000230: 4884 1abc 1647 3f3e 38b3 50be 98f8 083e
00000240: 2753 49bd fca8 d83d 4919 293c 67ce 673d
00000250: 6461 91be 9e86 25bd b6a2 0dbe 1b53 f6bc
00000260: 3a20 fa3d 5f73 ff3d 6435 e9bd e17b 3abd
00000270: 45e0 753c 075f 463e 1789 fc3e 2c62 603d
00000280: 0aaf ae3e 01f7 a5bd dc53 95be 8c09 3bbe
00000290: a53d 1b3d 43ae a83d 82b2 583d 8f1c 57bc
000002a0: d815 373c e28b 513c 2f96 723c cddf b6bc
000002b0: 8ebc 81bb 2e42 5c3d c6f3 19bd 490e c4bd
000002c0: 21cd 4a3d e5fc 3bbe af83 203d e2d8 34bd
000002d0: a314 503e 3049 ab3c c099 c43d 0b14 e3bd
000002e0: 0aa5 bebd 181e 973d 67e1 46bd dffe 763d
000002f0: e2cc 6c3d 5d4f 07be 6af8 17be 6843 02be
00000300: 60ca 1d3e e18c aabd bd31 d73d d3af 1fbd
00000310: c407 a6bd 960b 503d 67e4 b23e 4193 7e3c
00000320: 6053 de3d c4d7 0fbe bfdf 14bf edb6 b2bd
00000330: ecd5 2abe 70ff 07be dd44 47bd 9acf 35be
00000340: 2e23 c43c 69c0 cd3c af83 a4bd 3f26 043d
00000350: 5cda 81ba 6a42 4f3e bfed 083f ef58 7abd
00000360: 74bb 883e 7cb7 21be d17a cabe f996 54be
00000370: 301a 393e 2072 023e b57e 74bd 2e2d 83bd
00000380: 5ba2 0e3d 8162 e9bc 9f9e 48bd b4b1 973d
00000390: 0dd9 2b3d a35c 6aba ccc0 18bd 71f4 3c3e
000003a0: 3c71 8bbe 2d8e f4bc 4616 f8bc 3f38 c83d
000003b0: 89a6 953d d280 b33d a0ae 10be 52f1 f13c
000003c0: 1890 823d ce33 d63b 38c0 803c bed7 a93d
000003d0: 2ed7 cc3d 08b1 77bb 3e30 f5bd 466b 473d
000003e0: 76e9 b43d 6bd1 833d c47a 28bc 60dd 88bd
000003f0: b22e 38be 4f44 f8bd 566c 7ebe 9840 48bc

a2c_network.actor_mlp.0.bias f4 [256]
0.13676815 -0.42321014 0.019467074 0.238441 -0.43017095 -0.054424316 -0.14144038 -0.0449415
-0.16309845 -0.43588296 0.042477008 -0.72511685 -0.13132724 -0.15117149 -0.04825313 -0.0154876625
0.0009774601 -0.18753707 -0.2319057 -0.031170504 -0.17610924 -0.33540684 -0.18177845 0.11072734
-0.19651455 -0.4988687 -0.16255486 0.26329044 -0.097002625 -0.07882956 -0.54188114 0.08130515
-0.52842236 -0.23717977 -0.30355087 -0.22176287 -0.1340862 -0.06535953 0.024167836 0.09463474
0.2748208 -0.077263355 -0.33927774 -0.07923934 -0.04733227 -0.010816289 -0.30465093 0.13574794
-0.2865606 -0.024676722 0.17360623 0.37670365 -0.21261925 0.03801143 -0.52189046 -0.066764414
0.00880772 0.048256613 0.05156288 0.27254757 -0.001102178 0.20234694 -0.35356793 -0.36345688
-0.048722263 -0.068287864 -0.58192545 -0.060482632 -0.29046738 -0.04220696 0.03425842 0.23191497
-0.24886186 -0.08639685 -0.015424627 -0.20096679 0.05188711 -0.5818047 -0.046067063 -0.09263717
-0.045928497 0.16009422 -0.2946127 -0.30013093 0.005638262 -0.5410075 -0.09516928 -0.27439758
0.19004276 -0.13017689 -0.17369929 0.015958644 -0.12902145 -0.005119573 -0.08105669 -0.14252779
-0.01197863 -0.59967834 0.035688832 -0.12129098 -0.29778707 -0.043130606 -0.13902742 0.024314506
-0.09476631 -0.608673 -0.3910215 0.21634035 -0.22013278 -0.26063868 -0.20348093 -0.20803837
-0.15560064 -0.80667835 -0.29153997 0.3175566 -0.11165021 -0.52644086 -0.0697063 0.11007288
-0.41279483 -0.018823117 -0.34793645 -0.41868004 -0.2424511 -0.1952095 -0.20400803 0.1790423
-0.03711768 -0.29308996 -0.18976684 -0.32921827 -0.19419824 0.1768648 -0.17388247 -0.13540237
-0.08511495 -0.045203105 0.011682436 -0.27757978 -0.50638205 -0.44861138 -0.10478522 -0.26147887
-0.48292816 -0.4793962 -0.36625552 0.010578216 0.0005178772 0.09271646 -0.05280245 -0.25601247
-0.09344442 -0.16805306 -0.17555696 -0.41929466 0.060086552 0.18104556 0.17179498 -0.57277906
-0.61322373 0.033568967 0.04753046 -0.056926012 0.071515724 0.08265443 -0.5846151 0.1775539
-0.25480065 -0.28153524 -0.42942184 -0.23560232 0.14920074 0.12058791 -0.021131251 -0.13798605
-0.0858634 -0.17278036 -0.124231465 -0.021811578 0.07663326 -0.27860922 -0.35768554 -0.23825231
-0.29803246 0.1299696 -0.13492864 -0.12117453 -0.15391868 0.009517716 -0.10466682 0.07557746
-0.32642418 0.13707083 -0.18917029 -0.039855156 0.17008227 -0.39993423 -0.44688562 -0.069991425
-0.35643435 0.34334296 -0.52059704 -0.0954675 -0.34814283 -0.31345975 -0.3160111 -0.09786612
-0.20682321 -0.06872035 -0.17709292 -0.046840616 -0.082669735 -0.016857537 -0.15298118 -0.23810747
-0.24067168 -0.53937745 -0.19811477 -0.14539339 0.040173717 -0.21528144 -0.3464224 0.5108568
-0.04807373 -0.08421997 -0.40388733 -0.29526263 -0.2643284 0.0015954935 -0.6168838 -0.12140539
0.228542 -0.086223 -0.33703223 0.26698706 -0.053702824 -0.2795057 0.007982851 -0.014233773
-0.021771425 -0.30042976 -0.010504047 -0.055649295 -0.030269545 -0.6687074 -0.3378126 0.09726413
-0.10939675 -0.29922527 -0.3261046 -0.13812235 -0.0730461 0.007124035 -0.15824954 -0.047698025
00000000: f30c 0c3e 00af d8be 6a79 9f3c e129 743e
00000010: 5e3f dcbe 08ec 5ebd bfd5 10be 9414 38bd
00000020: 4803 27be 0d2c dfbe 5ffc 2d3d 42a1 39bf
00000030: a67a 06be b3cc 1abe 13a5 45bd f7bf 7dbc
00000040: 1e1e 803a b809 40be b078 6dbe 4959 ffbc
00000050: fb55 34be 72ba abbe 2124 3abe 04c5 e23d
00000060: 1c3b 49be b86b ffbe c874 26be 01ce 863e
00000070: 50a9 c6bd 6471 a1bd b9b8 0abf 5183 a63d
00000080: b046 07bf 41df 72be 056b 9bbe ce15 63be
00000090: e54d 09be 38db 85bd a0fb c53c dccf c13d
000000a0: 50b5 8c3e 403c 9ebd d0b5 adbe 3c48 a2bd
000000b0: 7bdf 41bd ce36 31bc 35fb 9bbe 8201 0b3e
000000c0: 12b8 92be d626 cabc d5c5 313e 4ddf c03e
000000d0: dcb8 59be e0b1 1b3d 9d9a 05bf c8bb 88bd
000000e0: 414e 103c baa8 453d 9933 533d 5b8b 8b3e
000000f0: f576 90ba 0934 4f3e db06 b5be 0517 babe
00000100: ff90 47bd 82da 8bbd 11f9 14bf a3bc 77bd
00000110: 24b8 94be 35e1 2cbd 8f52 0c3d 1e7b 6d3e
00000120: a5d5 7ebe d5f0 b0bd 93b7 7cbc 3dca 4dbe
00000130: 9487 543d 27f1 14bf d1b0 3cbd 8eb8 bdbd
00000140: 851f 3cbd bdef 233e 7ad7 96be c3aa 99be
00000150: 2bc1 b83b 787f 0abf 1de8 c2bd d77d 8cbe
00000160: 929a 423e 174d 05be 3ade 31be b4bb 823c
00000170: 331e 04be 17c2 a7bb 0d01 a6bd cef2 11be
00000180: 0442 44bc 8584 19bf 742e 123d 6867 f8bd
00000190: 8c77 98be b8a9 30bd 345d 0ebe 372f c73c
000001a0: d714 c2bd fed1 1bbf f833 c8be 5388 5d3e
000001b0: 7d6a 61be 6f72 85be 4e5d 50be 0308 55be
000001c0: c655 1fbe 7982 4ebf ba44 95be c796 a23e
000001d0: dea8 e4bd d4c4 06bf 2dc2 8ebd e46d e13d
000001e0: d859 d3be f032 9abc ba24 b2be 3b5d d6be
000001f0: 1a45 78be 00e5 47be 7be7 50be dd56 373e
00000200: b508 18bd e30f 96be 3d52 42be 4c8f a8be
00000210: e7db 46be 0c1c 353e 3f0e 32be eba6 0abe
00000220: bf50 aebd e426 39bd b067 3f3c f01e 8ebe
00000230: 41a2 01bf 64b0 e5be a299 d6bd 8fe0 85be
00000240: 5c42 f7be 6b73 f5be d885 bbbe 4150 2d3c
00000250: 27c2 073a 21e2 bd3d 6247 58bd 1114 83be
00000260: ca5f bfbd 1a16 2cbe 34c5 33be caad d6be
00000270: 511d 763d 0264 393e 06eb 2f3e a6a1 12bf
00000280: 3bfc 1cbf 9d7f 093d 4daf 423d 402b 69bd
00000290: d676 923d ba46 a93d 56a9 15bf b1d0 353e
000002a0: 3b75 82be 6325 90be 2edd dbbe bc41 71be
000002b0: 14c8 183e cbf6 f63d 721b adbc 374c 0dbe
000002c0: 26d9 afbd 56ed 30be 116d febd 32ae b2bc
000002d0: e6f1 9c3d dea5 8ebe 8f22 b7be 6af8 73be
000002e0: b697 98be c016 053e bc2a 0abe 5a2a f8bd
000002f0: dc9c 1dbe 32f0 1b3c 8f5b d6bd 5bc8 9a3d
00000300: 1221 a7be 4c5c 0c3e dbb5 41be 293f 23bd
00000310: 0c2a 2e3e 2ec4 ccbe 31ce e4be aa57 8fbd
00000320: 907e b6be a6ca af3e d945 05bf 7784 c3bd
00000330: c73f b2be cc7d a0be 35cc a1be 086e c8bd
00000340: 77c9 53be 41bd 8cbd d957 35be f2db 3fbd
00000350: c04e a9bd d118 8abc 19a7 1cbe 72d2 73be
00000360: a372 76be a414 0abf 99de 4abe 01e2 14be
00000370: 328d 243d bd72 5cbe 475e b1be 83c7 023f
00000380: f6e8 44bd 857b acbd 52ca cebe aa2c 97be
00000390: 0d56 87be e11f d13a 19ec 1dbf 64a3 f8bd
000003a0: ea06 6a3e af95 b0bd 7d8f acbe 87b2 883e
000003b0: 7ef7 5bbd 5f1b 8fbe 81ca 023c c534 69bc
000003c0: fd59 b2bc eed1 99be 2b19 2cbc 84f0 63bd
000003d0: d6f7 f7bc 6830 2bbf c6f5 acbe 6b32 c73d
000003e0: 670b e0bd 0e34 99be 2ff7 a6be f26f 0dbe
000003f0: 3299 95bd bd70 e93b 2b0c 22be 015f 43bd

a2c_network.actor_mlp.2.weight f4 [128, 256]
0.28186586 -0.20238945 0.08326721 -0.028811706 -0.13367227 0.0404214 -0.0052667856 -0.03344873
-0.100925505 -0.13184851 0.08685642 -0.15436824 -0.18788476 -0.051407628 -0.020134494 0.12334066
-0.16184463 0.18056968 -0.2920424 -0.32731545 0.07057706 0.0010541423 -0.00940977 -0.1323107
-0.32656115 0.0139838755 0.029332956 0.07342366 -0.17130369 0.18203324 -0.33539012 -0.09202208
-0.2257578 -0.16422714 -0.030666657 0.14422739 -0.09061403 -0.24310109 0.05040762 0.06499837
-0.3999514 0.08316963 -0.069635846 -0.17853464 -0.107583925 0.11122008 -0.08849048 -0.1492469
0.13329035 0.057962663 0.0492815 0.33338165 -0.16218919 0.037137937 -0.39936805 -0.02251746
0.0060063014 -0.110963866 -0.21137868 0.049272686 -0.04161656 0.26486182 -0.061229594 -0.040492922
0.07235629 0.072207965 -0.24640386 -0.16819957 -0.17487216 0.2084821 0.018737387 0.07877643
-0.08857276 -0.0752602 0.049202178 -0.14278607 0.08010732 -0.20885147 0.15694936 -0.004114645
0.0027419673 -0.07619545 -0.1377282 -0.017113347 -0.00701898 -0.10554617 -0.44601002 0.00014971626
0.011665661 0.07705272 -0.1108008 -0.13072151 -0.23619379 0.2053141 -0.032127727 0.077358596
0.057915125 -0.30737934 -0.15589301 -0.15247893 -0.011955708 -0.034718227 -0.051636033 -0.015137467
0.12849039 -0.4543884 -0.084185764 0.071712926 0.13607778 0.11577447 -0.124056436 -0.04361438
0.020425545 -0.1985191 -0.039318573 0.37884936 0.113800704 -0.22854799 0.01118124 0.13433611
-0.16934384 0.085031174 -0.011432163 -0.103623636 -0.10250317 0.14008531 -0.10495394 0.2703003
-0.027142756 -0.07221517 -0.09180388 -0.12528983 0.1574838 -0.05150201 -0.32959276 -0.11151339
-0.24962638 -0.17283443 -0.07749 -0.17490914 -0.11605146 -0.24451885 -0.101871066 -0.14603119
-0.3124208 -0.55786735 -0.2309955 0.31023166 0.06195529 0.13156983 -0.19899464 -0.022864694
-0.3187433 -0.05281881 -0.29689816 -0.07713831 0.064112306 0.041439567 0.023242809 -0.20053317
-0.14213593 -0.049058355 -0.2221471 -0.3808478 0.32829764 -0.015606054 -0.33036488 -0.056718897
-0.29720038 -0.11854181 -0.16595733 -0.05146247 0.16987306 -0.10798597 0.094483875 -0.058648862
-0.086506 -0.033960667 -0.12560785 0.12127771 -0.03845904 -0.18333758 -0.1269899 -0.17988624
0.098466314 0.14754984 -0.23589608 0.17406061 -0.09093245 -0.01988407 0.10326078 0.10346487
0.027891394 -0.17805976 0.013507992 0.046977367 0.1780233 -0.20679271 -0.12641083 -0.04845165
-0.39329943 -0.049454562 -0.1406597 0.07766118 -0.18656245 -0.0955268 -0.14414304 -0.3083443
-0.2150906 0.25246432 -0.20331357 -0.12851568 -0.108076 0.030619211 0.055881605 -0.078040786
-0.117091276 -0.059731934 -0.09213946 -0.04174053 -0.049327113 -0.13258119 -0.18077996 0.044700217
0.022990763 0.23188812 -0.11441623 -0.20692894 0.010263084 0.15362604 -0.013884881 -0.252566
0.15974778 -0.23592931 0.07649576 0.1518848 -0.2821948 -0.10387699 -0.005638774 -0.2937436
0.15581831 -0.02805018 0.041004695 -0.120190114 0.119996004 -0.25148165 -0.22317472 -0.07752125
-0.06682592 -0.05952929 -0.27380934 -0.27852777 -0.20477071 0.0011985463 -0.061164767 -0.16464812
00000000: b950 903e 2e3f 4fbe 0088 aa3d 8706 ecbc
00000010: 62e1 08be e990 253d 0095 acbb 8901 09bd
00000020: 08b2 cebd 4c03 07be c7e1 b13d b512 1ebe
00000030: dd64 40be ce90 52bd 18f1 a4bc 079a fc3d
00000040: 99ba 25be 42e7 383e 9586 95be e495 a7be
00000050: b58a 903d 252b 8a3a 702b 1abc 757c 07be
00000060: 0633 a7be a01c 653c ab4b f03c 255f 963d
00000070: 3c6a 2fbe ec66 3a3e 41b8 abbe 1376 bcbd
00000080: 0d2d 67be 292b 28be a438 fbbc 58b0 133e
00000090: d993 b9bd 7eef 78be 3878 4e3d de1d 853d
000000a0: 6ec6 ccbe d754 aa3d 3d9d 8ebd c9d1 36be
000000b0: f654 dcbd 5ac7 e33d 7f3a b5bd 2ed4 18be
000000c0: 447d 083e 426a 6d3d 66db 493d 00b1 aa3e
000000d0: ec14 26be f31d 183d f879 ccbe 8976 b8bc
000000e0: 82d0 c43b 0641 e3bd a773 58be 28d2 493d
000000f0: 2076 2abd f89b 873e e2cb 7abd e8db 25bd
00000100: 892f 943d c5e1 933d 4b51 7cbe 823c 2cbe
00000110: b011 33be 557c 553e 267f 993c 8955 a13d
00000120: a365 b5bd 0522 9abd 3988 493d 8336 12be
00000130: 4e0f a43d 29dd 55be 55b7 203e 25d4 86bb
00000140: 94b2 333b 5c0c 9cbd 9f08 0dbe 4a31 8cbc
00000150: 79ff e5bb 9728 d8bd 6d5b e4be 27fd 1c39
00000160: 5421 3f3c d1cd 9d3d 88eb e2bd dcdb 05be
00000170: c9dc 71be dc3d 523e 5d98 03bd 2f6e 9e3d
00000180: 6938 6d3d d360 9dbe 6ba2 1fbe 7023 1cbe
00000190: e0e1 43bc b334 0ebd 4e80 53bd 2303 78bc
000001a0: fc92 033e 99a5 e8be 9669 acbd 3ade 923d
000001b0: f957 0b3e 2a1b ed3d 4d11 febd fea4 32bd
000001c0: 7953 a73c 9748 4bbe 830c 21bd 8bf8 c13e
000001d0: 5810 e93d 7c08 6abe 8531 373c 688f 093e
000001e0: 7968 2dbe d324 ae3d f84d 3bbc a138 d4bd
000001f0: 2fed d1bd 8672 0f3e 17f2 d6bd cd64 8a3e
00000200: 7c5a debc 8ce5 93bd ac03 bcbd fa4b 00be
00000210: 6f43 213e c6f3 52bd 62c0 a8be 2261 e4bd
00000220: 0f9e 7fbe 82fb 30be 14b3 9ebd 621b 33be
00000230: 63ac edbd 2663 7abe c7a1 d0bd 3389 15be
00000240: 9ef5 9fbe 65d0 0ebf 168a 6cbe afd6 9e3e
00000250: d5c4 7d3d 3eba 063e 40c5 4bbe bd4e bbbc
00000260: 5232 a3be 8958 58bd 0903 98be b1fa 9dbd
00000270: 504d 833d 89bc 293d b467 be3c 9158 4dbe
00000280: 158c 11be 6af1 48bd 887a 63be 7cfe c2be
00000290: a116 a83e 89b0 7fbc 9625 a9be 1352 68bd
000002a0: a62a 98be 0cc6 f2bd b8f0 29be 50ca 52bd
000002b0: 34f3 2d3e c027 ddbd c380 c13d ca39 70bd
000002c0: 0f2a b1bd 571a 0bbd 589f 00be 7360 f83d
000002d0: 3a87 1dbd d9bc 3bbe a409 02be 1934 38be
000002e0: b5a8 c93d 4e17 173e be8e 71be f23c 323e
000002f0: cb3a babd ebe3 a2bc 637a d33d 64e5 d33d
00000300: 7e7c e43c 4c55 36be a050 5d3c 576b 403d
00000310: bd4b 363e 78c1 53be d771 01be 3d75 46bd
00000320: 8b5e c9be de90 4abd 1909 10be d30c 9f3d
00000330: 3a0a 3fbe 8ea3 c3bd 3c9a 13be 4edf 9dbe
00000340: b640 5cbe 0143 813e 6f31 50be 9d99 03be
00000350: f356 ddbd 24d5 fa3c 1ce4 643d d9d3 9fbd
00000360: 8dcd efbd 79a9 74bd 9db3 bcbd 1ef8 2abd
00000370: 3a0b 4abd 5dc3 07be 621e 39be 9317 373d
00000380: 2057 bc3c 1474 6d3e 0e53 eabd 2ee5 53be
00000390: 7f26 283c 2550 1d3e 697d 63bc 5550 81be
000003a0: ec94 233e 7497 71be cfa9 9c3d b087 1b3e
000003b0: d67b 90be 76bd d4bd 77c5 b8bb 9065 96be
000003c0: d68e 1f3e 7ec9 e5bc 8af4 273d 3c26 f6bd
000003d0: 77c0 f53d 34c2 80be ea87 64be 76c3 9ebd
000003e0: 07dc 88bd fcd4 73bd bd30 8cbe 319b 8ebe
000003f0: 6aaf 51be 8a18 9d3a e887 7abd 8499 28be

a2c_network.actor_mlp.2.bias f4 [128]
-0.1143706 -0.1488477 -0.3305314 -0.6132896 0.016197894 -0.1641736 0.12304047 -0.45350516
0.21889395 0.12040893 -0.2060018 -0.23533887 -0.14220315 -0.108738646 -0.5080941 -0.20497246
-0.109095864 -0.24369128 -0.15841329 -0.113776065 -0.46360195 -0.39125735 -0.09675509 -0.19563058
-0.26695016 -0.04649399 -0.04999401 -0.5594045 0.032908645 0.090107374 -0.0127314 -0.49694213
-0.45212486 -0.42377847 -0.3231094 -0.11036216 0.06729264 -0.16664606 -0.25855613 -0.09231199
-0.43296126 -0.115080975 0.03138516 -0.14053261 -0.33887866 -0.1745392 0.06724769 -0.05905253
0.003193761 0.2172422 -0.33610827 -0.23913701 -0.21907483 -0.013646112 -0.12878315 -0.12522678
-0.107431665 -0.098264694 -0.36875674 0.013344056 -0.20541337 -0.07366072 -0.29071465 0.10619791
-0.12606807 -0.10382117 -0.53000116 0.08406971 -0.038590744 -0.40376 0.048047025 -0.25839615
-0.04824504 -0.1436258 -0.30454475 0.051157992 -0.15565376 -0.14583494 -0.14619721 -0.21228325
-0.052669402 0.009437616 -0.19113757 -0.27967048 0.1035361 -0.0673815 -0.06086607 -0.2526096
-0.15487732 -0.14966308 -0.5882007 -0.26609394 -0.04925836 -0.1656435 -0.4294703 -0.37554592
-0.24012147 -0.06397578 -0.020098133 0.028488852 0.17774941 -0.45996925 -0.10674052 -0.1861385
-0.5331485 0.0011173208 -0.31825504 -0.18716715 -0.18570958 -0.057179626 -0.00393618 0.014810821
-0.22010905 -0.056763016 -0.09684203 -0.029563947 -0.2462852 0.044589948 -0.27069548 -0.105703
-0.26825398 0.06768803 -0.07313843 -0.09586651 0.01794036 -0.33904663 -0.14088325 -0.16757318
00000000: 223b eabd 886b 18be 693b a9be 8c00 1dbf
00000010: 72b1 843c 201d 28be a4fc fb3d d431 e8be
00000020: bc25 603e f598 f63d 23f2 52be acfc 70be
00000030: b49d 11be 5eb2 debd 7412 02bf 4de4 51be
00000040: a76d dfbd 358a 79be 1837 22be 6d03 e9bd
00000050: 3c5d edbe e252 c8be 8827 c6bd 6253 48be
00000060: b1ad 88be 7b70 3ebd 85c6 4cbd 2235 0fbf
00000070: 37cb 063d 378a b83d 5d97 50bc 336f febe
00000080: e97c e7be 7ef9 d8be 986e a5be 8e05 e2bd
00000090: b9d0 893d 44a5 2abe 7861 84be 120e bdbd
000000a0: 19ad ddbe 93af ebbd ba8d 003d c8e7 0fbe
000000b0: 8181 adbe 67ba 32be 28b9 893d 11e1 71bd
000000c0: 6b4e 513b bd74 5e3e 6216 acbe 55e0 74be
000000d0: 2755 60be f193 5fbc bbdf 03be 733b 00be
000000e0: 2205 dcbd 003f c9bd afcd bcbe 07a1 5a3c
000000f0: e257 52be 6edb 96bd 8dd8 94be 4a7e d93d
00000100: fd17 01be 32a0 d4bd 28ae 07bf bd2c ac3d
00000110: 5411 1ebd a1b9 cebe f5cc 443d 804c 84be
00000120: 979c 45bd a412 13be 4aed 9bbe 0b8b 513d
00000130: b363 1fbe c155 15be b9b4 15be c860 59be
00000140: dfbb 57bd 3ba0 1a3c 91b9 43be f830 8fbe
00000150: bc0a d43d 50ff 89bd b34e 79bd 0c56 81be
00000160: 2998 1ebe 4741 19be 5294 16bf 773d 88be
00000170: 22c3 49bd 739e 29be 88e3 dbbe 8e47 c0be
00000180: 67e2 75be bc05 83bd d7a4 a4bc 7461 e93c
00000190: f103 363e 1781 ebbe c69a dabd 179b 3ebe
000001a0: 6c7c 08bf 1173 923a 53f2 a2be bfa8 3fbe
000001b0: a72a 3ebe 2f35 6abd 12fb 80bb 16a9 723c
000001c0: 4464 61be 5680 68bd 1d55 c6bd 1730 f2bc
000001d0: 3032 7cbe f3a3 363d 9998 8abe d17a d8bd
000001e0: 9658 89be 06a0 8a3d 9ac9 95bd a955 c4bd
000001f0: a9f7 923c 8597 adbe b343 10be 4e98 2bbe

a2c_network.actor_mlp.4.weight f4 [64, 128]
-0.040458918 0.057412848 0.13152839 0.11315746 0.0080923615 -0.048111226 -0.07011369 0.04548274
0.012387813 -0.16829789 -0.2642047 -0.09972693 -0.008054148 0.020488145 0.06772703 -0.019783854
0.01414609 -0.022827297 -0.089763336 0.054658156 0.03435198 0.039529376 -3.8213613e-05 -0.05450851
-0.070484996 0.33173218 -0.010958218 0.0045576296 0.03544032 -0.09437073 0.0055757076 0.08786106
-0.07470891 -0.09608185 -0.015935492 0.01547087 -0.15746258 -0.06049266 -0.081258506 0.027307272
-0.1945004 -0.04208987 0.057907812 0.07135401 0.04278986 -0.008262881 -0.003648826 0.088029645
-0.051059444 -0.17662063 -0.04727767 -0.011648919 -0.069749236 -0.08393463 -0.014408093 0.0493996
-0.011803408 -0.16302936 -0.034491632 0.020017909 -0.1806845 -0.1592845 0.1123538 -0.2157781
-0.0066273534 -0.075126044 -0.15003806 0.010824897 0.00036067847 -0.016279181 0.0757529 -0.039554827
0.20428993 0.08679093 0.05191943 -0.019570667 0.084487885 0.113225736 -0.11925045 0.07380484
-0.096399285 -0.07072524 0.09524905 -0.057219733 -0.06631213 -0.084823325 -0.1665315 -0.035136983
0.097488835 -0.06881197 0.012972003 -0.025259826 -0.04219502 -0.057175685 0.06607703 -0.27596438
-0.0099816965 0.14298368 0.032111403 0.02020793 -0.056087412 0.09645391 0.015338962 0.014433293
0.033330772 0.041341066 0.006472033 0.01683884 -0.074386 0.15193586 0.04060009 -0.11000269
0.041837297 -0.09702919 0.058684852 -0.06630921 -0.061449736 0.017784758 0.017167335 -0.021234274
-0.23521572 0.03565043 0.114936866 0.05730892 -0.00905841 0.06671538 -0.07542725 0.072894454
0.048586667 -0.04630817 0.015798941 -0.011934153 0.024570042 -0.09727514 -0.029607972 0.043677643
-0.006823374 0.03157082 -0.017703772 0.11228536 -0.014249712 0.00060806633 -0.07665509 0.03631155
0.063255146 0.01401601 0.0059053553 -0.050535183 2.2000864e-05 -0.06669651 -0.03999844 -0.045933183
0.023290422 -0.030308355 -0.12858891 -0.05624798 0.0056541413 0.033678792 0.08005753 0.11131726
0.029768752 0.016374694 0.024622334 -0.020492585 0.0067916885 -0.11873252 -0.04882091 -0.08280709
0.030505255 0.0595458 0.0032573252 0.06196096 0.002001228 0.015737638 -0.042338964 0.017443627
0.030953826 -0.047377206 0.009612133 -0.00014707707 0.0015890556 -0.043928295 -0.07925226 0.012421397
-0.06724024 0.038995102 0.02415992 -0.007916703 0.019791605 0.015708486 0.1658059 -0.049258977
0.072359115 -0.024771236 0.00068016927 -0.011378693 0.06179144 -0.025832796 -0.008682632 -0.026151672
0.06450674 0.070119716 -0.124054655 -0.084140874 0.01172606 0.02635618 0.028826293 -0.052359443
-0.061114334 -0.058447227 -0.10972063 -0.021125909 0.0029964997 -0.021286745 -0.105719045 -0.015720742
0.01850395 0.05741029 0.059029162 -0.12297347 -0.050395686 0.115828164 -0.048909884 0.027321553
-0.056599386 0.10386327 -0.09470812 0.033914886 0.010757285 0.079878055 0.055696048 -0.058561545
0.033009257 -0.07128704 -0.044499394 -0.031242978 -0.07167983 0.014708134 -0.045023378 -0.06243973
0.01436858 -0.04866042 0.04452412 -0.038566675 -0.005145762 0.030027816 -0.12466122 -0.07628514
-0.028983753 -0.026562868 -0.010149126 -0.0972173 -0.07326084 0.018928608 -0.044887472 -0.10332984
00000000: 40b8 25bd bc29 6b3d 61af 063e 19bf e73d
00000010: d395 043c 4710 45bd c497 8fbd 1c4c 3a3d
00000020: 41f6 4a3c 4856 2cbe d745 87be a23d ccbd
00000030: 8cf5 03bc c1d6 a73c 78b4 8a3d c011 a2bc
00000040: 00c5 673c 5000 bbbc d7d5 b7bd 3be1 5f3d
00000050: a9b4 0c3d 8ee9 213d 8e47 20b8 5144 5fbd
00000060: 705a 90bd cdd8 a93e 198a 33bc 2b58 953b
00000070: de29 113d 7145 c1bd 6db4 b63b 80f0 b33d
00000080: fc00 99bd 90c6 c4bd 268b 82bc 8879 7d3c
00000090: df3d 21be 27c7 77bd dc6a a6bd 80b3 df3c
000000a0: 1d2b 47be 6d66 2cbd be30 6d3d 0d22 923d
000000b0: 6c44 2f3d 0961 07bc 2421 6fbb e348 b43d
000000c0: b523 51bd 0adc 34be 3ba6 41bd 1cdb 3ebc
000000d0: b0d8 8ebd ebe5 abbd ec0f 6cbc 3c57 4a3d
000000e0: 1563 41bc 2bf1 26be 1947 0dbd 99fc a33c
000000f0: 5c05 39be 7a1b 23be c019 e63d eff4 5cbe
00000100: 452a d9bb afdb 99bd 94a3 19be e95a 313c
00000110: 7219 bd39 eb5b 85bc 5624 9b3d 3e04 22bd
00000120: 6131 513e 71bf b13d 78a9 543d aa52 a0bc
00000130: fc07 ad3d e5e2 e73d 9439 f4bd fe26 973d
00000140: fd6c c5bd 65d8 90bd ef11 c33d 3d5f 6abd
00000150: a7ce 87bd dab7 adbd 3c87 2abe cceb 0fbd
00000160: 3aa8 c73d 4aed 8cbd 8688 543c b2ed cebc
00000170: afd4 2cbd 0d31 6abd 6553 873d 344b 8dbe
00000180: 458a 23bc 506a 123e 3f87 033d 1a8b a53c
00000190: eabb 65bd a189 c53d 4550 7b3c 9e79 6c3c
000001a0: d985 083d 4055 293d 5913 d43b 9bf1 893c
000001b0: b057 98bd 1395 1b3e 484c 263d 1749 e1bd
000001c0: 965d 2b3d 3db7 c6bd 875f 703d 20cd 87bd
000001d0: b8b2 7bbd 57b1 913c 83a2 8c3c 80f3 adbc
000001e0: 64dc 70be 2f06 123d 0564 eb3d c2bc 6a3d
000001f0: ba69 14bc 13a2 883d 9a79 9abd b049 953d
00000200: d002 473d a3ad 3dbd c86c 813c 7787 43bc
00000210: 1d47 c93c 3038 c7bd 6b8c f2bc 54e7 323d
00000220: 9c96 dfbb 6750 013d 8007 91bc def5 e53d
00000230: a077 69bc a466 1f3a 58fd 9cbd 6bbb 143d
00000240: ea8b 813d 68a3 653c b681 c13b fbfd 4ebd
00000250: 7f8e b837 2e98 88bd 67d5 23bd 6f24 3cbd
00000260: 8ecb be3c 3a49 f8bc d0ac 03be 4864 66bd
00000270: 6046 b93b c6f2 093d 34f5 a33d 4efa e33d
00000280: 99dd f33c 3924 863c c7b4 c93c 11e0 a7bc
00000290: d08c de3b 092a f3bd 6ff8 47bd c396 a9bd
000002a0: 28e6 f93c 4ce6 733d d978 553b c7ca 7d3d
000002b0: 0927 033b 38ec 803c 9f6b 2dbd f0e5 8e3c
000002c0: e192 fd3c 9a0e 42bd 357c 1d3c b338 1ab9
000002d0: dc47 d03a 28ee 33bd 024f a2bd 1d83 4b3c
000002e0: 40b5 89bd 54b9 1f3d 06eb c53c 0fb5 01bc
000002f0: 0122 a23c 15af 803c 06c9 293e c8c3 49bd
00000300: 0431 943d 0ced cabc 634d 323a b36d 3abc
00000310: 0519 7d3d 4d9f d3bc 9941 0ebc 083c d6bc
00000320: 1c1c 843d ed9a 8f3d 5e10 febd 0d52 acbd
00000330: a91e 403c eae8 d73c 1e25 ec3c db76 56bd
00000340: 0653 7abd 5c66 6fbd 36b5 e0bd 3e10 adbc
00000350: ec60 443b 8a61 aebc 3a83 d8bd c9c8 80bc
00000360: 9995 973c 0d27 6b3d 90c8 713d 84d9 fbbd
00000370: b56b 4ebd 5137 ed3d bb55 48bd 73d1 df3c
00000380: c2d4 67bd 44b6 d43d 55f6 c1bd 56ea 0a3d
00000390: 533f 303c 1b97 a33d 8a21 643d 3bde 6fbd
000003a0: b734 073d f1fe 91bd ff44 36bd 46f1 ffbc
000003b0: e0cc 92bd 63fa 703c 6f6a 38bd cdc0 7fbd
000003c0: 316a 6b3c 2650 47bd ec5e 363d 17f8 1dbd
000003d0: c89d a8bb e5fc f53c 624e ffbd 623b 9cbd
000003e0: 566f edbc 5f9a d9bc 8548 26bc dd19 c7bd
000003f0: c709 96bd 2b10 9b3c eddb 37bd 989e d3bd

a2c_network.actor_mlp.4.bias f4 [64]
-0.17007197 -0.07779169 0.07672818 -0.27178106 -0.4697181 -0.099060826 -0.15291293 -0.06479984
-0.14209329 -0.010437923 -0.30701715 0.020205347 0.08055097 0.25004885 -0.46584395 -0.026636945
-0.083424844 -0.084124014 -0.050345346 -0.21301281 0.15715602 -0.08908802 -0.2417941 -0.049875747
0.072151005 -0.07423839 -0.101298474 -0.15597379 -0.17281657 -0.3279844 -0.10899915 0.0053619365
-0.1019466 -0.4320728 -0.0072375922 -0.5043409 -0.20749018 -0.023543073 -0.048986137 0.041250244
-0.10029569 0.076408595 -0.07487871 -0.123697646 -0.029370598 -0.16000736 -0.32715213 -0.040766787
0.11913767 -0.13684013 -0.38256875 -0.10835628 -0.34655124 -0.026822777 -0.4084336 0.0049172854
-0.029747646 -0.26590082 -0.18562223 -0.39003253 -0.003687966 -0.048043385 -0.05091077 -0.14140165
00000000: 5927 2ebe 4051 9fbd aa23 9d3d e326 8bbe
00000010: e47e f0be 67e0 cabd 3595 1cbe c7b5 84bd
00000020: e780 11be d203 2bbc 5a31 9dbe af85 a53c
00000030: e8f7 a43d 6706 803e 1983 eebe b935 dabc
00000040: a5da aabd 3649 acbd ec36 4ebd 0820 5abe
00000050: 82ed 203e c873 b6bd df98 77be 834a 4cbd
00000060: e8c3 933d 4c0a 98bd 9375 cfbd 98b7 1fbe
00000070: d4f6 30be 92ed a7be f23a dfbd 2fb3 af3b
00000080: 61c9 d0bd a538 ddbe 5329 edbb 7c1c 01bf
00000090: 4e78 54be 67dd c0bc b0a5 48bd 04f6 283d
000000a0: d467 cdbd 1c7c 9c3d 025a 99bd 3155 fdbd
000000b0: 9c9a f0bc f8d8 23be 7c80 a7be 13fb 26bd
000000c0: 73fe f33d d21f 0cbe 0de0 c3be e6e9 ddbd
000000d0: 2a6f b1be 71bb dbbc 351e d1be 2e21 a13b
000000e0: 56b1 f3bc 2724 88be c113 3ebe 58b2 c7be
000000f0: cdb1 71bb 24c9 44bd d087 50bd 98cb 10be

a2c_network.value.weight f4 [1, 64]
0.038151443 0.056384936 0.014413058 0.02042278 -0.0075203474 0.010388177 0.11687359 0.0064640595
-0.011112972 0.028603226 -0.16341537 -0.0076274066 0.26128018 0.15048137 -0.02417356 -0.0032952975
0.079279184 0.09655517 -0.0042918613 0.11156251 0.0068808864 0.029779611 0.06417642 0.03277938
0.0014961384 0.0010601699 0.04453847 -0.0017920132 0.002905901 -0.005927809 0.011639096 -0.0033008265
-0.009225801 -0.10077216 -0.024516102 -0.25124082 0.006423103 0.01484127 -0.0143818315 -0.025060767
0.12883282 0.0056907665 0.025979068 -0.002972397 -0.00525041 0.059628565 0.1317907 0.0040071323
-0.008703301 -0.005392026 -0.080980934 0.10295792 -0.091341645 0.020051848 -0.02134585 0.0016226743
0.065084316 0.014494645 0.05027212 0.2194109 0.019391395 -0.014914159 0.039336853 0.005942477
00000000: b044 1c3d e4f3 663d bf24 6c3c ad4d a73c
00000010: 3f6d f6bb 2c33 2a3c 6c5b ef3d 76d0 d33b
00000020: 2f13 36bc 5051 ea3c 5c56 27be 53ef f9bb
00000030: 84c6 853e ca17 1a3e a107 c6bc ebf5 57bb
00000040: 205d a23d b8be c53d bea2 8cbb e37a e43d
00000050: 0f79 e13b 5ff4 f33c ed6e 833d ac43 063d
00000060: 131a c43a 66f5 8a3a f96d 363d fce1 eaba
00000070: ee70 3e3b 113e c2bb e8b1 3e3c ae52 58bb
00000080: d027 17bc a261 cebd fed5 c8bc a3a2 80be
00000090: e578 d23b cc28 733c c6a1 6bbc 3d4c cdbc
000000a0: c0ec 033e 9c79 ba3b 0ed2 d43c 8ccc 42bb
000000b0: a20b acbb 153d 743d 24f4 063e 434e 833b
000000c0: 4a98 0ebc 98af b0bb 55d9 a5bd 9adb d23d
000000d0: 5411 bbbd c643 a43c 7edd aebc eaaf d43a
000000e0: ed4a 853d f37a 6d3c 23ea 4d3d 40ad 603e
000000f0: b4da 9e3c 845a 74bc ae1f 213d 1cb9 c23b

a2c_network.mu.weight f4 [18, 64]
-0.074725576 0.02542433 0.032628797 -0.025587946 -0.030373462 0.024931386 -0.09256471 0.028902061
0.008403512 -0.006866949 0.043196693 0.0006490481 -0.0010766706 0.12791456 -0.025388809 -0.0344485
0.0018919066 0.043021325 -0.024214603 0.030208115 0.04030231 -0.008700526 -0.050399505 0.022881396
-0.038839947 -0.033081073 0.012992661 0.023261609 -0.03482971 0.023923488 0.0060643903 0.010066321
-0.038511932 -0.05425158 -0.034472127 -0.015817316 -0.0687896 -0.007985727 0.05907538 0.028331928
-0.061154358 0.061872683 -0.051167082 -0.046551123 0.009532324 0.016881887 -0.0038995454 0.0039693573
0.020776657 -0.025356622 -0.01670145 0.01737983 -0.0074661244 0.029075256 -0.033239186 -0.02947586
-0.020269873 -0.079265855 -0.020970145 0.0354671 0.004444807 -0.073368065 0.007751497 -0.032440476
-0.021566711 -0.027870456 -0.026382133 -0.016516447 -0.06929048 -0.046214707 -0.029911788 -0.040748183
0.029047858 -0.02090172 0.0018027659 0.036631044 0.006598134 0.05854945 0.014006564 -0.010236378
-0.06253958 0.03043484 -0.035589498 0.01490161 0.036570936 0.0099146 0.037791815 -0.00020687058
0.010282449 0.013523969 0.021385409 0.033201125 -0.027215568 -0.0070052454 -0.014255813 0.031195894
-0.058239434 -0.0306892 -0.042947736 -0.026640229 0.0055960948 0.007800809 0.09420646 0.021679526
-0.0595621 0.059851136 0.031907972 -0.0049181823 0.005627613 -0.005042785 0.0102054635 -0.043444578
0.03651724 0.012146293 0.0006884225 0.017490122 -0.0017808672 -0.027532304 -0.014418073 0.017962806
0.0104528675 -0.038019117 -0.05454872 0.05017266 -0.027124183 0.0078539755 -0.012253688 -0.01736231
0.060687974 0.017667817 0.03489653 0.06218582 0.01292276 0.05406632 0.040996954 0.0023081389
-0.006591942 0.00037832832 0.00030624072 0.032873828 -0.01376412 0.018978074 0.030598797 0.023684902
-0.00021666041 0.013446709 -0.0116629265 0.01808807 -0.023778448 0.04015119 0.03822715 -0.03281519
0.034171157 -0.06641538 -0.065385886 0.0058702054 0.017097566 -0.040624812 0.045734234 0.03543029
0.003372312 0.056342296 -0.0006777746 0.025781782 0.027431654 -0.006835814 -0.027331633 0.008160193
-0.007221225 0.043720208 -0.034066413 -0.0072075417 -0.028709635 0.021195132 -0.015310189 -0.02942736
0.012883521 -0.019174863 0.02878582 -0.030914973 0.030866427 -0.019546645 0.07368588 -0.012980023
0.042248644 0.04485347 0.013076396 -0.045185637 -0.02446144 0.05660625 -0.068631016 0.0076427953
-0.018117674 0.007032899 -0.0049769306 0.0003497937 0.018786956 -0.0025617706 0.01686661 -0.024295645
-0.055058397 -0.031568725 -0.043403376 0.028752556 0.019916177 0.057653 -0.02226902 -0.007217608
-0.0029804173 0.0537648 0.0060682613 0.02690949 0.035180744 0.013028384 -0.052398484 -0.014057643
-0.0023833334 -0.029697368 -0.015741535 -0.0048843585 0.00385916 -0.02911839 -0.026596645 -0.029912546
-0.04143676 -0.0130537255 0.017050095 -0.059491336 -0.024059584 -0.0025425577 -0.0245398 -0.016990578
-0.023507489 0.013488414 -0.013419767 0.011810194 -0.02055099 0.004628425 0.014011667 0.022900777
-0.0042387447 -0.012552643 -0.014323758 0.029081065 -0.034410175 -0.017786598 -0.001884023 0.00092281465
0.047248453 -0.04740813 0.003565406 0.03638848 -0.00638978 0.019864025 -0.029876167 0.03384246
00000000: b909 99bd af46 d03c c6a5 053d d09d d1bc
00000010: c4d1 f8bc e83c cc3c 9192 bdbd 04c4 ec3c
00000020: e2ae 093c 2504 e1bb 04ef 303d e124 2a3a
00000030: 121f 8dba 09fc 023e 31fc cfbc df19 0dbd
00000040: daf9 f73a 2137 303d b45d c6bc 0277 f73c
00000050: 0914 253d a78c 0ebc b66f 4ebd c471 bb3c
00000060: a316 1fbd 0580 07bd 2cdf 543c 218f be3c
00000070: 99a9 0ebd 31fb c33c cbb7 c63b 36ed 243c
00000080: b0be 1dbd e836 5ebd a532 0dbd 5193 81bc
00000090: 90e1 8cbd 91d6 02bc 07f9 713d 5c18 e83c
000000a0: fe7c 7abd 366e 7d3d 9394 51bd 64ac 3ebd
000000b0: 772d 1c3c e24b 8a3c 848f 7fbb 6211 823b
000000c0: cf33 aa3c b1b8 cfbc 7bd1 88bc 2560 8e3c
000000d0: 64a6 f4bb 3b2f ee3c d025 08bd 5c77 f1bc
000000e0: 010d a6bc 2356 a2bd 95c9 abbc f345 113d
000000f0: bea5 913b ff41 96bd 4500 fe3b 4ee0 04bd
00000100: acac b0bc 9550 e4bc 581f d8bc 804d 87bc
00000110: 2be8 8dbd a24b 3dbd 9109 f5bc 91e7 26bd
00000120: c6f5 ed3c 153a abbc c94a ec3a 6f0a 163d
00000130: 2935 d83b 8cd1 6f3d ca7b 653c 7bb6 27bc
00000140: c014 80bd 7c52 f93c 4bc6 11bd e225 743c
00000150: 68cb 153d d970 223c 97cb 1a3d 66eb 58b9
00000160: b877 283c a393 5d3c 7430 af3c e7fd 073d
00000170: 2ff3 debc 428c e5bb 3791 69bc 888e ff3c
00000180: 798c 6ebd eb67 fbbc f7e9 2fbd 9c3c dabc
00000190: 725f b73b ee9d ff3b 51ef c03d 4399 b13c
000001a0: 63f7 73bd 7726 753d efb1 023d b428 a1bb
000001b0: d767 b83b f23d a5bb d134 273c f1f2 31bd
000001c0: 1a93 153d 3f01 473c 4077 343a 7247 8f3c
000001d0: fd6b e9ba 6d8b e1bc c839 6cbc bc26 933c
000001e0: 8142 2b3c efb9 1bbd 7b6e 5fbd d981 4d3d
000001f0: 8933 debc f6ad 003c b1c3 48bc 673b 8ebc
00000200: f493 783d 19bc 903c aaef 0e3d 8fb6 7e3d
00000210: fcb9 533c a574 5d3d 6cec 273d 2544 173b
00000220: 3801 d8bb 5e5a c639 ef8e a039 b5a6 063d
00000230: e782 61bc e877 9b3c 54aa fa3c d706 c23c
00000240: 562f 63b9 964f 5c3c dc15 3fbc 6f2d 943c
00000250: 05cb c2bc 9375 243d 1294 1c3d 3869 06bd
00000260: 0ef7 0b3d c904 88bd 09e9 85bd da5a c03b
00000270: 3210 8c3c 3466 26bd d253 3b3d 5a1f 113d
00000280: 0202 5d3b 2ec7 663d afac 31ba 5134 d33c
00000290: 59b8 e03c f7fe dfbb 97e6 dfbc 55b2 053c
000002a0: 07a0 ecbb f613 333d 3989 0bbd 3e2d ecbb
000002b0: 7830 ebbc 6aa1 ad3c 96d7 7abc a611 f1bc
000002c0: 6715 533c 9a14 9dbc 3dd0 eb3c 6641 fdbc
000002d0: 97db fc3c 4920 a0bc 9fe8 963d 2aaa 54bc
000002e0: ea0c 2d3d 46b8 373d 613e 563c 9314 39bd
000002f0: 5c63 c8bc f5db 673d 6b8e 8cbd 6a70 fa3b
00000300: 846b 94bc 3c74 e63b 8515 a3bb 8464 b739
00000310: 1ae7 993c 61e3 27bb d82b 8a3c a907 c7bc
00000320: ea84 61bd 354e 01bd bdc7 31bd 7b8a eb3c
00000330: 4027 a33c 8d25 6c3d 856d b6bc af81 ecbb
00000340: 1b53 43bb 7b38 5c3d 44d8 c63b 4a71 dc3c
00000350: af19 103d 0175 553c cb9f 56bd 0752 66bc
00000360: b331 1cbb e547 f3bc 64f4 80bc f80c a0bb
00000370: f6e9 7c3b b189 eebc 35e1 d9bc 280b f5bc
00000380: 98b9 29bd 4bdf 55bc a4ac 8b3c 30ad 73bd
00000390: 9b18 c5bc 0aa1 26bb b107 c9bc d32f 8bbc
000003a0: c792 c0bc 82fe 5c3c 95de 5bbc 8b7f 413c
000003b0: 8d5a a8bc 0baa 973b 3191 653c 699a bb3c
000003c0: 2be5 8abb 9aa9 4dbc 32ae 6abc 6a3b ee3c
000003d0: aff1 0cbd 33b5 91bc 52f1 f6ba 0be9 713a
000003e0: 9887 413d 072f 42bd 96a9 693b 160c 153d
000003f0: 5c61 d1bb e1b9 a23c ddbe f4bc 649e 0a3d

a2c_network.mu.bias f4 [18]
0.1923957 0.10617747 -0.055500317 0.1094196 0.009871119 -0.17659834 0.028765745 -0.061959773
0.02479427 -0.0059013115 0.122659154 -0.043098938 0.029609663 0.01096518 0.10297214 -0.01722111
-0.050959256 0.05943089
00000000: 6103 453e 9373 d93d 4d54 63bd 6217 e03d
00000010: 79ba 213c 32d6 34be 24a6 eb3c 88c9 7dbd
00000020: 5a1d cb3c ca5f c1bb b934 fb3d 8388 30bd
00000030: f78f f23c 4ca7 333c 0fe3 d23d 4913 8dbc
00000040: a7ba 50bd ce6d 733d

exp_avg f4 [18]
-0.0029658873 -0.0026821378 0.0059900414 -0.0050053853 0.000783673 -0.00022203418 0.0012942235 0.00022063738
0.0008446891 -0.0034342555 -0.00037854066 -0.002361306 -0.0012631189 0.0053829467 -0.0032773546 0.0019885805
0.006452041 0.000908869
00000000: 555f 42bb cec6 2fbb 1c48 c43b 3704 a4bb
00000010: 686f 4d3a d9d1 68b9 efa2 a93a e55a 6739
00000020: 206e 5d3a 3f11 61bb de76 c6b9 24c0 1abb
00000030: 3d8f a5ba 6e63 b03b e3c8 56bb d852 023b
00000040: a56b d33b 2b41 6e3a

exp_avg_sq f4 [18]
0.00026665212 0.00027131656 0.00027179386 0.0003091204 0.00025134822 0.000289092 0.000307224 0.00029803443
0.00029658672 0.00027922113 0.00029288538 0.0003043262 0.0002816194 0.00030724608 0.00029609574 0.00026343972
0.00024905874 0.00026610898
00000000: 71cd 8b39 7e3f 8e39 8e7f 8e39 7011 a239
00000010: 63c7 8339 4591 9739 e812 a139 8141 9c39
00000020: 327f 9b39 6d64 9239 698e 9939 f98d 9f39
00000030: 51a6 9339 df15 a139 4c3d 9b39 481e 8a39
00000040: 1994 8239 8b84 8b39
