exp_log/single_spoon_wo_finger_dist_rew/DualFrankaPPO_spoon.pth (torch, 752816 bytes, 36 tensors)

value_mean_std.running_mean f8 [1]
6.433982572369128
00000000: fc6f 6ded 65bc 1940

value_mean_std.running_var f8 [1]
3.945124280770561
00000000: 4985 a451 9d8f 0f40

value_mean_std.count f8 []
1908736001.0
00000000: 0000 4000 4071 dc41

running_mean_std.running_mean f8 [74]
0.016009474797507056 0.677710315008459 -0.40801705629232254 0.7471407351385673 0.8069031331560115 -0.3937536244838523 0.7371843755908961 0.7231702192445191
0.826887937256453 0.46082562371534425 -0.48817228906017424 -0.4207634484217702 -0.7418212415425015 0.4826571142848858 -0.1347868007224631 0.26405328016664137
-0.1722745698015994 0.2836952311795418 -0.009630094581609622 0.006603689597589911 -0.07940478877043244 0.01588614387078541 0.10836158507393323 0.018746008006582566
0.08016348186904847 -1.9666287477165622e-05 -0.0037345783573349855 0.00466553798037612 -0.012105435201274346 0.0038171700475204914 0.013338026061033263 -0.004563146631260687
-0.008938529148984848 -0.007044020370688712 0.0006630422175248679 -0.009857520885833462 -0.08764859948759589 -0.0015260987293264962 -0.00011778406822868901 0.608968993196923
0.098188686001759 0.3053597661129986 -0.5375850616699029 0.4504444027658195 0.3797760396699004 -0.0017022498730212274 -0.6052103385240067 -0.010949380998952844
0.6228677938378716 -0.29851664994355637 0.4424198599083896 -0.28995803510362483 -0.0036820617440172293 -0.28108808677680525 -0.0014168129079857698 0.9461500264239334
0.04638425576367505 1.194667728620036 -1.1821464172745775 -0.44934166695016814 2.3378399580219673 1.1252743509513887 2.135833344638711 0.03446340360146124
0.036537757926749466 1.3351500823654643 -0.8605501004890292 -1.2190779146293944 -2.684273662894127 1.3984025692090303 1.6134251765410481 0.7650399339775028
0.01655450821541447 0.02567390403533016
00000000: 88c8 b9aa c964 903f 2bf1 e38a cdaf e53f
00000010: fa15 3f92 f31c dabf d4be ddaf 93e8 e73f
00000020: 763d fe84 26d2 e93f 2ebc f566 4233 d9bf
00000030: 5f1f 09b0 0397 e73f 6015 23df 3524 e73f
00000040: d025 ffb0 dd75 ea3f 8309 c1c1 2a7e dd3f
00000050: 0bec 14fc 363e dfbf 45b7 94d0 c9ed dabf
00000060: b1e6 7ce6 ffbc e7bf aa42 42aa dae3 de3f
00000070: 9189 84a2 b140 c1bf 6de7 adba 3fe6 d03f
00000080: bc7b 9dd5 170d c6bf 6da0 fc0a 1028 d23f
00000090: dd7f 486a f1b8 83bf 5860 ac6d 780c 7b3f
000000a0: 0830 ea4a df53 b4bf d1cd 8911 7544 903f
000000b0: 2007 09b8 95bd bb3f 657a 464d 2732 933f
000000c0: 8307 f60c 9885 b43f 95ec 19fc 209f f4be
000000d0: 855f 177d fa97 6ebf ca10 b4d0 2b1c 733f
000000e0: 6ab8 5802 bcca 88bf 354e 8e90 2f45 6f3f
000000f0: af7b cd8d f750 8b3f 9016 c558 ceb0 72bf
00000100: 3d30 f412 5d4e 82bf decf fdd1 30da 7cbf
00000110: 38ff ef51 00ba 453f 3b26 980e 2e30 84bf
00000120: abe4 567c 2370 b6bf 95d5 8108 ec00 59bf
00000130: ea39 56e2 5ae0 1ebf f1e1 c18a ac7c e33f
00000140: 08fb 36cb e422 b93f e90c 3eb0 038b d33f
00000150: 9017 5696 e533 e1bf 99e8 a2c2 14d4 dc3f
00000160: 99f1 8b29 404e d83f 7f17 31e2 c0e3 5bbf
00000170: a12c 6512 e25d e3bf cf62 6a0a a16c 86bf
00000180: 937d 8870 88ee e33f 656b 3494 e51a d3bf
00000190: 6a13 5a63 9b50 dc3f 18e1 7e25 ac8e d2bf
000001a0: 4e8e b7d8 d729 6ebf 071a 00e3 58fd d1bf
000001b0: b0a9 ad46 8b36 57bf e735 936b dc46 ee3f
000001c0: 18cb 1b5b adbf a73f 8f27 80e8 5b1d f33f
000001d0: 3272 945c 12ea f2bf 7bfd 118d 03c2 dcbf
000001e0: 12e4 976f e5b3 0240 4bd2 85ad 1f01 f23f
000001f0: be6f e7ca 2f16 0140 7b16 c1ee 2fa5 a13f
00000200: c9a6 bab6 13b5 a23f 982e 3055 c65c f53f
00000210: c66f 455d a089 ebbf febe e9d7 5781 f3bf
00000220: bd27 5d78 6479 05c0 9552 565f db5f f63f
00000230: d996 fcea 96d0 f93f ed27 1207 357b e83f
00000240: 9bd8 8b3d aaf3 903f b200 c588 424a 9a3f

running_mean_std.running_var f8 [74]
0.015224811014984952 0.020464726740027597 0.06218576530411818 0.15979415479525075 0.17247196369166765 0.1564101442692719 0.06851749191298176 0.21581861427422291
0.1707162551175398 0.4755849582243177 0.37717778571555444 0.37009494033882734 0.2699651306180691 0.3939045385557787 0.6472752646427458 0.23083887283328652
0.5165905990989179 0.5008830306621894 0.0012236545617316551 0.00108960835646778 0.006834576081502509 0.0024094406008433804 0.011802078591433653 0.005081226310616445
0.015345284499864054 0.0006598356712516406 0.0007410298266639031 0.005208255580013489 0.0045045851786705785 0.0050811968741734746 0.0060066678383304045 0.004780965795573858
0.005826178318632853 0.00258310599688623 0.008503618643996133 0.007141181408677769 0.024354161603107216 0.0007027675011895468 0.0006316812611239518 0.06288517012632176
0.0532547671840963 0.06367920202999885 0.004352276441787544 0.02170544852804085 0.00469948408797936 0.04053414967427855 0.08324285639641228 0.037410683217036576
0.08452043069833391 0.000204986266493826 9.696219750175625e-05 0.000360524795493677 0.009817103314685877 0.0035870592072066243 0.0032466597599074653 0.009131952124821908
0.12780076253456066 0.06359339453854897 0.5219857247284027 0.3600164062439514 1.4477196449319376 0.5557598521012872 0.5749836990435767 8.632849038303624e-05
6.828754768396147e-05 3.9922252708965007 1.1720662991999595 3.106704677292736 0.6082317492481376 3.3065558344832824 2.299902500076664 1.9376752795108485
0.00020663727819769637 0.0002003542515866057
00000000: 3a58 2d8b 2f2e 8f3f d4ac 4790 b4f4 943f
00000010: f80d 8408 d0d6 af3f 1502 7886 2274 c43f
00000020: a12c c4b1 8f13 c63f d417 3363 3f05 c43f
00000030: 1a5f f8c2 5c8a b13f 7981 16c1 f19f cb3f
00000040: f60d 50be 07da c53f 08c0 82e4 fb6f de3f
00000050: 9f43 9b4b ae23 d83f c3e6 4ab0 a2af d73f
00000060: 8d28 c4d3 1b47 d13f 61f4 b561 bb35 d93f
00000070: 92cf a49d 7ab6 e43f b473 bbd0 208c cd3f
00000080: f8a0 1102 e987 e03f 5218 7ad9 3b07 e03f
00000090: 8f53 c014 610c 543f 4a20 6a10 26da 513f
000000a0: 0182 088c 92fe 7b3f 2f03 a292 f6bc 633f
000000b0: f4a8 992c b02b 883f 6225 3e4d 0dd0 743f
000000c0: 000d 9938 596d 8f3f 3335 7b50 1a9f 453f
000000d0: d10f 796f 3548 483f 0e77 2a76 4055 753f
000000e0: 7a17 6460 6673 723f cac3 6266 05d0 743f
000000f0: 27eb c69e 729a 783f 84b9 c3bb 3495 733f
00000100: fb54 6dd5 30dd 773f a356 eb78 2a29 653f
00000110: e5f8 c95f 586a 813f 5062 ae49 1240 7d3f
00000120: a068 6d1e 4cf0 983f b32a 97b7 3d07 473f
00000130: 09b6 d32d edb2 443f 0f90 1815 3e19 b03f
00000140: d4d5 d276 3544 ab3f 167b 27ba 474d b03f
00000150: c5a7 b04f b1d3 713f 90b2 4afe f339 963f
00000160: 6c81 7427 c43f 733f 99c3 715e e4c0 a43f
00000170: a124 d961 674f b53f 335a e039 7e27 a33f
00000180: 2774 b185 21a3 b53f 3fb5 169f 32de 2a3f
00000190: c57b 6ede 056b 193f 5e32 bf34 9aa0 373f
000001a0: 7d9a 6c4d fd1a 843f 5207 7bbf 9b62 6d3f
000001b0: 176c ae2f bd98 6a3f 9448 ccdd c5b3 823f
000001c0: c5b1 be7f c65b c03f a1e1 c81d a847 b03f
000001d0: c1fe 1568 1bb4 e03f 93d6 b540 820a d73f
000001e0: 8526 0c13 dc29 f73f ee8d a6e2 c8c8 e13f
000001f0: 3302 e436 4466 e23f f71f f02b 68a1 163f
00000200: 2be2 d722 b3e6 113f 271f 86cd 13f0 0f40
00000210: d6eb 7c97 c8c0 f23f 976b 5afb 87da 0840
00000220: a31b ed6d a276 e33f 8d07 9c8b d373 0a40
00000230: 148b 2e48 3366 0240 9f44 3ccb b700 ff3f
00000240: f77f 38b4 9815 2b3f 0671 96ea c542 2a3f

running_mean_std.count f8 []
954368001.0
00000000: 0000 8000 4071 cc41

a2c_network.sigma f4 [18]
-1.623979 -0.76854557 -1.821559 -1.3322778 -0.64907724 -0.7109535 -1.2569429 -0.9759529
-0.6121993 -0.79204345 -0.80647016 -0.8603966 -0.73352504 -0.59061515 -0.7732934 -0.8497061
-0.47879866 -0.4395456
00000000: 8bde cfbf 67bf 44bf d828 e9bf 1488 aabf
00000010: ed29 26bf 0c01 36bf 81e3 a0bf 0dd8 79bf
00000020: 18b9 1cbf 5cc3 4abf d474 4ebf f442 5cbf
00000030: 4cc8 3bbf 8e32 17bf 8ef6 45bf 5786 59bf
00000040: 1925 f5be 1f0c e1be

a2c_network.actor_mlp.0.weight f4 [256, 74]
-0.07430771 -0.009954593 -0.14476398 0.128886 -0.02077487 0.094561204 -0.016874429 0.00716789
-0.1313647 0.030184893 0.03073113 0.009519452 -0.27768335 0.21344742 -0.00046384663 0.20441137
-0.028066652 -0.08787046 0.045869183 0.09178428 0.03015865 0.025520926 0.12515816 -0.022789918
-0.06550394 0.06582193 -0.1217618 -0.32467842 0.45597547 0.51084065 0.007987765 0.0034640634
0.026916305 0.05596728 0.07202666 -0.12194248 0.117067404 0.04089031 -0.0034142497 0.20275608
-0.11477415 0.1407132 0.052157763 0.20574655 -0.17544691 0.18056439 -0.035488777 -0.14991435
0.15736486 0.036732562 0.1285656 -0.11843935 -0.0032529328 0.0791376 -0.03861017 -0.03376844
0.14126033 0.11718474 -0.1659308 0.16225731 -0.09452536 -0.04660483 -0.05371504 -0.02915837
-0.15972175 0.05174337 0.0054456107 -0.058334462 -0.25786626 0.21843743 0.037013393 0.19327246
0.0073405653 0.03570192 0.035557017 0.06463651 0.14526118 -0.045390394 0.22966327 0.03671453
-0.14004369 -0.10076265 -0.028036255 0.01577153 0.017250303 -0.17608221 0.12956014 -0.08381007
-0.1165276 -0.28454822 0.03146209 -0.057163496 0.10251584 0.18941848 0.09165671 -0.17471932
-0.3250926 0.014527068 -0.13591805 0.25242227 0.0124574285 -1.2566568 -0.17539339 0.022288224
0.070903994 0.06389179 -0.13162732 -0.08138928 -0.02805247 0.08455599 -0.10556443 0.072097234
0.12231927 0.06562099 0.021380106 0.08580406 0.22035313 -0.17245452 0.2126943 -0.020271229
0.043767583 0.02883259 0.04241329 0.17859249 -0.1760794 0.13687524 -0.2598233 -0.10964766
-0.081127815 -0.104739785 -0.07604155 0.08668152 0.042861287 -0.09950157 0.20451942 0.16300921
-0.17383021 0.038207434 -0.19278935 -0.094977595 -0.038852587 -0.0007654346 0.04072524 -0.1393803
-0.08470272 -0.22639376 -0.09246025 0.045195155 0.043782275 0.040038392 -0.22655982 0.12814714
-0.031466022 0.12621778 -0.009463772 -0.06734464 -0.08036848 -0.024610372 -0.028177196 -0.052784264
-0.03777114 -0.03143432 0.18529506 0.16181584 -0.045194637 0.00643378 0.45451522 0.015071462
0.0467976 0.33598316 0.005775772 0.06460471 0.06326737 -0.09604711 -0.076154895 -0.6628573
-0.8219453 -0.56089956 -0.051717933 -0.0752274 0.044407412 0.09583575 0.06284555 0.02716559
0.020198895 -0.03254017 -0.0660916 0.200945 -0.13663624 0.13661632 -0.16338749 0.7310154
-0.4221161 -0.020762945 -0.20899712 -0.004936872 -0.11792831 -0.24013093 -0.15397781 -0.07255636
0.13169396 -0.19404766 -0.06324354 -0.067097284 0.16074345 -0.05235023 -0.1391106 -0.019326724
-0.13053507 0.026636438 0.023780696 0.010334484 -0.09626832 -0.015930394 0.013491795 -0.16885935
-0.11190417 -0.1084048 0.07897218 0.13712204 0.097466156 0.051456627 -0.06516519 0.02294893
0.109532125 -0.36199978 0.15953605 0.100131765 0.01444548 -0.071068905 -0.1577186 0.032058943
-0.13361865 -0.052747592 0.053334977 -0.17713194 0.17676169 -0.03161566 -0.009845991 0.028559715
-0.057422396 0.08814169 0.048028257 0.30264983 0.02950272 0.10378212 -0.059623417 0.12662402
0.07515416 0.4200179 -0.10339146 -2.8192666 -0.17258373 0.019469736 0.024351994 -0.016279131
00000000: a42e 98bd 9718 23bc 023d 14be b1fa 033e
00000010: 0f30 aabc 4ea9 c13d 3e3c 8abc 9fe0 ea3b
00000020: 7884 06be 4f46 f73c dabf fb3c 7af7 1b3c
00000030: 832c 8ebe f691 5a3e 7130 f3b9 3751 513e
00000040: 09ec e5bc 6df5 b3bd 53e1 3b3d 66f9 bb3d
00000050: 460f f73c 4311 d13c 7629 003e ecb1 babc
00000060: ee26 86bd a6cd 863d 405e f9bd 403c a6be
00000070: 9e75 e93e 74c6 023f 1ddf 023c 5705 633b
00000080: 957f dc3c f23d 653d b782 933d fbbc f9bd
00000090: 09c1 ef3d 997c 273d 9bc1 5fbb 4a9f 4f3e
000000a0: b60e ebbd 1f17 103e 61a3 553d 39af 523e
000000b0: 5ba8 33be dfe5 383e ae5c 11bd 2683 19be
000000c0: 4124 213e e274 163d b3a6 033e 5490 f2bd
000000d0: 282f 55bb e512 a23d b325 1ebd c750 0abd
000000e0: 8ca6 103e 8efe ef3d c3e9 29be c826 263e
000000f0: 8396 c1bd b5e4 3ebd 4d04 5cbd 89dd eebc
00000100: 198e 23be dbf0 533d 1871 b23b 1ef0 6ebd
00000110: 0c07 84be 10ae 5f3e 5b9b 173d 37e9 453e
00000120: 2089 f03b 2d3c 123d 3ca4 113d 2660 843d
00000130: 59bf 143e 47eb 39bd d92c 6b3e fa61 163d
00000140: 9d67 0fbe a65c cebd 4aac e5bc 4c33 813c
00000150: 8250 8d3c e54e 34be 6aab 043e 9da4 abbd
00000160: 06a6 eebd 4eb0 91be 64de 003d 4524 6abd
00000170: d3f3 d13d ebf6 413e 83b6 bb3d 9fe9 32be
00000180: 8a72 a6be f002 6e3c 1a2e 0bbe 7e3d 813e
00000190: 3e1a 4c3c 21da a0bf 539a 33be cb95 b63c
000001a0: 1d36 913d b3d9 823d 50c9 06be 6caf a6bd
000001b0: 4bce e5bc b12b ad3d 2a32 d8bd b7a7 933d
000001c0: 8782 fa3d 4c64 863d 5525 af3c 0aba af3d
000001d0: 40a4 613e eb97 30be 89cc 593e d90f a6bc
000001e0: a345 333d 5332 ec3c 8fb9 2d3d f3e0 363e
000001f0: 294e 34be 0629 0c3e 8f07 85be f48e e0bd
00000200: 5726 a6bd d081 d6bd acbb 9bbd 1586 b13d
00000210: 518f 2f3d 7bc7 cbbd 8a6d 513e e3eb 263e
00000220: 8c00 32be 667f 1c3d 926a 45be 9d83 c2bd
00000230: e423 1fbd 72a7 48ba 82cf 263d b6b9 0ebe
00000240: 9f78 adbd c4d3 67be cd5b bdbd 8e1e 393d
00000250: 0b55 333d 4cff 233d 4cff 67be 0139 033e
00000260: 84e2 00bd 3c3f 013e f00d 1bbc fdeb 89bd
00000270: 3b98 a4bd b19b c9bc ddd3 e6bc 5034 58bd
00000280: e9b5 1abd 46c1 00bd fdbd 3d3e 0db3 253e
00000290: 031e 39bd 75d2 d23b 38b6 e83e 4bee 763c
000002a0: d7ae 3f3d fc05 ac3e b042 bd3b 794f 843d
000002b0: 5392 813d 59b4 c4bd 19f7 9bbd 04b1 29bf
000002c0: 026b 52bf 1d97 0fbf 2fd6 53bd d310 9abd
000002d0: 8ce4 353d 8945 c43d 2bb5 803d 5f8a de3c
000002e0: 2778 a53c d748 05bd 085b 87bd 87c4 4d3e
000002f0: 5fea 0bbe 26e5 0b3e 0d4f 27be d323 3b3f
00000300: 9a1f d8be 0d17 aabc 5703 56be 7cc5 a1bb
00000310: 6684 f1bd e2e4 75be 5cac 1dbe 6e98 94bd
00000320: c8da 063e 6eb4 46be d485 81bd 4d6a 89bd
00000330: ee99 243e 326d 56bd 0273 0ebe 1453 9ebc
00000340: fcaa 05be a934 da3c bccf c23c f851 293c
00000350: 5328 c5bd 7580 82bc b10c 5d3c 77e9 2cbe
00000360: 032e e5bd 5603 debd 2bbc a13d b869 0c3e
00000370: 569c c73d 2fc4 523d 5475 85bd 65ff bb3c
00000380: 6152 e03d 0958 b9be 6b5d 233e e211 cd3d
00000390: bcac 6c3c 938c 91bd fc80 21be 3d50 033d
000003a0: 54d3 08be dc0d 58bd c775 5a3d 1362 35be
000003b0: 0401 353e 6c7f 01bd 1451 21bc 10f6 e93c
000003c0: bf33 6bbd a183 b43d 47b9 443d ebf4 9a3e
000003d0: b0af f13c b88b d43d af37 74bd baa9 013e
000003e0: 6dea 993d 960c d73e e7be d3bd dd6e 34c0
000003f0: cab9 30be ff7e 9f3c d57d c73c d05b 85bc

a2c_network.actor_mlp.0.bias f4 [256]
-0.23971932 -0.11820074 -0.4643315 -0.51675975 -0.11992275 -0.5795538 -0.25243405 -0.39996773
0.25901994 -0.10501742 -0.089259125 -0.16253181 -0.21663192 0.21714644 -0.13685529 -0.088847816
0.06214693 -0.33344653 0.018810391 -0.17714617 -0.10182985 -0.3022669 -0.28335288 -0.21777871
-0.6312854 -0.4627251 -0.45836022 0.054111842 -0.3679136 -0.41110125 0.03450859 -0.17025685
-0.7859984 -0.73254526 0.029668387 -0.48991162 -0.29049045 -0.23772046 -0.36947894 -0.7715122
0.043369036 -0.38414097 -0.51359355 -0.32516518 -0.5691241 -0.3523621 0.0777608 -0.18547831
-0.1431066 -0.5674757 -0.12959477 -0.4736446 0.18194844 -0.11618598 -0.17034715 -0.09129295
0.27166688 -0.16533539 -0.37777507 -0.37842008 -0.25025758 -0.51438606 -1.0920068 0.16664773
0.22677016 0.5421393 -0.21917655 -0.059908815 -0.17440668 -0.0699801 -0.15980032 -0.21086329
-0.51958746 -0.27208382 -0.078779146 -0.670299 -0.23865974 -0.4228203 0.022025514 -0.16667524
-0.68697053 -0.31641826 -0.3174972 -0.6191839 -0.57334596 -0.6297376 -0.14787076 -0.013956685
0.2139163 0.12392237 -0.36396158 -0.07356565 -0.31959105 -0.2794372 -0.37307566 -0.15327208
-0.33343068 -0.2944539 -0.42258647 -0.31611577 0.017932536 -0.51157403 -0.32408386 -0.06168181
-0.3950572 -0.43198028 -0.44515127 0.1217616 0.22652474 0.00762631 -0.0016148533 -0.72105736
-0.31375912 -0.427202 -0.13382925 0.36804324 -0.11712713 -0.30912605 -0.15969388 -0.23815332
-0.09172585 -0.16938153 -0.40315425 -0.20236012 -0.6066359 -0.21729487 -0.74297386 -0.3643417
-0.1367415 -0.41873184 -0.26127607 -0.503256 0.24699043 -0.40373632 -0.3693921 -0.2575393
0.025245931 -0.2971808 -1.2563206 -0.55357593 -0.06552848 0.07030719 -0.53377515 -0.0073667513
-0.49757522 -0.4756893 -0.40923968 -0.37023634 -0.3673122 -0.18765205 -0.5520407 -0.4790007
0.008075041 -0.3420446 -0.0782924 -0.46074226 -0.046910815 -0.18044625 -0.088913135 -0.30050623
-0.6130896 -0.03547821 -0.16756615 0.014076343 0.017435621 -0.18253773 -0.52650434 0.002253334
-0.1396774 0.029947357 -0.23679575 -0.31502086 -0.13611448 -0.11463114 -0.088726714 -0.6135485
-0.023390705 -0.26100254 -0.6265891 -0.050739065 -0.39111465 0.13872932 -0.21305448 -0.44514403
-0.5841445 -0.4728454 -0.6956387 -0.37471482 -0.58962744 -0.2574545 -0.19607753 -0.22408351
-0.37241027 -0.55815303 -0.70743936 0.05142296 -0.22223143 0.029747473 -0.48546293 -0.810527
-0.14663507 -0.14387672 -0.2960343 -0.8988805 0.021754071 0.25809258 -0.6716394 -0.07925687
0.29410386 -0.37359184 -0.24984623 -0.0626072 -0.52779895 0.036244273 -0.23309655 -0.3336545
-0.20642808 -0.573176 0.1832147 -0.0073778103 -0.25246295 -0.1718161 -0.25596365 0.2639862
-0.3320596 -0.20929454 -0.15710102 -0.3909681 -0.13147105 0.24658448 -0.3097898 -0.43649533
-0.07156289 -0.2392316 -0.462418 -0.091801144 -0.35485443 -0.28561333 -0.17757994 -0.44202468
0.040994752 -0.38296992 0.1117087 0.05791148 -0.596907 -0.11075794 -0.34132224 -0.41711873
-0.009756267 -0.4785467 -0.5404684 -0.26206967 -0.35076004 -0.56660557 -0.20162728 -0.11897409
00000000: fb78 75be 3b13 f2bd dcbc edbe 5e4a 04bf
00000010: 0f9a f5bd a35d 14bf 093f 81be 92c8 ccbe
00000020: 439e 843e 6013 d7bd 7dcd b6bd bd6e 26be
00000030: c2d4 5dbe a35b 5e3e cb23 0cbe d8f5 b5bd
00000040: c78d 7e3d 81b9 aabe 4018 9a3c ce65 35be
00000050: 2b8c d0bd bac2 9abe a113 91be 6201 5fbe
00000060: ec9b 21bf 4eea ecbe 31ae eabe 61a4 5d3d
00000070: 2c5f bcbe dd7b d2be e158 0d3d d057 2ebe
00000080: 3137 49bf 1688 3bbf 1e0b f33c b2d5 fabe
00000090: 2abb 94be fe6c 73be 582c bdbe d381 45bf
000000a0: bba3 313d 20ae c4be de7a 03bf 0d7c a6be
000000b0: 1eb2 11bf ce68 b4be 0e41 9f3d 07ee 3dbe
000000c0: 898a 12be 1646 11bf 7eb4 04be 8c81 f2be
000000d0: b150 3a3e eaf2 edbd 7c6f 2ebe ccf7 babd
000000e0: ec17 8b3e ae4d 29be bc6b c1be 47c0 c1be
000000f0: c321 80be ceae 03bf e1c6 8bbf b4a5 2a3e
00000100: 7036 683e a4c9 0a3f d16f 60be f262 75bd
00000110: aa97 32be ba51 8fbd b2a2 23be 8cec 57be
00000120: af03 05bf 924e 8bbe f656 a1bd b798 2bbf
00000130: 3863 74be e77b d8be da6e b43c eaac 2abe
00000140: 4ddd 2fbf 9301 a2be fe8e a2be d682 1ebf
00000150: cdc6 12bf 7c36 21bf 6f6b 17be 94aa 64bc
00000160: e00c 5b3e 03cb fd3d 2c59 babe 96a9 96bd
00000170: 70a1 a3be 6512 8fbe c603 bfbe 5bf3 1cbe
00000180: 6db7 aabe a9c2 96be 415d d8be edd9 a1be
00000190: 41e7 923c 84f6 02bf 52ee a5be 11a6 7cbd
000001a0: f044 cabe 852c ddbe deea e3be 255e f93d
000001b0: 1af6 673e 20e6 f93b 7ca9 d3ba 3797 38bf
000001c0: 09a5 a0be 38ba dabe 890a 09be 2a70 bc3e
000001d0: 59e0 efbd c545 9ebe cb86 23be 77de 73be
000001e0: c3da bbbd 5a72 2dbe 3c6a cebe 7e37 4fbe
000001f0: 7e4c 1bbf 8c82 5ebe 8933 3ebf ff8a babe
00000200: f705 0cbe 0564 d6be fac5 85be 63d5 00bf
00000210: 0feb 7c3e 87b6 cebe f620 bdbe 31dc 83be
00000220: 8ed0 ce3c 1528 98be 1dcf a0bf 27b7 0dbf
00000230: cc33 86bd 37fd 8f3d 7da5 08bf ca64 f1bb
00000240: 2ec2 febe 8c8d f3be dd87 d1be 9e8f bdbe
00000250: 5810 bcbe dc27 40be 8a52 0dbf 943f f5be
00000260: 2d4d 043c 7820 afbe c457 a0bd 69e6 ebbe
00000270: 8e25 40bd e7c6 38be 1718 b6bd f4db 99be
00000280: 71f3 1cbf 9951 11bd 7696 2bbe 76a0 663c
00000290: 26d5 8e3c 2ceb 3abe fdc8 06bf acac 133b
000002a0: 9807 0fbe 2954 f53c 967a 72be 6a4a a1be
000002b0: 9861 0bbe bbc3 eabd 5ab6 b5bd 8411 1dbf
000002c0: dd9d bfbc 20a2 85be 2568 20bf c4d3 4fbd
000002d0: 2e40 c8be 0f0f 0e3e f42a 5abe ebe9 e3be
000002e0: 7e8a 15bf cb18 f2be 6115 32bf 9fda bfbe
000002f0: d3f1 16bf 14d1 83be 8cc8 48be 2676 65be
00000300: 8fac bebe 1ee3 0ebf bf1a 35bf e2a0 523d
00000310: a390 63be f9b0 f33c 998e f8be b37e 4fbf
00000320: 8127 16be 6b54 13be cf91 97be 081d 66bf
00000330: 9835 b23c b624 843e 8ff0 2bbf 6d51 a2bd
00000340: c894 963e 6e47 bfbe b1d7 7fbe 3438 80bd
00000350: d51d 07bf e074 143d ddb0 6ebe c3d4 aabe
00000360: e261 53be aabb 12bf a29c 3b3e 8fc1 f1bb
00000370: d342 81be 8ff0 2fbe ab0d 83be 3329 873e
00000380: b703 aabe 4f51 56be 17df 20be f92c c8be
00000390: 59a0 06be a480 7c3e c59c 9ebe 517c dfbe
000003a0: 918f 92bd 21f9 74be 0dc2 ecbe 3d02 bcbd
000003b0: 7baf b5be e93b 92be 84d7 35be 0f51 e2be
000003c0: 1dea 273d a214 c4be 88c7 e43d 9734 6d3d
000003d0: e6ce 18bf 0fd5 e2bd cac1 aebe 9690 d5be
000003e0: c0d8 1fbc 1304 f5be 235c 0abf ff2d 86be
000003f0: d296 b3be 100d 11bf 6277 4ebe b0a8 f3bd

a2c_network.actor_mlp.2.weight f4 [128, 256]
-0.13907093 -0.21214552 0.001980091 0.17130265 0.028881975 0.037286513 0.0104498 -0.06351076
0.08669035 -0.16638586 -0.1946186 0.049539696 -0.06974106 -0.02009316 -0.4377182 -0.011468471
-0.021430984 -0.13007219 -0.043266166 0.2124529 0.03539015 0.07677679 0.10906136 0.19100432
-0.015812198 0.13781078 0.1456523 0.14549378 0.066535376 0.35102105 0.075331375 0.12287231
0.078507304 0.10108752 -0.17867582 0.37025306 0.036567423 -0.064020924 0.097017065 0.03774154
-0.33293936 0.004690892 0.079192586 -0.010345958 0.30175814 -0.025975749 -0.10436265 0.30690673
-0.09526846 0.030210918 0.071357846 -0.2871491 -0.109109364 -0.42502493 -0.036962524 -0.2575059
-0.10092681 0.057239372 -0.016318403 -0.26331136 -0.36806178 0.0048310463 0.15625846 0.11181923
-0.085263245 -0.12274702 -0.026638074 0.06556669 -0.08893868 -0.06488392 -0.080477044 0.053711295
0.14965041 -0.14397772 -0.119895406 0.033653196 0.17656748 0.43312487 -0.021647235 -0.07327861
0.097216904 0.21597698 0.14799258 0.021568066 0.09725547 0.4040466 -0.026906397 0.19009908
-0.29259402 -0.05665055 0.08189733 0.017745351 0.13984197 -0.060583074 -0.08637792 -0.39611548
-0.03489308 0.03134807 0.11885617 0.20988739 -0.03775379 0.38893437 -0.08287142 -0.17918716
0.027265793 -0.008589245 0.19940743 -0.04273199 -0.014496666 0.032707326 0.15918177 -0.17214304
0.017618855 0.26846647 -0.031036368 -0.12391985 -0.1037671 0.18477939 -0.18592396 0.25041288
-0.20390886 0.116458654 -0.34319967 -0.19162871 0.28888625 0.11564302 0.022580419 0.0070065362
0.0020029228 0.28056386 0.24110885 -0.07253843 -0.23670521 0.28284562 0.16431506 -0.05371503
-0.17709737 -0.13074918 0.61683714 0.20551234 -0.1476825 -0.09004383 0.2473388 -0.0977748
-0.019630617 -0.105121166 -0.074764736 0.021703096 0.0057357294 -0.05861917 0.1743224 0.36626872
-0.049025446 0.26627514 0.013904251 0.1286254 -0.031629607 -0.010797974 0.0042334143 0.28608117
0.2187218 -0.35126773 -0.29006425 -0.20797737 -0.32529867 -0.03161019 0.0005931284 -0.3867467
-0.18661848 -0.1168921 0.13313636 0.05135995 0.12618859 -0.194215 -0.057535633 0.10784989
0.12872104 0.28974855 0.1338851 0.11834307 0.11291095 -0.0329429 -0.105852164 -0.102703124
0.15914911 0.14171132 -0.012197653 -0.13373622 0.003970755 -0.13007095 -0.09500891 -0.17604774
-0.099914275 -0.19610009 0.023407575 -0.2605104 -0.00022097451 -0.11989246 0.07126953 0.28797093
-0.1948479 0.10254346 -0.11606921 0.012156814 -0.016069626 0.0068136365 -0.047563445 -0.21276055
-0.46928 0.051372766 -0.07403219 0.25322968 0.040848814 0.07603857 0.04330311 -0.13493016
0.083458565 0.053813383 -0.10478279 -0.030919267 -0.1263993 -0.21890104 0.10637633 -0.10989034
0.12053789 0.12697074 -0.06936611 -0.0088255275 0.034784585 0.008987278 -0.037605245 0.088102594
0.1064425 0.013582208 -0.02025997 -0.05527079 0.26833695 -0.0028931792 -0.068489105 0.004909084
0.11662959 0.19340186 -0.2452737 -0.027342312 0.23577571 -0.30862516 -0.17102493 0.15285997
0.043757085 0.0590101 0.12413257 0.037753236 0.057819813 -0.32452613 0.26362658 0.08941784
00000000: 9c68 0ebe ad3c 59be 6ac4 013b f669 2f3e
00000010: e499 ec3c beb9 183d a335 2b3c ee11 82bd
00000020: b68a b13d 0e61 2abe 194a 47be 23ea 4a3d
00000030: 67d4 8ebd 699a a4bc 9a1c e0be 41e6 3bbc
00000040: 0890 afbc a531 05be dd37 31bd 418d 593e
00000050: 43f5 103d 263d 9d3d 905b df3d a396 433e
00000060: 9588 81bc 451e 0d3e e025 153e 52fc 143e
00000070: b343 883d 08b9 b33e 5647 9a3d 7aa4 fb3d
00000080: 70c8 a03d f906 cf3d cbf6 36be cf91 bd3e
00000090: b9c7 153d 671d 83bd e2b0 c63d e096 1a3d
000000a0: 0777 aabe 0eb6 993b b92f a23d 1882 29bc
000000b0: 0b80 9a3e 18cb d4bc 16bc d5bd e122 9d3e
000000c0: 1c1c c3bd e37c f73c 1024 923d 3505 93be
000000d0: bb74 dfbd de9c d9be 0466 17bd d0d7 83be
000000e0: b7b2 cebd d573 6a3d 2cae 85bc bfd0 86be
000000f0: 9872 bcbe c14d 9e3b 3802 203e 7b01 e53d
00000100: 7f9e aebd ca62 fbbd 1738 dabc d447 863d
00000110: 7c25 b6bd dce1 84bd 26d1 a4bd 6000 5c3d
00000120: f53d 193e e56e 13be b98b f5bd efd7 093d
00000130: 1bce 343e 8bc2 dd3e 8b55 b1bc 1913 96bd
00000140: a819 c73d 1229 5d3e 5e8b 173e 83af b03c
00000150: e02d c73d 32df ce3e ce6a dcbc 55a9 423e
00000160: e2ce 95be 680a 68bd cab9 a73d b35e 913c
00000170: bc32 0f3e f525 78bd e8e6 b0bd a6cf cabe
00000180: 0cec 0ebd d566 003d dd6a f33d b8ec 563e
00000190: b8a3 1abd 6822 c73e 7eb8 a9bd d77c 37be
000001a0: 835c df3c e8b9 0cbc 7631 4c3e bd07 2fbd
000001b0: 6d83 6dbc 1ef8 053d 8c00 233e 4446 30be
000001c0: 6b55 903c 7074 893e fb3f febc b1c9 fdbd
000001d0: d883 d4bd cf36 3d3e da62 3ebe 1e36 803e
000001e0: 7ccd 50be e081 ee3d deb7 afbe 513a 44be
000001f0: e6e8 933e 3fd6 ec3d 92fa b83c 1697 e53b
00000200: 7843 033b 11a6 8f3e 3de5 763e 078f 94bd
00000210: da62 72be 24d1 903e 3542 283e 4b04 5cbd
00000220: 0359 35be 1de3 05be 0ae9 1d3f d471 523e
00000230: 153a 17be e668 b8bd 6246 7d3e 283e c8bd
00000240: 63d0 a0bc c449 d7bd 411e 99bd b1ca b13c
00000250: c9f2 bb3b a81a 70bd 9281 323e 9387 bb3e
00000260: e8ce 48bd 3755 883e a8ce 633c 60b6 033e
00000270: 0c8e 01bd fce9 30bc 74b8 8a3b 3b79 923e
00000280: 9cf8 5f3e 5dd9 b3be 4d83 94be 05f8 54be
00000290: 8c8d a6be b079 01bd 2c7c 1b3a aa03 c6be
000002a0: ea18 3fbe 2065 efbd e654 083e d05e 523d
000002b0: 9537 013e 4ce0 46be 7caa 6bbd 67e0 dc3d
000002c0: 73cf 033e ec59 943e 2d19 093e da5d f23d
000002d0: db3d e73d 22ef 06bd 05c9 d8bd 0456 d2bd
000002e0: fcf7 223e c61c 113e aad8 47bc 26f2 08be
000002f0: 1b1d 823b 5231 05be 0894 c2bd dc45 34be
00000300: db9f ccbd 76ce 48be 3ec1 bf3c 9f61 85be
00000310: 65b5 67b9 2e8a f5bd c2f5 913d ed70 933e
00000320: 3586 47be 4e02 d23d b2b5 edbd 602d 473c
00000330: 73a4 83bc ed44 df3b e3d1 42bd e7dd 59be
00000340: 7845 f0be 406c 523d 309e 97bd 52a7 813e
00000350: 1651 273d 1cba 9b3d 9a5e 313d 222b 0abe
00000360: 53ec aa3d 6c6b 5c3d 5c98 d6bd 674a fdbc
00000370: d16e 01be 9827 60be d5db d93d 300e e1bd
00000380: 92dc f63d 9e04 023e d20f 8ebd f298 10bc
00000390: 487a 0e3d 603f 133c f507 1abd 226f b43d
000003a0: 87fe d93d e987 5e3c 3df8 a5bc a063 62bd
000003b0: 7663 893e 7e9b 3dbb 0444 8cbd 62dc a03b
000003c0: 7fdb ee3d 230b 463e 0729 7bbe fcfc dfbc
000003d0: 306f 713e 1e04 9ebe 2921 2fbe 5387 1c3e
000003e0: a13a 333d 93b4 713d 3839 fe3d 23a3 1a3d
000003f0: 78d4 6c3d 4a28 a6be 10fa 863e b320 b73d

a2c_network.actor_mlp.2.bias f4 [128]
-0.5315796 -0.24581987 -0.3560949 -0.6861016 -0.27965292 -0.28718182 -0.36909875 -1.2764924
-0.07440961 -0.34833017 -0.31565484 -0.28719744 -0.09790061 -0.1313376 -0.41341946 -0.2780021
-0.1640393 -0.13535728 -0.24787156 -0.19038521 -0.10424105 -0.4408193 -0.27249414 -0.32499757
-0.19502844 -0.3609845 -0.17022078 -0.77321714 -0.24152854 0.030199142 -0.11498738 -0.34124702
-0.027947938 -0.64002705 -0.22852975 -0.5254058 -0.4264937 -0.1813104 -0.110738896 -0.22098604
-0.7654776 -0.13978954 -0.451353 -0.24614863 -0.29744872 -0.40904367 -0.019357413 -0.23292233
-0.3596761 0.037004296 -0.4775662 -0.23765974 -0.08180626 -0.13771234 -0.1852813 -0.4314427
-0.111731604 -0.52870536 -0.21770452 0.010975956 -0.072177745 -0.18668036 -0.2563333 -0.31963238
-0.23128468 -0.19345246 -0.42152166 0.029563813 -0.106883444 -0.26398787 -0.17543441 -0.5839093
0.038915914 0.030632662 -0.0057286257 -0.27994767 -0.20607567 -0.38265356 -0.351313 -0.21736367
-0.13563348 -0.31315276 -0.21856704 -0.22498031 -0.21649493 -0.18882212 -0.25348315 -0.9632419
-0.5164781 -0.45271558 -0.9222065 -0.11847346 -0.26304498 -0.2158972 -0.53048885 -0.4557004
-0.13082337 -0.18170638 -0.28622928 -0.1591545 -0.20005706 -0.42271665 -0.0011213494 -0.10252177
-0.6813105 -0.06816108 -0.41484046 -0.8409803 -0.45742232 -0.25563517 -0.594663 0.016947405
-0.18339731 -0.16606349 -0.48342562 -0.1907774 -0.45101815 -0.16505826 0.07929477 0.10569168
0.16224314 0.090546384 -0.08133552 -0.020731356 0.08600365 -0.17025755 -0.23652028 -0.20329773
00000000: 9a15 08bf 34b8 7bbe 1252 b6be 5ba4 2fbf
00000010: ab2e 8fbe 7f09 93be 83fa bcbe 1a64 a3bf
00000020: 1164 98bd 5558 b2be 839d a1be 8b0b 93be
00000030: 1d80 c8bd 5d7d 06be b7ab d3be 4b56 8ebe
00000040: ebf9 27be 199b 0abe 0bd2 7dbe 57f4 42be
00000050: 557c d5bd 11b3 e1be 5a84 8bbe 1566 a6be
00000060: 89b5 47be f6d2 b8be 5b4e 2ebe 8ff1 45bf
00000070: 4253 77be 3164 f73c 817e ebbd eeb7 aebe
00000080: 13f3 e4bc d0d8 23bf b403 6abe ff80 06bf
00000090: 625d dabe 6fa9 39be 13cb e2bd 2a4a 62be
000000a0: 57f6 43bf fd24 0fbe be17 e7be 630e 7cbe
000000b0: 334b 98be 2c6e d1be 7093 9ebc 3183 6ebe
000000c0: 7727 b8be d191 173d 8f83 f4be 135d 73be
000000d0: 0a8a a7bd 7704 0dbe 62ba 3dbe 0fe6 dcbe
000000e0: 8ad3 e4bd 3c59 07bf efed 5ebe 7fd4 333c
000000f0: edd1 93bd 2329 3fbe 1e3e 83be dba6 a3be
00000100: e4d5 6cbe 6718 46be b0d1 d7be cf2f f23c
00000110: b5e5 dabd 6b29 87be 14a5 33be 147b 15bf
00000120: 4b66 1f3d 59f1 fa3c 32b7 bbbb 4d55 8fbe
00000130: 8005 53be 2beb c3be 4cdf b3be 9594 5ebe
00000140: 81e3 0abe 8f55 a0be 0ad0 5fbe 3d61 66be
00000150: d9b0 5dbe 965a 41be 8bc8 81be 0597 76bf
00000160: e937 04bf 56ca e7be ba15 6cbf 37a2 f2bd
00000170: d5ad 86be 2814 5dbe 1ece 07bf 9051 e9be
00000180: 90f6 05be 3d11 3abe a58c 92be 66f9 22be
00000190: c2db 4cbe 516e d8be 3efa 92ba eff6 d1bd
000001a0: 5d6a 2ebf 0998 8bbd f865 d4be 7c4a 57bf
000001b0: 4233 eabe 9de2 82be d63b 18bf 49d5 8a3c
000001c0: 81cc 3bbe 8c0c 2abe 9083 f7be 275b 43be
000001d0: daeb e6be 0805 29be 4c65 a23d e174 d83d
000001e0: 1123 263e 6270 b93d 3d93 a6bd ced4 a9bc
000001f0: af22 b03d ff57 2ebe 5f32 72be 482d 50be

a2c_network.actor_mlp.4.weight f4 [64, 128]
-0.06925252 0.14973666 -0.1360923 -0.09896442 0.12800568 0.11453134 -0.05694239 0.20881206
0.13350953 -0.021951035 0.059017498 0.008197811 -0.010771816 0.12974454 -0.10558223 -0.10297262
0.2918179 0.10702437 0.05880297 0.04717681 -0.04701568 -0.101307996 0.09689243 -0.0046618124
-0.07616489 0.12804711 -0.044331852 -0.08609052 0.09684016 0.13946418 0.08926423 -0.005231212
0.03534937 -0.035201747 0.049745508 -0.05360286 0.17819947 0.09829428 0.07730147 0.24050288
-0.07064715 0.106101625 0.05795997 0.091419026 0.04862153 -0.01190501 -0.069041856 0.067160204
0.023607435 -0.30775312 0.00319001 0.053779118 -0.21767506 0.096373945 0.08176853 0.16386938
0.025017817 -0.035955943 1.9864992e-05 -0.0101451455 0.09185983 -0.03053477 -0.07870417 0.065490514
-0.019286439 -0.060596697 0.08460933 0.0017897487 -0.30340332 0.05624312 0.051367927 -0.048395827
0.047028247 -0.08331065 -0.039013773 0.056184053 -0.19094306 -0.02482054 -0.026254036 0.15938847
-0.018033406 -0.03498365 0.010948718 -0.009412265 0.09857577 -0.060688265 0.15570085 -0.0063554454
0.107425645 -0.002895873 -0.079697266 -0.01368332 -0.10451516 0.09747696 0.068992116 -0.12768142
0.07606496 -0.09670514 0.16836154 0.15033358 -0.084795155 0.08492002 -0.0074681616 -0.02582761
-0.11806737 0.039546084 -0.20069274 0.1013388 0.13583256 -0.13584445 -0.040400326 -0.21774952
-0.064714134 -0.054612406 0.038694058 0.097111344 -0.05388881 0.11643634 -0.15779367 0.165038
-0.07001253 0.029872414 0.04906598 -0.21985428 0.07695344 -0.028982077 -0.017825788 0.05166233
0.011844601 -0.013789095 0.11052818 -0.076430716 -0.046425518 -0.09647517 -0.060394283 -0.0050348807
-0.18711634 -0.0006170731 -0.024930272 -0.06323898 -0.08470092 0.010763616 -0.032450125 -0.0684567
0.020070788 0.027415276 -0.031711344 -0.056681868 0.009282917 -0.03741165 -0.11820162 -0.08242844
-0.03725628 -0.044829234 -0.09135726 0.034479536 0.016189048 -0.059015207 0.041949738 0.051614925
-0.013425832 -0.1969299 0.028094511 -0.11184046 -0.15707324 0.0066201324 0.04831087 0.039933756
0.025618602 -0.11631125 -0.09305987 -0.006920728 0.06575428 -0.17949136 0.03245012 0.04621852
0.0064498843 0.067607075 -0.13786995 0.014377266 0.03270766 0.030611865 0.12983586 -0.09653375
0.036256228 -0.04699296 -0.08583705 0.016305095 -0.010213862 0.020702656 -0.1140609 0.04919178
-0.038100265 0.045202415 -0.029548774 0.009363654 -0.047304187 0.048444346 -0.12457896 0.024444709
-0.08385345 0.054430038 -0.092446364 -0.081797406 -0.06269843 -0.13592935 -0.12367893 -0.085081376
-0.044579536 0.014916852 -0.056870755 -0.059228256 -0.036477882 0.04182877 0.027426817 0.042926908
0.050921585 -0.09911537 -0.10988642 -0.14665483 -0.018529579 -0.091183916 0.0654019 0.032224603
-0.037053075 0.064658694 0.019050159 -0.034245424 -0.0103661325 -0.030985968 -0.025771419 0.13692574
-0.015365291 0.088147625 -0.048730217 0.1027105 0.0021561403 0.05517397 0.04934339 0.008662195
-0.05900583 0.0391845 0.06672116 -0.038257554 -0.08538228 -0.11660067 0.01060903 -0.023502562
0.07503415 0.10761076 -0.06987398 -0.01472414 0.0131513635 -0.018641036 0.033272006 -0.040409006
00000000: 44d4 8dbd 9154 193e c85b 0bbe dcad cabd
00000010: ec13 033e 688f ea3d 6c3c 69bd d4d2 553e
00000020: b9b6 083e a8d2 b3bc 55bc 713d 1d50 063c
00000030: 457c 30bc c1db 043e 7f3b d8bd 4fe3 d2bd
00000040: 2869 953e 982f db3d 62db 703d 793c 413d
00000050: 8393 40bd 917a cfbd 8a6f c63d 1ec2 98bb
00000060: 56fc 9bbd c81e 033e 5195 35bd 3a50 b0bd
00000070: 2254 c63d b3cf 0e3e 2ad0 b63d 966a abbb
00000080: 80ca 103d b52f 10bd f2c1 4b3d ac8e 5bbd
00000090: ec79 363e 834e c93d 3c50 9e3d 6346 763e
000000a0: 74af 90bd cf4b d93d 6f67 6d3d e639 bb3d
000000b0: 5f27 473d 3b0d 43bc d165 8dbd 4a8b 893d
000000c0: 6164 c13c d191 9dbe 7d0f 513b 7e47 5c3d
000000d0: 36e6 5ebe b45f c53d 4276 a73d 60cd 273e
000000e0: 2af2 cc3c 8a46 13bd bfa3 a637 d337 26bc
000000f0: 0221 bc3d 0e24 fabc a72f a1bd e41f 863d
00000100: 98fe 9dbc 3e34 78bd a847 ad3d 0096 ea3a
00000110: ae57 9bbe 305f 663d 2d67 523d b43a 46bd
00000120: b1a0 403d c69e aabd e8cc 1fbd 4021 663d
00000130: 9486 43be 7254 cbbc b412 d7bc bb36 233e
00000140: cbba 93bc 044b 0fbd 4062 333c e735 1abc
00000150: 18e2 c93d 4294 78bd 0b70 1f3e 5741 d0bb
00000160: fa01 dc3d b0c8 3dbb 5238 a3bd 0130 60bc
00000170: 0b0c d6bd 00a2 c73d bd4b 8d3d ebbe 02be
00000180: f2c7 9b3d 580d c6bd f866 2c3e 0cf1 193e
00000190: 15a9 adbd 8cea ad3d 7bb7 f4bb 6d94 d3bc
000001a0: 4ecd f1bd 13fb 213d 6682 4dbe b78a cf3d
000001b0: b117 0b3e cf1a 0bbe d07a 25bd bbf9 5ebe
000001c0: d888 84bd 42b1 5fbd a97d 1e3d 50e2 c63d
000001d0: 83ba 5cbd 2d76 ee3d aa94 21be b9ff 283e
000001e0: bb62 8fbd feb6 f43c 69f9 483d 7b21 61be
000001f0: c499 9d3d d26b edbc 6307 92bc e19b 533d
00000200: db0f 423c a8eb 61bc 995c e23d b587 9cbd
00000210: af28 3ebd c694 c5bd ff5f 77bd a4fb a4bb
00000220: 6d9b 3fbe 13c3 21ba 923a ccbc 7083 81bd
00000230: ad77 adbd e159 303c 6cea 04bd 0733 8cbd
00000240: 7e6b a43c 0096 e03c c1e3 01bd 3f2b 68bd
00000250: 6017 183c f53c 19bd b113 f2bd 3ed0 a8bd
00000260: 0b9a 18bd dc9e 37bd 8419 bbbd 6a3a 0d3d
00000270: e59e 843c eeb9 71bd 7dd3 2b3d 2c6a 533d
00000280: 05f8 5bbc fea7 49be 7626 e63c 9c0c e5bd
00000290: cfd7 20be b2ed d83b 9ee1 453d 9491 233d
000002a0: 1ade d13c 9834 eebd 2c96 bebd 46c7 e2bb
000002b0: 2eaa 863d 95cc 37be 6bea 043d a14f 3d3d
000002c0: 8d59 d33b 9475 8a3d c82d 0dbe a08e 6b3c
000002d0: 78f8 053d bcc5 fa3c b1f3 043e 7db3 c5bd
000002e0: 6981 143d b17b 40bd 56cb afbd 4392 853c
000002f0: 0b58 27bc 9e98 a93c c398 e9bd 527d 493d
00000300: 060f 1cbd 2b26 393d 4510 f2bc 036a 193c
00000310: 09c2 41bd 946d 463d 4123 ffbd 4540 c83c
00000320: 5cbb abbd 08f2 5e3d 8554 bdbd 6685 a7bd
00000330: 0968 80bd 1031 0bbe 614b fdbd 253f aebd
00000340: 0899 36bd d065 743c 4ff1 68bd 5499 72bd
00000350: d569 15bd a554 2b3d 34ae e03c 20d4 2f3d
00000360: 2793 503d 00fd cabd 220c e1bd af2c 16be
00000370: 58cb 97bc a2be babd 6ef1 853d f2fd 033d
00000380: f7c4 17bd c76b 843d 140f 9c3c ee44 0cbd
00000390: b6d6 29bc 49d6 fdbc 951e d3bc 4336 0c3e
000003a0: b4be 7bbc be86 b43d 5699 47bd e259 d23d
000003b0: 084e 0d3b 1afe 613d 4b1c 4a3d e1eb 0d3c
000003c0: 19b0 71bd ed7f 203d 1ba5 883d f4b3 1cbd
000003d0: e8dc aebd 55cc eebd 7fd1 2d3c 7288 c0bc
000003e0: 81ab 993d 0863 dc3d 171a 8fbd 853d 71bc
000003f0: d178 573c 16b5 98bc 3a48 083d ea83 25bd

a2c_network.actor_mlp.4.bias f4 [64]
-0.06363338 -0.13638736 -0.33741704 -0.13907298 -0.5912243 -0.11233186 -0.11178143 -0.22970521
-0.06591386 -0.15355456 -0.17613515 -0.5490913 -0.058582786 0.16020909 -0.19274084 -0.13128948
-0.05056871 -0.08191367 -0.02567289 -0.2664236 -0.21143903 -0.10633652 -0.082260415 0.047176927
-0.26672015 -0.14486706 -0.11465741 -0.15000512 -0.20068394 -0.061985824 -0.11121566 -0.019121552
-0.13174668 -0.5751975 -0.0670671 -0.3338251 -0.10158382 -0.06649825 -0.26733488 -0.12539092
-0.054516163 -0.35370788 -0.54494494 -0.20686541 -0.1010145 -0.052756146 -0.21495369 -0.09938392
-0.06390874 -0.10678731 -0.19011314 -0.21580169 -0.24145287 -0.24658692 -0.35537785 -0.02126882
-0.013833258 -0.11284322 -0.16758999 -0.5366204 -0.18096766 -0.1969564 -0.25333202 -0.14561771
00000000: 3852 82bd 21a9 0bbe edc1 acbe 2669 0ebe
00000010: 7a5a 17bf 3f0e e6bd aaed e4bd d837 6bbe
00000020: d9fd 86bd 683d 1dbe c65c 34be 3f91 0cbf
00000030: 81f4 6fbd da0d 243e db5d 45be c070 06be
00000040: 2321 4fbd 5bc2 a7bd f44f d2bc ad68 88be
00000050: 7983 58be f6c6 d9bd 2678 a8bd 983c 413d
00000060: 8b8f 88be 0858 14be 81d1 eabd f19a 19be
00000070: 1780 4dbe d9e4 7dbd 09c5 e3bd cda4 9cbc
00000080: 9ae8 06be 2540 13bf 7a5a 89bd 20eb aabe
00000090: 2e0b d0bd 3c30 88bd 1ee0 88be 7a66 00be
000000a0: 574c 5fbd 3319 b5be 8381 0bbf 87d4 53be
000000b0: b1e0 cebd d416 58bd d21c 5cbe cc89 cbbd
000000c0: 96e2 82bd 4eb3 dabd 05ad 42be 1efb 5cbe
000000d0: 6c3f 77be 4881 7cbe 16f4 b5be f33b aebc
000000e0: e4a4 62bc 591a e7bd b69c 2bbe f45f 09bf
000000f0: 964f 39be f0ae 49be bcb4 81be cf1c 15be

a2c_network.value.weight f4 [1, 64]
0.004555816 -0.033864647 0.13238738 0.0028644998 -0.07330484 -0.005378202 -0.013850326 0.04633231
-0.01394073 0.0116363065 0.023641653 0.10958576 -0.0062712813 0.07031456 0.0011990843 -0.0046161725
0.020268727 0.0009184816 -0.0019725403 0.035159733 -0.0034072308 0.013092117 0.055655096 0.08738452
-0.008320444 0.06948325 0.059258554 0.037332613 -0.003242103 -0.009622434 0.011577751 -0.018022483
0.01060408 0.013024358 -0.020059887 -0.0868149 -0.03729481 -0.020715341 0.07686977 0.0046921675
0.009071638 0.017717198 0.1981267 0.01394455 -0.040353492 0.0029697155 -0.007012991 0.01192532
0.14279422 0.06680546 0.10900865 0.08971912 -0.028493691 0.04339088 -0.0069319946 -0.015371703
0.053580094 -0.012325904 0.031449154 -0.010872407 0.012417751 0.01896128 0.0059072464 0.017971763
00000000: f448 953b a8b5 0abd 8f90 073e 55ba 3b3b
00000010: d920 96bd a13b b0bb 7aec 62bc f3c6 3d3d
00000020: a967 64bc 35a6 3e3c 24ac c13c 806e e03d
00000030: 527f cdbb 1401 903d 982a 9d3a 4343 97bb
00000040: 9a0a a63c 42c6 703a bc45 01bb a703 103d
00000050: d94b 5fbb 5280 563c 99f6 633d a8f6 b23d
00000060: 7952 08bc 3c4d 8e3d 19b9 723d 15ea 183d
00000070: 7679 54bb 6aa7 1dbc 9bb0 3d3c e3a3 93bc
00000080: bcbc 2d3c 1e64 553c a254 a4bc 03cc b1bd
00000090: 71c2 18bd 38b3 a9bc e66d 9d3d c1c0 993b
000000a0: 35a1 143c a823 913c bae1 4a3e af77 643c
000000b0: b449 25bd 8f9f 423b 3bcd e5bb 6b62 433c
000000c0: a638 123e 4dd1 883d ed3f df3d a8be b73d
000000d0: 9a6b e9bc a3ba 313d c925 e3bb 98d9 7bbc
000000e0: cd76 5b3d 97f2 49bc d4d0 003d 2e22 32bc
000000f0: d373 4b3c b054 9b3c 9391 c13b 8539 933c

a2c_network.mu.weight f4 [18, 64]
0.05615844 -0.027319416 0.0043848315 0.0017217348 -0.008107784 0.010351689 -0.022676997 0.008135847
0.055397727 0.0063908123 0.0032534217 0.001949965 -0.06955063 0.01595137 -0.0036169416 -0.0085957805
0.018033724 -0.014200838 0.01755307 0.01181784 0.050631367 -0.030039398 -0.022341102 -0.009042319
-0.0064106695 0.004048412 -0.006204194 0.030334726 0.02848399 -0.00819693 -0.0049574277 0.011631533
-0.0038845118 0.018225186 -0.0029899855 -0.004334987 -0.0059837983 0.01169754 0.002991628 -0.016844995
0.0056995978 -0.02945699 -0.051599137 -0.011632082 0.011593234 0.019840268 -0.13885637 -0.0002718142
0.021435892 0.00038668315 0.016226707 -0.0028942835 0.013216702 -0.027802054 -0.022466134 0.00070848485
-0.0029601792 0.0017996668 -0.0041370206 -0.00918953 0.0062825996 0.021404048 -0.009669974 -8.7532186e-05
-0.04783307 0.032866556 -0.024593834 -0.023520544 -0.0034174756 -0.039024238 0.068175845 0.046994973
0.0714599 0.046944123 0.002774412 0.01734743 -0.023832966 0.029369697 0.041869957 -0.046580866
-0.02213741 0.0224076 0.011289547 -0.022138251 -0.026846256 0.014609014 0.06345095 0.047268048
0.014339385 -0.027672037 0.007117035 0.033036128 -0.10333215 0.09556757 -0.030127332 0.08615218
-0.015010495 -0.018681398 -0.06437492 -0.031144327 0.04622076 -0.06392419 -0.023938095 0.018237563
0.06616339 -0.07251388 -0.10692691 0.021902665 -0.014708553 0.032379173 0.008766876 0.043718655
0.016228838 -0.0007136425 -0.021591857 -0.012749381 0.012603005 0.020672768 -0.04620809 0.020470079
0.0034900904 -0.024743482 0.003373132 -0.03903086 0.020324204 0.023668347 -0.2677353 -0.006003032
0.02140085 0.009231117 -0.014688956 0.018764466 -0.0045831185 0.00066240825 -0.010518562 -0.039291132
0.040338077 0.004704439 0.019344851 0.038425326 -0.08991417 0.01542558 -0.008425048 -0.0065700635
0.0004916894 0.046462834 0.001303062 -0.023967948 -0.041581318 0.0010821673 0.020764071 0.002547353
-0.013030094 -0.026696462 0.025682962 0.029976098 -0.024368247 0.026137685 -0.01625072 -0.0047406927
0.009099232 -0.01433998 -0.00763146 0.02205328 0.0046110875 -0.008551002 0.015313168 0.005077164
-0.027332671 0.023536688 0.05616097 0.0060777715 -0.00051255553 0.0030564547 1.1186614e-05 0.004511223
-0.055954684 -0.0017960988 0.0010752795 0.028663741 0.03782688 0.006529401 -0.004497158 -0.0004892033
-0.015063919 0.050829202 0.04768475 0.014347068 0.009914467 0.029501982 0.036639035 -0.016044134
-0.005851517 -0.013787703 -0.004227413 0.010825261 -0.0043212418 -0.007131668 -0.005557257 0.022677947
0.0031775518 0.013142755 -0.00443571 -0.084825695 0.075313985 -0.0035858222 0.02304906 0.023063013
0.01435972 -0.016654227 -0.045291837 0.018670835 -0.054154012 0.032250974 -0.0014576457 0.0041113542
0.013869531 -0.042576343 0.0038804081 0.011503454 0.009398205 0.03435766 -0.0025782636 -0.003916283
-0.0484946 0.0038250026 0.00015494975 -0.070753545 -0.007709607 0.015087204 -0.0014022435 -0.057976276
-0.0038821062 -0.07749 -0.08125154 0.01889399 -0.024434622 0.006517134 -0.036468945 -0.008938323
0.027018258 0.009006519 -0.031205663 -0.01006768 -0.0034247104 0.0052899076 0.110392086 -0.012407566
-0.030720145 0.03718161 0.034723636 0.022046069 -0.009546082 -0.004646078 -0.035903916 -0.0077494257
00000000: 6406 663d f8cc dfbc a2ae 8f3b d5ab e13a
00000010: 83d6 04bc 219a 293c 1cc5 b9bc 374c 053c
00000020: bae8 623d 056a d13b 5c37 553b f895 ff3a
00000030: 9070 8ebd 73ac 823c 360a 6dbb 51d5 0cbc
00000040: 76bb 933c a2aa 68bc 75cb 8f3c 9d9f 413c
00000050: d662 4f3d 2f15 f6bc b004 b7bc 3c26 14bc
00000060: 9810 d2bb 8ba8 843b 8d4c cbbb 8880 f83c
00000070: 4257 e93c 6b4c 06bc eb71 a2bb 2f92 3e3c
00000080: 4b93 7ebb fc4c 953c a2f3 43bb 820c 8ebb
00000090: bd13 c4bb 0aa7 3f3c 300f 443b 84fe 89bc
000000a0: b1c3 ba3b c94f f1bc 9e59 53bd 7d94 3ebc
000000b0: 8cf1 3d3c 0f88 a23c 5d30 0ebe 4982 8eb9
000000c0: 539a af3c bcbb ca39 dfed 843c 05ae 3dbb
000000d0: de8a 583c 22c1 e3bc e60a b8bc 9db9 393a
000000e0: 91ff 41bb cce2 eb3a d88f 87bb af8f 16bc
000000f0: 44de cd3b 8b57 af3c d06e 1ebc 7c91 b7b8
00000100: 9cec 43bd 159f 063d 0279 c9bc 28ae c0bc
00000110: baf7 5fbb e1d7 1fbd c79f 8b3d cd7d 403d
00000120: 9159 923d 7b48 403d e9d2 353b 331c 8e3c
00000130: 5a3d c3bc b898 f03c d57f 2b3d 94cb 3ebd
00000140: 8359 b5bc 2590 b73c cbf7 383c 475b b5bc
00000150: aeec dbbc a55a 6f3c 92f2 813d 249c 413d
00000160: bdef 6a3c 78b0 e2bc 0436 e93b e450 073d
00000170: ce9f d3bd eeb8 c33d 98cd f6bc 8e70 b03d
00000180: 94ee 75bc bb09 99bc 00d7 83bd 6322 ffbc
00000190: fb51 3d3d b0ea 82bd d319 c4bc f166 953c
000001a0: ac80 873d 2882 94bd 7ffc dabd 386d b33c
000001b0: 25fc 70bc 06a0 043d f1a2 0f3c 5512 333d
000001c0: 57f2 843c bd13 3bba 68e1 b0bc c8e2 50bc
000001d0: d67c 4e3c f059 a93c b244 3dbd deb0 a73c
000001e0: 00ba 643b d8b2 cabc c40f 5d3b d3de 1fbd
000001f0: f27e a63c 1fe4 c13c 9a14 89be 15b5 c4bb
00000200: d650 af3c 1c3e 173c f2a9 70bc f0b7 993c
00000210: fc2d 96bb 77a5 2d3a 0c56 2cbc bdef 20bd
00000220: 8a39 253d b227 9a3b 1879 9e3c e063 1d3d
00000230: ec24 b8bd 92bb 7c3c 3609 0abc b049 d7bb
00000240: b8e4 003a d04f 3e3d 81cb aa3a 6e58 c4bc
00000250: 2c51 2abd 82d7 8d3a 6a19 aa3c 7ef1 263b
00000260: 2d7c 55bc 8ab2 dabc 1365 d23c 6f90 f53c
00000270: eb9f c7bc b31e d63c 3b20 85bc d057 9bbb
00000280: f214 153c 3cf2 6abc 5411 fabb 15a9 b43c
00000290: 9b18 973b 8019 0cbc 15e4 7a3c 575e a63b
000002a0: c4e8 dfbc 03d0 c03c 0c09 663d 0b28 c73b
000002b0: 055d 06ba cd4e 483b 24ae 3b37 e2d2 933b
000002c0: bd30 65bd 136b ebba 65f0 8c3a 39d0 ea3c
000002d0: 5cf0 1a3d 96f4 d53b e55c 93bb e13d 00ba
000002e0: a8ce 76bc 4832 503d 1651 433d f70f 6b3c
000002f0: 4a70 223c 24ae f13c d012 163d fd6e 83bc
00000300: 15be bfbb d1e5 61bc 1c86 8abb 6f5c 313c
00000310: 3499 8dbb c4b0 e9bb a719 b6bb 1ac7 b93c
00000320: 793e 503b b654 573c 6f59 91bb 18b9 adbd
00000330: 383e 9a3d 1d00 6bbb 62d1 bc3c a5ee bc3c
00000340: 0845 6b3c 726e 88bc ef83 39bd 94f3 983c
00000350: 99d0 5dbd 9919 043d 790e bfba 8ab8 863b
00000360: 083d 633c 8864 2ebd 724e 7e3b fc78 3c3c
00000370: eefa 193c 9eba 0c3d 16f8 28bb 2a54 80bb
00000380: 46a2 46bd e5ac 7a3b 027a 2239 3ce7 90bd
00000390: dfa0 fcbb 5230 773c 7ccb b7ba 8878 6dbd
000003a0: ef6a 7ebb 14b3 9ebd 3567 a6bd 92c7 9a3c
000003b0: 1e2b c8bc af8d d53b 7660 15bd 0b72 12bc
000003c0: 6555 dd3c 1490 133c 05a3 ffbc e9f2 24bc
000003d0: 1b71 60bb f656 ad3b 3f15 e23d 1b49 4bbc
000003e0: d0a8 fbbc be4b 183d 5f3a 0e3d f599 b43c
000003f0: 2b67 1cbc 213e 98bb fc0f 13bd e5ee fdbb

a2c_network.mu.bias f4 [18]
0.11694009 0.29729694 0.031926394 0.05403959 -0.023589643 -0.17875299 0.056141723 0.0419422
0.39429727 0.04660642 -0.16014007 -0.006308775 -0.12692785 0.038691383 0.022860682 0.077187054
-0.019199029 -0.04099255
00000000: 497e ef3d 4e37 983e 40c5 023d 9e58 5d3d
00000010: 113f c1bc 060b 37be ddf4 653d 96cb 2b3d
00000020: 55e1 c93e 60e6 3e3d c2fb 23be d7b9 cebb
00000030: 60f9 01be db7a 1e3d 5346 bb3c 3f14 9e3d
00000040: 4847 9dbc cee7 27bd

exp_avg f4 [18]
-0.0028249787 -0.0019435278 -0.0072324025 0.007167272 -0.003152017 -0.001144308 0.002276162 -0.004726548
0.0037813268 -0.00093658234 -0.0034111885 0.0008281739 -0.0043595773 0.004816763 5.7659e-05 -0.003164557
0.0054048887 -0.001859469
00000000: 4723 39bb f9bd feba cafd ecbb 6fdb ea3b
00000010: 1292 4ebb 9bfc 95ba a92b 153b 29e1 9abb
00000020: 23d0 773b fa84 75ba 3f8e 5fbb cf19 593a
00000030: c9da 8ebb f0d5 9d3b e1d6 7138 7564 4fbb
00000040: 7e1b b13b 6db9 f3ba

exp_avg_sq f4 [18]
0.00020449574 0.00023643854 0.00020251646 0.0002224266 0.00023017124 0.00022739616 0.00021867013 0.00024483324
0.00023847607 0.00023877704 0.00020360014 0.00023013317 0.00024571203 0.00023097244 0.00021929362 0.00022391674
0.00023355304 0.00023853693
00000000: e86d 5639 7dec 7739 995a 5439 303b 6939
00000010: 1f5a 7139 3171 6e39 d14a 6539 f65c 8039
00000020: 6f0f 7a39 3960 7a39 7f7d 5539 e74f 7139
00000030: e9d2 8039 3131 7239 2ff2 6539 31cb 6a39
00000040: ebe5 7439 c51f 7a39
